NIDS_attacks/pytorch_attack/MLP45x2.400.pt (torch, 83018 bytes, 26 tensors)

features.0.weight f4 [128, 45]
-0.08954503 0.10159108 -0.2498432 0.1529875 -0.102600016 -0.028434942 -0.045650948 0.033925124
-0.024936985 -0.1651648 -0.18486771 -0.31378916 -0.10323153 0.037412737 -0.1450904 -0.047860272
-0.045979273 -0.057050154 0.120269634 0.07787772 -0.1755778 -0.195086 0.035108432 0.12598953
-0.10262385 -0.3235132 -0.1568274 -0.10204588 -0.012869367 -0.114781365 -0.17343368 -0.0015856451
-0.21914692 -0.013995054 0.006233671 -0.17736599 0.047563743 -0.040662162 0.14577897 0.20417936
-0.16325231 -0.19419627 -0.04837884 0.109303296 -0.020175243 -0.12788844 0.101427466 0.07019825
0.046662558 0.040026758 0.013870359 0.064117536 0.040049277 0.12869886 0.013654916 0.040970657
0.18638125 -0.06739106 0.09599037 0.018454064 0.12379501 -0.12805325 -0.13494694 -0.014957207
-0.05610942 -0.070763536 0.124813475 0.23383445 -0.08826078 0.146438 0.19731602 -0.0075467373
-0.079471566 -0.06911412 0.08811137 -0.2418992 -0.4149011 0.030162834 0.14392628 0.30503967
0.10969471 -0.0075789928 0.0036328868 -0.67395425 -0.24505119 -0.043329578 0.02829695 0.18173316
0.16380821 0.06097939 -0.22144817 -0.011630124 0.0011133488 -0.1975531 0.21027076 0.12385828
0.069830485 -0.009284561 -0.014891668 -0.008847451 -0.07721567 -0.0621787 0.24990994 -0.08573915
0.08392521 0.12444412 -0.04922885 -0.06286942 -0.18218517 -0.049915686 -0.0032714661 0.086338565
-0.20166753 0.18063302 0.4728298 0.11599419 0.14231232 0.057529274 0.063892834 0.02884121
0.03200861 0.29472047 0.12299028 0.024246944 0.020775221 -0.14292432 0.12599161 0.0038861993
-0.036991842 0.08844717 -0.12011527 0.1570618 0.04873898 -0.15244396 -0.061336715 0.06251641
-0.101963006 0.23446912 0.06969796 0.11177991 -0.036290877 0.03511393 0.16975771 -0.057997506
0.118625835 -0.1259563 -0.005785384 -0.064562775 0.022823753 -0.116661936 0.09334504 -0.005062098
-0.05236356 0.06709113 -0.19964463 0.09449786 0.047441196 0.1250517 -0.12886485 -0.14749038
-0.027876522 -0.14333984 -0.027464038 -0.04814143 0.037417736 -0.06715018 0.11338766 -0.0972504
-0.14316693 0.13251121 0.0054148445 -0.058283024 -0.14427662 -0.13447005 -0.09949299 0.07493544
-0.0046308427 0.11988954 0.0038131136 -0.044848043 0.13935466 -0.061016142 0.12926632 -0.062366832
0.04530796 0.020548338 0.010201233 0.04574228 -0.063113324 -0.02379363 -0.11150961 0.06035251
-0.23371062 0.103960074 -0.097087555 0.131848 0.1527068 -0.10534056 0.19999617 0.077065475
-0.20105557 0.027236577 -0.211348 -0.105732195 -0.20883384 -0.3374195 0.1662818 0.15812483
0.041183323 -0.1358838 0.027195238 -0.14684473 -0.21934374 0.17967498 -0.14082085 0.028221535
0.05602992 0.08337012 0.12484221 -0.058913726 -0.05388455 -0.007001868 -0.33514544 -0.13144116
-0.14462785 0.020923702 0.0460782 0.026928607 -0.1641432 -0.2885486 -0.08246069 -0.01127428
-0.07799082 -0.15354164 0.19806443 0.19925041 -0.07927595 -0.36695573 0.053176004 0.20597829
0.049459767 0.08673249 0.09808273 -0.02246154 -0.11824624 -0.16394013 -0.011635234 -0.008138017
0.12663601 -0.0287943 -0.04631137 -0.028989755 0.20145069 -0.62561554 -0.19317155 -0.10050515
00000000: 6263 b7bd fc0e d03d e5d6 7fbe c1a8 1c3e
00000010: f51f d2bd 65f0 e8bc 7dfc 3abd 12f5 0a3d
00000020: a648 ccbc f620 29be f64d 3dbe f9a8 a0be
00000030: 0d6b d3bd 193e 193d 9492 14be 2209 44bd
00000040: c354 3cbd 6cad 69bd ed4f f63d 5b7e 9f3d
00000050: abca 33be a0c4 47be dccd 0f3d 6603 013e
00000060: 742c d2bd 86a3 a5be 5d97 20be 6efd d0bd
00000070: 0ada 52bc 7e12 ebbd 9998 31be 6cd5 cfba
00000080: 0d68 60be 834b 65bc d343 cc3b 6e9f 35be
00000090: 33d2 423d 5e8d 26bd 1547 153e 6514 513e
000000a0: 9d2b 27be 63db 46be e428 46bd 68da df3d
000000b0: 8d46 a5bc 30f5 02be 34b9 cf3d 1ac4 8f3d
000000c0: 3d21 3f3d 19f3 233d 8140 633c 0e50 833d
000000d0: b60a 243d a2c9 033e deb8 5f3c d9d0 273d
000000e0: bada 3e3e 5304 8abd 9996 c43d fa2c 973c
000000f0: 3d88 fd3d 6420 03be 882f 0abe 130f 75bc
00000100: fed2 65bd 79ec 90bd 359e ff3d 4c72 6f3e
00000110: 11c2 b4bd d8f3 153e 360d 4a3e 9f4a f7bb
00000120: fdc1 a2bd b48b 8dbd bc73 b43d 6db4 77be
00000130: eb6d d4be 0c18 f73c 6961 133e 292e 9c3e
00000140: 9fa7 e03d 3359 f8bb ba15 6e3b 4488 2cbf
00000150: b3ee 7abe 5b7a 31bd 01cf e73c 4218 3a3e
00000160: 57bd 273e 86c5 793d 4fc3 62be 478c 3ebc
00000170: c9ed 913a 5c4b 4abe 3851 573e 69a9 fd3d
00000180: 4903 8f3d 451e 18bc 2ffc 73bc e6f4 10bc
00000190: 4023 9ebd 18af 7ebd 64e8 7f3e 0298 afbd
000001a0: fbe0 ab3d 8fdc fe3d 31a4 49bd afc1 80bd
000001b0: c08e 3abe 6474 4cbd 1866 56bb 46d2 b03d
000001c0: ef81 4ebe ddf7 383e bf16 f23e 5d8e ed3d
000001d0: 52ba 113e d1a3 6b3d 3fda 823d 6744 ec3c
000001e0: 761b 033d 9ae5 963e 54e2 fb3d 87a1 c63c
000001f0: cc30 aa3c c15a 12be f203 013e 9baf 7e3b
00000200: c284 17bd ca23 b53d fffe f5bd cfd4 203e
00000210: 86a2 473d 451a 1cbe 353c 7bbd 9b08 803d
00000220: fbd1 d0bd ac18 703e cebd 8e3d deec e43d
00000230: bea5 14bd a0d3 0f3d f7d4 2d3e cb8e 6dbd
00000240: 1af2 f23d b0fa 00be 5293 bdbb 7d39 84bd
00000250: e1f8 ba3c 74ec eebd af2b bf3d f5df a5bb
00000260: 2c7b 56bd 1367 893d a46f 4cbe 1888 c13d
00000270: b351 423d 8e0d 003e 26f5 03be b807 17be
00000280: 4e5d e4bc aec7 12be 43fc e0bc f32f 45bd
00000290: 5743 193d 0986 89bd ca37 e83d 382b c7bd
000002a0: 5a9a 12be 05b1 073e 026f b13b 2eba 6ebd
000002b0: 40bd 13be 84b2 09be fbc2 cbbd c177 993d
000002c0: 53be 97bb a688 f53d 6ee5 793b 95b2 37bd
000002d0: fdb2 0e3e 10ec 79bd 645e 043e 5d74 7fbd
000002e0: d794 393d fd54 a83c 1323 273c 425c 3b3d
000002f0: 8f41 81bd dcea c2bc 275f e4bd 3234 773d
00000300: d651 6fbe 05e9 d43d d7d5 c6bd 2a03 073e
00000310: 2c5f 1c3e cbbc d7bd cccb 4c3e 81d4 9d3d
00000320: 83e1 4dbe 3e1f df3c 9c6b 58be 1f8a d8bd
00000330: 8ad8 55be 40c2 acbe c745 2a3e 7aeb 213e
00000340: d8af 283d 1f25 0bbe 8cc8 de3c 775e 16be
00000350: a59b 60be b8fc 373e 5733 10be d930 e73c
00000360: a17f 653d f4bd aa3d 46ad ff3d 854f 71bd
00000370: 0cb6 5cbd ed6f e5bb 2f98 abbe 8398 06be
00000380: 5319 14be 2f68 ab3c 7fbc 3c3d 6299 dc3c
00000390: 2815 28be a4bc 93be 26e1 a8bd c2b7 38bc
000003a0: a7b9 9fbd 053a 1dbe 67d1 4a3e 4d08 4c3e
000003b0: 6e5b a2bd 9fe1 bbbe 15cf 593d f9eb 523e
000003c0: 5396 4a3d cea0 b13d 99df c83d 4301 b8bc
000003d0: 162b f2bd ecdf 27be b5a1 3ebc 5155 05bc
000003e0: dfac 013e 06e2 ebbc feb0 3dbd ec7b edbc
000003f0: 1749 4e3e 5728 20bf c3ce 45be a5d5 cdbd

features.0.bias f4 [128]
0.08901596 0.0956542 -0.024085123 0.084889404 -0.119133495 -0.1364822 0.032684654 -0.13992117
-0.0095944945 0.13156457 0.092925616 0.13995203 -0.1413798 -0.072012916 0.054886743 0.10409745
-0.10056453 0.00789015 0.00029824718 0.084523484 0.1269944 -0.03843735 0.009351629 0.03752444
-0.0470339 0.120523855 -0.003355202 -0.008586645 -0.061790925 0.024613453 0.0010696833 0.0021855868
0.03753698 -0.085310645 -0.14678381 -0.13077556 0.13616706 -0.11712419 0.042868704 -0.10952095
0.11913457 0.10607566 0.09710385 0.12315881 -0.007995537 0.09632075 0.105975725 -0.041133527
0.112378575 -0.0045691514 -4.676568e-05 0.080061406 -0.116590984 -0.08507624 0.123147205 -0.0062534735
-0.00043183388 -0.06472571 0.054260492 -0.056946117 0.016529454 0.07899807 0.021065729 0.021831363
-0.056616303 0.13862175 -0.030819627 -0.008234728 -0.007740712 0.1389946 0.059294637 0.09132306
-0.10292821 -0.007147077 0.08547649 -0.0691038 -0.07330413 0.04942065 0.11587314 0.10879275
-0.005695186 -0.121144034 -0.017346676 -0.08422103 -0.041107897 0.11739908 -0.11706966 -0.002793987
0.016897077 -0.0727046 -0.031490944 -0.11590054 0.13603406 -0.0065058777 0.13870215 0.12200755
-0.018649843 0.021278644 0.08603159 0.025117833 -0.122503236 -0.13236904 0.042094875 -0.08408578
-0.12755142 -0.032033365 -0.0024878415 -0.08047268 0.01784779 -0.09233095 0.029090453 0.026614856
0.12694858 -0.108454585 -0.13071801 0.055796806 -0.08459925 0.067720816 -0.041827895 -0.011064579
0.013139188 0.10463918 0.14406827 -0.12495425 -0.05596227 0.14347802 0.012107255 0.10242624
00000000: 004e b63d 59e6 c33d 2a4e c5bc 7fda ad3d
00000010: 43fc f3bd fdc1 0bbe 58e0 053d 7f47 0fbe
00000020: 3a32 1dbc ddb8 063e c94f be3d 964f 0f3e
00000030: dec5 10be 827b 93bd ecd0 603d 0b31 d53d
00000040: c7f4 cdbd b045 013c 0f5e 9c39 a61a ad3d
00000050: d20a 023e 7c70 1dbd 9337 193c 3ab3 193d
00000060: 9ea6 40bd 36d5 f63d f3e2 5bbb 00af 0cbc
00000070: 7b18 7dbd 27a2 c93c 9e34 8c3a 103c 0f3b
00000080: 60c0 193d 59b7 aebd 7f4e 16be 07ea 05be
00000090: 616f 0b3e cfde efbd 1897 2f3d 854c e0bd
000000a0: d3fc f33d 323e d93d 62de c63d b03a fc3d
000000b0: b6ff 02bc d043 c53d cd09 d93d a17b 28bd
000000c0: bd26 e63d d2b8 95bb 4426 44b8 3cf7 a33d
000000d0: 41c7 eebd 743c aebd 9a34 fc3d f0e9 ccbb
000000e0: c367 e2b9 ea8e 84bd 4040 5e3d 5540 69bd
000000f0: c768 873c bdc9 a13d 0992 ac3c b0d7 b23c
00000100: 7fe6 67bd dcf2 0d3e 7179 fcbc f4ea 06bc
00000110: cca5 fdbb 9a54 0e3e efde 723d 9607 bb3d
00000120: 06cc d2bd 0732 eabb 4c0e af3d 4b86 8dbd
00000130: 7a20 96bd 4f6d 4a3d e64e ed3d bcce de3d
00000140: af9e babb 5d1a f8bd 9e1a 8ebc 137c acbd
00000150: c160 28bd ee6e f03d 38c2 efbd 531b 37bb
00000160: bd6b 8a3c 26e6 94bd a6fc 00bd 435d edbd
00000170: 834c 0b3e 422f d5bb f007 0e3e 18df f93d
00000180: 8ec7 98bc 8d50 ae3c 5531 b03d eac3 cd3c
00000190: fae2 fabd c08b 07be ad6b 2c3d 2a35 acbd
000001a0: d79c 02be 6b35 03bd 0e0b 23bb dcce a4bd
000001b0: 8735 923c 0218 bdbd 1a4f ee3c 6607 da3c
000001c0: cffe 013e 701d debd f1da 05be 318b 643d
000001d0: 5f42 adbd 36b1 8a3d ba53 2bbd 3548 35bc
000001e0: c045 573c 114d d63d a286 133e 04e8 ffbd
000001f0: b138 65bd e7eb 123e 825d 463c d9c4 d13d

features.1.weight f4 [128]
0.96268755 1.1135674 0.97190064 1.000019 0.91994697 1.0068824 0.9431191 0.9935326
0.99920624 0.9048064 1.0068367 0.9198625 1.2517924 1.1775519 0.9706433 0.9935151
1.2505608 1.0197111 0.8686314 0.90189123 1.013627 0.93717384 0.99079925 0.9469299
0.9828089 0.96402776 1.1481833 1.2050385 1.0643288 0.8630093 1.1218246 1.0582908
1.1535931 1.57901 1.0559067 0.9766304 0.8762033 0.85539687 1.1093771 0.93279046
0.9231143 0.9535041 1.0164 0.9995826 1.0508136 1.357831 1.2943286 0.9660393
1.138621 1.0518708 1.273694 1.0578582 1.0563741 1.0616939 0.878979 0.9154973
1.0546285 0.98403925 0.9718334 1.0277551 1.121933 0.98279995 0.89030653 0.9050243
1.0567693 1.0351508 1.0985237 0.95811015 1.5945605 0.9176134 1.0476929 0.9579147
1.3759049 0.9453082 0.87624127 0.9220775 0.9104078 1.0194899 0.91757476 1.0419055
1.0982531 1.3561527 1.2572213 0.92948496 1.0288484 1.0317682 1.0345931 1.0224386
0.8909184 0.91430473 0.96509343 1.0732062 0.98382574 0.86862165 1.0121258 0.97057307
0.90740246 0.9747061 0.99187875 0.9816011 0.9515851 0.9635303 0.92663985 0.9437051
1.0363721 1.0575938 0.8986141 1.0832618 0.9936718 0.9073189 0.8861856 0.99000317
1.0754619 0.84277225 0.8925742 1.0597395 0.96186835 0.9166002 0.9413064 1.0099137
1.0475577 1.2508836 1.0266485 1.0222179 0.8548783 1.0245152 0.9410097 0.91428065
00000000: b172 763f 6089 8e3f 7bce 783f 9f00 803f
00000010: a581 6b3f 86e1 803f 4170 713f 2758 7e3f
00000020: fbcb 7f3f 64a1 673f 06e0 803f 1c7c 6b3f
00000030: bc3a a03f 05ba 963f 147c 783f 0157 7e3f
00000040: 6012 a03f e585 823f a15e 5e3f 58e2 663f
00000050: 88be 813f a0ea 6f3f 05a5 7d3f ff69 723f
00000060: 5d99 7b3f 86ca 763f acf7 923f b43e 9a3f
00000070: ed3b 883f 2dee 5c3f f397 8f3f 1376 873f
00000080: f0a8 933f 001d ca3f f327 873f 7304 7a3f
00000090: dc4e 603f 4afb 5a3f 1200 8e3f 5bcb 6e3f
000000a0: 3851 6c3f d818 743f 6519 823f a5e4 7f3f
000000b0: 0f81 863f 68cd ad3f 8fac a53f 5a4e 773f
000000c0: 55be 913f b4a3 863f 6808 a33f e667 873f
000000d0: 4437 873f 96e5 873f c504 613f 085e 6a3f
000000e0: 11fe 863f ffe9 7b3f 13ca 783f 7b8d 833f
000000f0: 809b 8f3f c798 7b3f 21eb 633f acaf 673f
00000100: 3744 873f d27f 843f 6d9c 8c3f b546 753f
00000110: 8f1a cc3f b6e8 6a3f cd1a 863f e639 753f
00000120: a71d b03f b8ff 713f 5951 603f 450d 6c3f
00000130: 7c10 693f a57e 823f 2ee6 6a3f 295d 853f
00000140: 8f93 8c3f 6996 ad3f a1ec a03f baf2 6d3f
00000150: 4eb1 833f fb10 843f 8c6d 843f 45df 823f
00000160: 3a13 643f e00f 6a3f 5d10 773f d25e 893f
00000170: 01dc 7b3f fd5d 5e3f 578d 813f 7a77 783f
00000180: 874b 683f 5786 793f c4eb 7d3f 364a 7b3f
00000190: 159b 733f eca9 763f 4538 6d3f a896 713f
000001a0: d7a7 843f 3c5f 873f 930b 663f 53a8 8a3f
000001b0: 4661 7e3f 0d46 683f 0fdd 623f d970 7d3f
000001c0: bca8 893f ecbf 573f be7f 643f 8ba5 873f
000001d0: 013d 763f 50a6 6a3f 75f9 703f da44 813f
000001e0: 5f16 863f f41c a03f 3869 833f 09d8 823f
000001f0: 4ed9 5a3f 5023 833f 03e6 703f 4c0e 6a3f

features.1.bias f4 [128]
-0.17035866 -0.015154472 -0.04143158 0.00856195 -0.051370684 -0.01197892 0.070643306 0.057083387
-0.031707536 -0.043823503 0.02068464 -0.0671803 0.117931575 -0.15940921 -0.0036434154 -0.00079898257
0.056405358 0.03151338 -0.066078015 0.054171216 0.021033779 -0.07106953 -0.105619416 -0.021823002
0.023598121 -0.05966237 0.011752373 -0.0839394 0.04650162 -0.10279148 0.09672685 -0.010996546
0.028056283 0.009755972 0.01602762 -0.0216902 -0.13550743 -0.18521202 -0.2633274 -0.06885396
-0.07936799 0.0551062 -0.06584223 -0.17394662 -0.024632 -0.25685441 -0.0099539785 -0.10450527
-0.07922288 -0.093187906 -0.3203464 0.014091681 -0.019186238 -0.16293731 -0.042245634 -0.11317277
0.048170224 -0.045126934 -0.08925509 -0.073220834 0.07249184 -0.05668637 -0.059857868 -0.063176975
0.060401917 -0.066435866 0.018831095 -0.13437054 -0.029323362 -0.16587798 -0.05479509 -0.0046663033
-0.053105216 -0.16537601 -0.10896827 -0.09058169 0.053409223 0.081270985 -0.057987217 -0.026445039
0.032808248 -0.29985124 -0.024421016 0.046824846 0.025491467 0.01629709 0.034121778 0.05431668
-0.08511827 -0.05449195 0.038289934 0.059394788 -0.038077567 -0.14009681 0.03484822 -0.08584248
-0.00892845 -0.075002395 0.020112706 -0.075923234 -0.08171067 -0.045693636 0.03868628 -0.098485366
-0.08263383 -0.07261613 -0.06634494 0.025079345 -0.08129329 -0.11018255 -0.067400694 0.020341495
0.0046644327 -0.09496831 -0.08797736 0.03453663 -0.22446576 -0.10439088 -0.013565181 -0.13283864
-0.17368719 -0.004749768 0.0849579 0.04682073 -0.015409846 0.023264116 -0.03554489 -0.075314246
00000000: 8072 2ebe 764a 78bc 29b4 29bd 6c47 0c3c
00000010: 116a 52bd 3b43 44bc 70ad 903d 45d0 693d
00000020: c3df 01bd 4680 33bd d672 a93c d395 89bd
00000030: 1c86 f13d 2b3c 23be 5ec6 6ebb d072 51ba
00000040: 4e09 673d 2d14 013d e953 87bd a3e2 5d3d
00000050: 084f ac3c e78c 91bd fe4e d8bd 27c6 b2bc
00000060: d950 c13c 8760 74bd 068d 403c 6ce8 abbd
00000070: 7c78 3e3d 5784 d2bd ba18 c63d db2a 34bc
00000080: 4ad6 e53c 83d7 1f3c 5b4c 833c a5af b1bc
00000090: 76c2 0abe 38a8 3dbe d9d2 86be 4e03 8dbd
000000a0: af8b a2bd 0ab7 613d 4bd8 86bd 101f 32be
000000b0: 0cc9 c9bc 6c82 83be 0316 23bc dc06 d6bd
000000c0: 9b3f a2bd 4dd9 bebd 7104 a4be cbe0 663c
000000d0: 752c 9dbc 0ad9 26be c209 2dbd 20c7 e7bd
000000e0: 244e 453d 05d7 38bd 5fcb b6bd cef4 95bd
000000f0: 9a76 943d f82f 68bd 862d 75bd ee62 81bd
00000100: 0068 773d 870f 88bd ab43 9a3c 6e98 09be
00000110: 8c37 f0bc ebdb 29be d170 60bd cae7 98bb
00000120: db84 59bd 5458 29be c22a dfbd e582 b9bd
00000130: a1c3 5a3d 6771 a63d 0184 6dbd 44a3 d8bc
00000140: f161 063d 1a86 99be 950e c8bc 69cb 3f3d
00000150: 7bd3 d03c 7a81 853c 47c3 0b3d 2b7b 5e3d
00000160: 7d52 aebd f332 5fbd e8d5 1c3d f347 733d
00000170: 39f7 1bbd 8a75 0fbe 02bd 0e3d 2fce afbd
00000180: a248 12bc db9a 99bd 67c3 a43c a47d 9bbd
00000190: ec57 a7bd 4029 3bbd 8175 1e3d b2b2 c9bd
000001a0: ed3b a9bd c4b7 94bd dbdf 87bd 3373 cd3c
000001b0: 197d a6bd 64a7 e1bd 6009 8abd 35a3 a63c
000001c0: 19d8 983b bf7e c2bd 792d b4bd 4876 0d3d
000001d0: 5ada 65be e3ca d5bd 7e40 5ebc da06 08be
000001e0: 0edb 31be f1a3 9bbb 68fe ad3d 18c7 3f3d
000001f0: 9479 7cbc 6394 be3c 8597 11bd 5b3e 9abd

features.1.running_mean f4 [128]
-0.20202893 -0.014391384 -0.2885186 0.23040244 0.17632855 -0.11068887 0.40415996 0.20687287
-0.24496824 0.46327376 -0.1203572 0.4388844 -0.076716915 -0.20142059 0.4145596 0.34088758
-0.21638876 -0.28691277 0.049872313 0.20395353 0.041021354 -0.4003461 -0.0008412141 0.07557067
-0.33591422 0.03359446 0.020198984 -0.20598747 0.04990691 -0.21573097 -0.25134966 -0.2515652
0.21061297 -0.17374179 -0.41378963 -0.55685985 -0.10029491 -0.18543229 -0.012888156 0.05191532
0.17729017 -0.099211544 -0.035979338 -0.09876412 -0.31679282 -0.116040125 0.013596278 -0.08395975
0.12782656 -0.21705961 -0.0077033853 0.28427795 -0.43156853 -0.12217539 0.3914957 -0.037863255
-0.16851087 -0.2706869 -0.17603262 -0.109014146 0.14168413 0.015167283 0.7718217 -0.21816401
-0.051445913 0.054532614 -0.35469928 0.03790761 -0.07590681 0.011430635 0.124246866 0.16046508
-0.14016177 -0.09492007 0.1484611 -0.06275111 0.17838669 0.2753917 0.3034106 -0.109492265
0.073212475 -0.1943245 -0.07774166 -0.18224946 0.4981819 -0.13551272 -0.38660124 -0.09416764
0.023669366 -0.7662783 -0.14450027 -0.033816192 0.09433239 -0.033127613 -0.06596679 0.4214953
0.011338052 0.103303805 -0.40800342 -0.047029797 -0.0899937 -0.100712456 -0.030532444 0.16285826
-0.5239556 -0.1480828 -0.26556015 -0.24042432 0.07875829 -0.02373552 0.44352764 -0.27257606
0.18046704 -0.10503866 0.21910033 -0.038137045 -0.1179523 0.051776923 -0.15658762 0.055710502
-0.19419596 0.01305502 0.1004194 -0.20268063 -0.36075756 0.17318602 -0.119148105 0.36963004
00000000: ace0 4ebe d7c9 6bbc b6b8 93be 9eee 6b3e
00000010: 798f 343e d9b0 e2bd 0eee ce3e 7bd6 533e
00000020: f4d8 7abe 3832 ed3e d67d f6bd 75b5 e03e
00000030: c21d 9dbd 3341 4ebe 2841 d43e d188 ae3e
00000040: 0495 5dbe 3be6 92be e946 4c3d 32d9 503e
00000050: 0206 283d 2afa ccbe ec84 5cba ccc4 9a3d
00000060: f3fc abbe 589a 093d 5778 a53c 61ee 52be
00000070: 306b 4c3d 94e8 5cbe e7b0 80be 27cd 80be
00000080: edaa 573e 5ee9 31be 3cdc d3be 5e8e 0ebf
00000090: 6b67 cdbd f6e1 3dbe d828 53bc 29a5 543d
000000a0: 8e8b 353e 6c2f cbbd 125f 13bd d844 cabd
000000b0: ab32 a2be 72a6 edbd ecc2 5e3c 17f3 abbd
000000c0: f7e4 023e e044 5ebe ae6c fcbb e18c 913e
000000d0: 8df6 dcbe 1737 fabd 2072 c83e 8016 1bbd
000000e0: 1d8e 2cbe 7997 8abe e541 34be cf42 dfbd
000000f0: a515 113e 3280 783c 1b96 453f 6366 5fbe
00000100: f3b8 52bd 975d 5f3d 259b b5be 0345 1b3d
00000110: 0875 9bbd 8f47 3b3c 2475 fe3d f550 243e
00000120: 9186 0fbe 7465 c2bd 3006 183e a783 80bd
00000130: 00ab 363e 2400 8d3e a258 9b3e 7b3d e0bd
00000140: 6cf0 953d 00fd 46be 0537 9fbd 9a9f 3abe
00000150: b311 ff3e d9c3 0abe 99f0 c5be f7da c0bd
00000160: 42e6 c13c d12a 44bf e1f7 13be d982 0abd
00000170: 5731 c13d d2b0 07bd 9919 87bd 3bce d73e
00000180: 3dc3 393c f290 d33d d3e5 d0be 51a2 40bd
00000190: 9e4e b8bd 5542 cebd 2d1f fabc 51c4 263e
000001a0: f421 06bf 04a3 17be 80f7 87be cb31 76be
000001b0: 074c a13d fe70 c2bc 0e16 e33e 178f 8bbe
000001c0: 5acc 383e 821e d7bd d65b 603e 9735 1cbd
000001d0: fa90 f1bd 0a14 543d 8158 20be b230 643d
000001e0: 4edb 46be b9e4 553c b0a8 cd3d 838b 4fbe
000001f0: 37b5 b8be ad57 313e ec03 f4bd 2640 bd3e

features.1.running_var f4 [128]
0.024588848 0.034887385 0.023824256 0.024251718 0.035607044 0.031801473 0.051619515 0.033805326
0.029541267 0.016881572 0.0473068 0.041850876 0.006139474 0.019707426 0.05023611 0.021922816
0.036631588 0.026097141 0.031783246 0.033496544 0.030491361 0.045717508 0.014382487 0.048457537
0.029845078 0.056123648 0.016131142 0.026862253 0.052091166 0.024647426 0.03240813 0.050127603
0.009440608 0.013824714 0.024941025 0.05578998 0.03371126 0.040701423 0.020711526 0.055263337
0.013019965 0.032084752 0.009002293 0.08877072 0.02053938 0.032668855 0.01191798 0.031428363
0.042420793 0.021021994 0.013031095 0.028895902 0.044212766 0.0086004 0.020958045 0.035719432
0.031668555 0.016476931 0.052890964 0.042272523 0.03034123 0.021726789 0.06185054 0.040298384
0.033021152 0.025938556 0.035882525 0.044929072 0.014038574 0.026781738 0.027185364 0.027280025
0.0040851426 0.02281324 0.07118477 0.035958286 0.043850135 0.015559934 0.044496976 0.013733476
0.029633883 0.01853218 0.018039055 0.024597563 0.031719644 0.039754625 0.048718106 0.03731189
0.049725473 0.09072741 0.0423819 0.06327317 0.033954997 0.03642199 0.025475701 0.011681676
0.035640784 0.013607656 0.058355663 0.03427906 0.010642844 0.021863844 0.04560181 0.026911288
0.04454609 0.005926511 0.03971094 0.016036935 0.027185425 0.012928467 0.0570948 0.040198974
0.009574784 0.039422173 0.051043015 0.027757209 0.030162584 0.0415336 0.026872475 0.030710258
0.012094008 0.03287198 0.03299755 0.04554377 0.04079494 0.020354332 0.092072435 0.033391163
00000000: 8d6e c93c 13e6 0e3d 162b c33c 8aab c63c
00000010: b1d8 113d 4342 023d fc6e 533d 7477 0a3d
00000020: 8700 f23c 394b 8a3c c6c4 413d d36b 2b3d
00000030: a42d c93b 7871 a13c 61c4 4d3d 7a97 b33c
00000040: 010b 163d acc9 d53c 262f 023d ac33 093d
00000050: 05c9 f93c 4842 3b3d 86a4 6b3c 697b 463d
00000060: aa7d f43c e9e1 653d 7525 843c 3a0e dc3c
00000070: 8c5d 553d 66e9 c93c 63be 043d 9a52 4d3d
00000080: c8ac 1a3c 0e81 623c 1f51 cc3c 0984 643d
00000090: d114 0a3d 89b6 263d 38ab a93c cf5b 623d
000000a0: b151 553c 4d6b 033d 5b7e 133c 6ccd b53d
000000b0: 3442 a83c c7cf 053d a243 433c 07bb 003d
000000c0: 6dc1 2d3d 5136 ac3c 6080 553c 19b7 ec3c
000000d0: 7218 353d b1e8 0c3c 35b0 ab3c 8a4e 123d
000000e0: e3b6 013d a1fa 863c 32a4 583d f425 2d3d
000000f0: 2c8e f83c 61fc b13c fe56 7d3d eb0f 253d
00000100: 3041 073d 187d d43c 8ef9 123d 8c07 383d
00000110: 0c02 663c 6065 db3c d7b3 de3c 5c7a df3c
00000120: a9dc 853b d5e2 ba3c 52c9 913d ff48 133d
00000130: 339c 333d 18ef 7e3c 7642 363d 6002 613c
00000140: c2c2 f23c ccd0 973c a4c6 933c d480 c93c
00000150: 75ec 013d bfd5 223d a38c 473d 5ad4 183d
00000160: f0ac 4b3d 4bcf b93d a598 2d3d 5d95 813d
00000170: 6514 0b3d 392f 153d 6bb2 d03c 8064 3f3c
00000180: 12fc 113d a5f2 5e3c 5906 6f3d 3368 0c3d
00000190: 535f 2e3c ce1b b33c f7c8 3a3d 1075 dc3c
000001a0: f675 363d 2d33 c23b f0a7 223d e45f 833c
000001b0: f8b3 de3c ecd1 533c 3ddc 693d aea7 243d
000001c0: 8edf 1c3c 2579 213d 7b12 513d 1663 e33c
000001d0: 8617 f73c 231f 2a3d aa23 dc3c 1494 fb3c
000001e0: f225 463c c5a4 063d 7028 073d 1b8c 3a3d
000001f0: 9818 273d 21be a63c 7990 bc3d 2cc5 083d

features.3.weight f4 [64, 128]
0.01652285 -0.053525724 0.0033348443 -0.13825893 -0.01097856 0.061531134 -0.112585135 -0.10383799
0.13263197 -0.03264372 -0.09820423 -0.13364936 0.01913015 -0.13487747 0.10918731 -0.07845
0.05895428 0.0974882 0.119349815 -0.058469865 0.041757964 -0.0023912997 0.12573884 -0.073220015
0.051134933 -0.078145824 0.10525794 0.048581388 -0.018059466 0.10639888 0.110890284 -0.06846336
-0.06782504 -0.102799885 0.12425586 0.059680402 0.020285854 0.028133234 -0.17662337 -0.0106429625
0.07893507 0.10742299 -0.13040222 -0.040533546 0.092929 0.098684974 0.15667067 -0.028538344
-0.12579702 0.122981764 0.0796035 0.05027562 -0.06956704 0.14359893 0.0091170585 0.12007186
0.06391104 -0.10734933 0.023584904 -0.10034154 -0.060230844 -0.14174713 -0.107051335 0.1024255
-0.08437887 0.03691387 0.09325097 -0.007809084 0.10447777 -0.025546195 -0.044396788 -0.1078878
-0.07310045 -0.018371943 0.06276071 -0.021008374 0.066912755 -0.060369596 0.05880543 0.036820725
-0.009449216 -0.08991981 0.09262255 -0.007993136 -0.07319129 0.06341437 0.050433278 -0.15087801
0.0031113133 0.17468762 -0.0075905463 -0.08065821 -0.11355931 -0.05721218 0.09114128 -0.13305788
0.058520056 -0.002946724 0.10799037 -0.15737641 -0.033126276 -0.02443599 -0.05382568 -0.07910219
0.08803641 -0.0917846 0.023071166 0.17185092 0.11059363 -0.024000537 -0.037066404 0.016993262
0.07666296 -0.011904297 -0.054966327 0.090907335 0.1785517 -0.15075533 -0.0762202 -0.030989796
0.07601308 -0.1088848 -0.15283059 -0.07234694 0.0330192 -0.10915801 -0.025963664 -0.09932938
0.08466875 0.03346111 -0.107147306 0.12170198 -0.009715008 0.012654838 -0.06368773 0.007388875
0.070119634 0.017422762 0.008963416 -0.0028927256 0.11269336 -0.031221576 0.029115688 0.0018518756
0.02019425 -0.16928695 -0.08829755 0.043760866 -0.124212146 0.048528433 -0.029053414 -0.09594275
0.019993268 0.09004497 -0.118436255 -0.034832757 0.049808115 0.048099536 -0.0077063576 0.16398865
-0.03847398 -0.09972414 -0.17442214 -0.053460333 0.0382808 -0.091236874 -0.00961641 0.053358223
0.018548418 0.112042755 0.006948327 -0.01953203 -0.04682836 -0.041787222 0.03644187 -0.0382156
-0.12006293 -0.04896379 0.12677175 0.03172931 0.031241285 0.06674814 -0.070355706 -0.13505761
-0.08400671 -0.016651647 -0.04419322 -0.033476993 0.01622507 0.12659425 0.06426077 0.014694308
0.18991317 -0.00439748 -0.04228061 -0.03987417 0.11375516 0.07613133 0.03791469 -0.07213759
0.009509358 0.061460294 0.021596454 0.045718044 -0.080101706 -0.063521154 -0.02856257 -0.14860295
-0.0129986685 0.023002699 -0.048159856 0.02269516 -0.004756547 -0.13194424 -0.22330202 0.109866425
-0.070465595 -0.09415421 0.15942256 0.13939203 0.11646731 0.022850968 -0.094912805 0.06513825
0.018408306 0.028345851 -0.12606016 -0.03298982 0.066024736 0.023083014 -0.029640466 0.12920994
-0.1055449 0.06147625 0.06322678 -0.123806104 0.099681616 -0.03636947 0.08497865 0.044168714
0.030749451 0.13037813 0.07025612 -0.06372587 0.0195191 0.026287965 0.020119313 0.072831504
-0.00038259005 0.06332177 0.15819167 0.12017662 -0.03778573 0.08326367 0.047697674 0.12629472
00000000: ee5a 873c ca3d 5bbd 678d 5a3b c093 0dbe
00000010: 6bdf 33bc 1208 7c3d 0993 e6bd 03a9 d4bd
00000020: add0 073e 6cb5 05bd 4d1f c9bd 61db 08be
00000030: d5b6 9c3c 521d 0abe 999d df3d 65aa a0bd
00000040: 0b7a 713d e5a7 c73d ad6d f43d 197e 6fbd
00000050: 660a 2b3d 5ab7 1cbb afc1 003e 60f4 95bd
00000060: dd72 513d eb0a a0bd 7a91 d73d 47fd 463d
00000070: 72f1 93bc a8e7 d93d 721a e33d 8536 8cbd
00000080: dbe7 8abd bf88 d2bd db79 fe3d 7073 743d
00000090: 852e a63c ab77 e63c c2dc 34be d25f 2ebc
000000a0: b6a8 a13d 9600 dc3d 2988 05be 8106 26bd
000000b0: 8f51 be3d 591b ca3d 476e 203e 3fc9 e9bc
000000c0: efd0 00be dddd fb3d 2907 a33d cfed 4d3d
000000d0: 2a79 8ebd 990b 133e b75f 153c 3ce8 f53d
000000e0: cbe3 823d f7d9 dbbd 2135 c13c de7f cdbd
000000f0: 9eb4 76bd 2926 11be bb3d dbbd 76c4 d13d
00000100: d4ce acbd 0033 173d 5dfa be3d 58e3 ffbb
00000110: 71f8 d53d 4146 d1bc 68d9 35bd 47f4 dcbd
00000120: b0b5 95bd c280 96bc b088 803d c119 acbc
00000130: 8e09 893d 1c46 77bd f6dd 703d 54d1 163d
00000140: e2d0 1abc e127 b8bd e4b0 bd3d a4f5 02bc
00000150: 51e5 95bd 65df 813d 2093 4e3d c47f 1abe
00000160: 2de7 4b3b 50e1 323e 1eba f8bb 2230 a5bd
00000170: c991 e8bd 5257 6abd 48a8 ba3d 5340 08be
00000180: bab2 6f3d d31d 41bb 0e2a dd3d 4827 21be
00000190: 6baf 07bd fc2d c8bc 5178 5cbd 5400 a2bd
000001a0: 6f4c b43d 90f9 bbbd beff bc3c b0f9 2f3e
000001b0: ea7e e23d c69c c4bc f1d2 17bd 7435 8b3c
000001c0: 7801 9d3d 3e0a 43bc 5f24 61bd a02d ba3d
000001d0: 42d6 363e 9b5f 1abe 5619 9cbd 50de fdbc
000001e0: bfac 9b3d fefe debd 9f7f 1cbe a22a 94bd
000001f0: 243f 073d 3c8e dfbd c0b1 d4bc 346d cbbd
00000200: cf66 ad3d 840e 093d 0c70 dbbd e33e f93d
00000210: b22b 1fbc 3d56 4f3c b66e 82bd 601e f23b
00000220: e29a 8f3d 2eba 8e3c 4bdb 123c e293 3dbb
00000230: c7cb e63d 64c4 ffbc 0684 ee3c a2ba f23a
00000240: 696e a53c 8f59 2dbe 59d5 b4bd 983e 333d
00000250: f062 febd c0c5 463d 6d01 eebc a27d c4bd
00000260: ecc8 a33c 7f69 b83d b58e f2bd cbac 0ebd
00000270: 9803 4c3d 0504 453d 9d85 fcbb a4ec 273e
00000280: e496 1dbd 2b3c ccbd b89b 32be 39f9 5abd
00000290: 54cc 1c3d 66da babd 268e 1dbc 278e 5a3d
000002a0: daf2 973c ac76 e53d cbae e33b a301 a0bc
000002b0: 18cf 3fbd 1429 2bbd 1244 153d f687 1cbd
000002c0: 8ee3 f5bd 418e 48bd 74d0 013e 98f6 013d
000002d0: b9ed ff3c 40b3 883d a716 90bd 8b4c 0abe
000002e0: b60b acbd 0969 88bc f303 35bd 2c1f 09bd
000002f0: 70ea 843c eca1 013e 279b 833d 65c0 703c
00000300: 9978 423e bc18 90bb 6f2e 2dbd 1953 23bd
00000310: 77f8 e83d beea 9b3d 6f4c 1b3d dfbc 93bd
00000320: 23cd 1b3c cabd 7b3d 0ceb b03c d842 3b3d
00000330: 5d0c a4bd 6117 82bd 0dfc e9bc 5f2b 18be
00000340: 5ef8 54bc 2870 bc3c 4543 45bd 33eb b93c
00000350: cfdc 9bbb 641c 07be 49a9 64be a601 e13d
00000360: 4450 90bd ecd3 c0bd ab3f 233e c9bc 0e3e
00000370: 6a86 ee3d f431 bb3c a561 c2bd 3467 853d
00000380: 04cd 963c 8f35 e83c ea15 01be 5520 07bd
00000390: fa37 873d 9718 bd3c 90d0 f2bc 9c4f 043e
000003a0: ed27 d8bd 85ce 7b3d 0b7d 813d 0e8e fdbd
000003b0: e025 cc3d 27f8 14bd 4909 ae3d 41ea 343d
000003c0: 46e6 fb3c d881 053e 71e2 8f3d b582 82bd
000003d0: 85e6 9f3c dc59 d73c 42d1 a43c af28 953d
000003e0: 5e96 c8b9 d8ae 813d fffc 213e 291f f63d
000003f0: 36c5 1abd 2586 aa3d a35e 433d 6753 013e

features.3.bias f4 [64]
-0.08354205 -0.07249723 -0.07788684 0.051592343 0.040888514 -0.019269317 0.074017435 -0.06449657
0.038677793 0.011602061 -0.0465391 0.033498198 -0.07783456 0.023946721 0.054896515 0.03470481
0.08110826 -0.045901142 -0.070161335 -0.01190616 0.08068339 0.058481205 0.079966724 -0.06664032
-0.08429841 0.04712205 0.08056924 0.023616115 -0.053400796 0.039737344 -0.013220314 -0.016790437
-0.03594051 0.0668973 0.08001519 0.027212512 -0.01849383 -0.042366806 0.005283397 -0.039084837
0.078771144 -0.023781832 0.03067803 -0.059534006 -0.06780923 -0.044465464 -0.0639903 -0.06490287
-0.07889486 0.077510014 -0.06189135 -0.014062748 0.07972992 -0.074305445 0.03522169 -0.011770667
0.036232904 -0.032900568 -0.08085172 0.013133721 -0.036763314 0.040227782 -0.002194007 0.042512693
00000000: 1818 abbd 6d79 94bd 2383 9fbd 7e52 533d
00000010: b77a 273d b0da 9dbc 7496 973d c716 84bd
00000020: 9b6c 1e3d 9216 3e3c c99f 3ebd 6835 093d
00000030: ba67 9fbd ea2b c43c 2bdb 603d a126 0e3d
00000040: 161c a63d d602 3cbd bfb0 8fbd 0e12 43bc
00000050: 553d a53d fd89 6f3d 98c5 a33d b87a 88bd
00000060: a5a4 acbd 0d03 413d 7c01 a53d 9576 c13c
00000070: cbba 5abd a0c3 223d 049a 58bc 198c 89bc
00000080: 5b36 13bd 7401 893d 01df a33d c6ec de3c
00000090: 5f80 97bc d188 2dbd 5920 ad3b 6c17 20bd
000000a0: c452 a13d 1ed2 c2bc 7e50 fb3c eed9 73bd
000000b0: 91df 8abd 6b21 36bd 590d 83bd cceb 84bd
000000c0: a193 a1bd 92bd 9e3d c981 7dbd 7167 66bc
000000d0: 7149 a33d 742d 98bd 9e44 103d c1d9 40bc
000000e0: f468 143d bfc2 06bd 9695 a5bd d22e 573c
000000f0: 2195 16bd e3c5 243d 54c9 0fbb ca21 2e3d

features.4.weight f4 [64]
1.0152175 0.9061451 1.0320014 0.87710315 0.8284619 0.86043304 1.0730813 0.95016444
1.0538601 0.8831466 0.8732245 0.84797657 1.0681171 1.103793 1.0911456 0.8854763
0.8743881 1.2183915 0.8981271 0.9615173 0.8510876 1.1256888 1.2336501 0.9483044
1.0659503 1.0264435 0.96904594 1.0921257 1.1336017 1.079711 1.2557217 0.8672757
1.1456856 0.8903124 1.1052738 1.0338511 0.8838309 0.83876216 0.85451293 0.96757907
0.8667399 1.039244 0.935717 0.8372858 0.90573806 0.93751067 1.0248274 0.9757866
1.0106841 1.0775656 1.0663786 1.0130697 1.0809785 1.123744 0.85783607 0.99958044
0.9110742 0.9639451 0.84104997 0.91717917 0.8541342 0.90156585 0.87958944 0.9777191
00000000: a6f2 813f 20f9 673f 9f18 843f d589 603f
00000010: 1416 543f 5745 5c3f ba5a 893f fa3d 733f
00000020: e3e4 863f e515 623f a48b 5f3f fe14 593f
00000030: 10b8 883f 1749 8d3f a9aa 8b3f 93ae 623f
00000040: e6d7 5f3f 41f4 9b3f a8eb 653f ff25 763f
00000050: e1e0 593f 9216 903f 3fe8 9d3f 14c4 723f
00000060: 0f71 883f 8062 833f 6513 783f c6ca 8b3f
00000070: dc19 913f f833 8a3f 7dbb a03f c805 5e3f
00000080: d3a5 923f 83eb 633f 9d79 8d3f 3c55 843f
00000090: be42 623f 1eb9 563f 5cc1 5a3f 43b3 773f
000000a0: abe2 5d3f f305 853f 268b 6f3f 5d58 563f
000000b0: 73de 673f b300 703f 8b2d 833f 27cd 793f
000000c0: 195e 813f abed 893f 187f 883f 45ac 813f
000000d0: 815d 8a3f d8d6 8f3f 259b 5b3f 81e4 7f3f
000000e0: 293c 693f 1bc5 763f 0d4f 573f 41cc 6a3f
000000f0: 8aa8 5a3f 05cd 663f c62c 613f cd4b 7a3f

features.4.bias f4 [64]
0.082042575 -0.058569994 0.052659545 -0.089401536 -0.039274268 0.07459099 -0.14880717 -0.07051266
-0.085902385 -0.10597888 -0.0041565197 -0.1516072 0.0935151 -0.115435734 0.009527492 -0.07922915
-0.15867597 0.079715654 -0.044358507 -0.04785431 -0.09109601 -0.07013049 0.21019247 -0.010621912
0.111699335 0.038899872 -0.07801677 0.07405347 0.02897286 0.061337452 0.014674015 -0.081124246
0.10436668 -0.08171467 -0.065950945 0.12422926 -0.03219172 -0.1545394 -0.09942365 0.031777155
-0.056596663 0.10991458 -0.104005955 -0.11236114 -0.20669042 -0.05413037 0.03176639 0.059393667
0.087868914 0.06922837 -0.11600797 -0.017004956 0.10618216 0.11941448 -0.09847931 0.069081254
-0.0018159563 0.04453493 -0.095259495 -0.057108823 -0.1329875 -0.053254575 -0.14780496 -0.0016377631
00000000: f005 a83d 17e7 6fbd 89b1 573d 2718 b7bd
00000010: 0ede 20bd 29c3 983d e860 18be f168 90bd
00000020: 97ed afbd 740b d9bd 6a33 88bb eb3e 1bbe
00000030: d884 bf3d 9269 ecbd 3319 1c3c e542 a2bd
00000040: f47b 22be f641 a33d 44b1 35bd e202 44bd
00000050: 8b90 babd 93a0 8fbd b23c 573e 8707 2ebc
00000060: 9fc2 e43d 7955 1f3d 42c7 9fbd 58a9 973d
00000070: 7e58 ed3c fb3c 7b3d 486b 703c 7824 a6bd
00000080: 33be d53d 055a a7bd 4a11 87bd e96b fe3d
00000090: 77db 03bd 943f 1ebe a09e cbbd c328 023d
000000a0: e7d1 67bd e51a e13d 1301 d5bd 991d e6bd
000000b0: a7a6 53be cfb7 5dbd 791d 023d c646 733d
000000c0: 9ef4 b33d 9bc7 8d3d 9695 edbd fa4d 8bbc
000000d0: 0876 d93d 948f f43d 85af c9bd 797a 8d3d
000000e0: 6205 eeba 426a 363d 6917 c3bd f1ea 69bd
000000f0: e02d 08be 7821 5abd 2f5a 17be 36aa d6ba

features.4.running_mean f4 [64]
-0.14882931 0.05509638 0.0053722756 0.2477602 -0.11419093 -0.22304234 0.06597115 -0.064518064
0.053659838 0.30762726 -0.010240731 0.35523775 -0.07303927 0.2926925 -0.31193125 -0.04959796
-0.09559099 -0.45609242 -0.112865314 0.25350827 -0.35383266 -0.57032436 -0.96772957 -0.0040476248
-0.22848018 -0.19011992 0.3381585 0.011716676 -0.22532023 0.07604677 -0.5915661 0.011313948
-0.2525518 -0.046036035 -0.20287858 -0.2968351 -0.15175907 -0.29902008 -0.07499665 -0.3677044
-0.09773964 0.063371405 0.20768145 -0.31915033 -0.13409781 0.013506478 0.019029023 -0.1727867
0.13449846 -0.082292505 -0.08266636 -0.24555063 -0.035163403 -0.2779713 -0.17267075 -0.12224507
-0.23434019 0.07247636 -0.15104175 -0.16210563 -0.4744859 -0.2019031 -0.53674436 -0.025007857
00000000: b666 18be beac 613d ea09 b03b dab4 7d3e
00000010: efdc e9bd 3665 64be e21b 873d 0c22 84bd
00000020: 6bca 5b3d 5281 9d3e bdc8 27bc b9e1 b53e
00000030: 9d95 95bd cbdb 953e 74b5 9fbe 3b27 4bbd
00000040: 35c5 c3bd f284 e9be ee25 e7bd d6cb 813e
00000050: 8e29 b5be c700 12bf 20bd 77bf f0a1 84bb
00000060: b5f6 69be ccae 42be 1c23 ad3e 4df7 3f3c
00000070: 59ba 66be 69be 9b3d e070 17bf 235e 393c
00000080: 784e 81be 4890 3cbd 67bf 4fbe c5fa 97be
00000090: bb66 1bbe 2919 99be d897 99bd c043 bcbe
000000a0: b82b c8bd dec8 813d 72aa 543e ac67 a3be
000000b0: f050 09be 464a 5d3c c1e2 9b3c ffee 30be
000000c0: f7b9 093e f988 a8bd fb4c a9bd a071 7bbe
000000d0: 8007 10bd 4152 8ebe 9ad0 30be a05b fabd
000000e0: e0f6 6fbe 7c6e 943d b0aa 1abe 05ff 25be
000000f0: d1ef f2be b0bf 4ebe 1468 09bf 47dd ccbc

features.4.running_var f4 [64]
2.1690145 2.1099184 1.9716947 1.2013632 0.5257502 2.5566304 0.4557526 3.0768838
0.518741 1.760643 2.057962 1.2267514 1.2228934 0.336037 1.0214713 1.6542898
2.4928489 0.2709896 1.998024 0.61333466 2.9706354 0.35948044 0.53396577 1.9053934
1.7729772 2.2621565 0.5111305 1.6330526 1.9855291 1.5209986 0.12850985 0.68872344
0.30474657 0.68785053 1.4507017 3.815815 3.7049325 2.4446638 1.852237 2.6975307
2.800446 1.9634911 0.5821602 4.46182 1.6697029 1.8512154 2.7228208 2.896912
2.5542254 1.1474396 0.8799134 0.4680697 2.1600003 0.706339 1.1254117 1.4908162
0.870943 2.7088642 3.5436666 1.7199008 1.685457 0.2347141 2.1942208 1.9747995
00000000: 22d1 0a40 e708 0740 7e60 fc3f 45c6 993f
00000010: 9197 063f d59f 2340 6858 e93e aaeb 4440
00000020: 36cc 043f c05c e13f a6b5 0340 3106 9d3f
00000030: c587 9c3f 0b0d ac3e 92bf 823f c5bf d33f
00000040: d68a 1f40 26bf 8a3e 40bf ff3f 8003 1d3f
00000050: e41e 3e40 d20d b83e fbb1 083f eee3 f33f
00000060: ebf0 e23f 2cc7 1040 73d9 023f de07 d13f
00000070: d125 fe3f 15b0 c23f 1698 033e 2e50 303f
00000080: be07 9c3e f916 303f 98b0 b93f 5036 7440
00000090: 9d1d 6d40 5f75 1c40 1a16 ed3f 58a4 2c40
000000a0: 823a 3340 ad53 fb3f 7308 153f 3bc7 8e40
000000b0: d3b8 d53f a0f4 ec3f b242 2e40 0267 3940
000000c0: 6e78 2340 4ddf 923f 0142 613f d5a6 ef3e
000000d0: 723d 0a40 a2d2 343f 7e0d 903f 11d3 be3f
000000e0: 1ff6 5e3f 085e 2d40 6fcb 6240 b625 dc3f
000000f0: 0ebd d73f e558 703e 1d6e 0c40 3bc6 fc3f

features.6.weight f4 [32, 64]
-0.0774564 -0.28682524 0.0129070785 0.0113213835 0.079238005 0.1669572 0.05438549 -0.031093284
-0.09028437 -0.015256448 0.14191754 -0.05580036 -0.084215015 0.11945228 0.049555503 -0.15278496
0.076396614 0.062315248 -0.019511422 -0.03579341 -0.00044580078 0.06869302 0.18039611 0.003032119
-0.015117099 0.005748783 0.08596593 0.216981 -0.14341274 0.14613649 0.14281166 0.031150894
0.23167163 -0.10329783 -0.03379846 0.01603765 -0.059947763 -0.034087755 0.025829853 0.14892475
0.0017913164 -0.0341284 -0.060687955 0.021527285 -0.12840427 -0.05677348 -0.1448225 -0.004995919
0.09781104 0.0949451 -0.025508419 0.08077595 -0.21139626 -0.14231524 0.0038970425 -0.19257152
0.10881009 0.14056507 -0.032812174 -0.030089665 -0.12426206 0.055068143 -0.14215048 -0.1305814
0.15145443 -0.038256012 -0.15982118 -0.04283862 0.06266482 -0.01128692 -0.04085027 0.05729174
0.040715147 0.08548532 0.062243897 0.08211641 0.20438312 -0.15770398 -0.25704595 -0.0023785064
0.14392848 -0.21694674 0.122295596 -0.15062922 0.02146651 -0.09667673 -0.0761295 -0.14299734
0.21224123 -0.15055351 0.025501888 -0.0112854615 -0.065231904 -0.13158956 -0.09956542 0.05482452
-0.15174241 -0.03018101 0.045993537 0.01153729 0.11186747 -0.124941476 -0.10366111 -0.19389062
-0.054478236 0.1130954 0.0764238 4.725405e-06 0.11490147 -0.02397066 0.013054449 0.13763633
-0.0847523 0.035129856 0.06374707 -0.08043364 0.011659331 0.16502912 -0.047729943 0.11510051
0.021220278 0.06406079 0.023636365 -0.07063469 0.043410353 -0.016851647 -0.027965715 0.2079122
0.11769938 0.010168836 -0.101498485 0.01258839 -0.09829135 -0.017433845 -0.13702253 -0.014093568
0.0020872715 0.13845488 0.05258973 -0.02041825 0.097188115 -0.11462699 -0.08113561 0.09341252
0.086506166 -0.028925145 0.021779157 -0.14040464 -0.005532762 -0.14477016 -0.11579882 0.098749995
0.050619025 -0.12625006 -0.13955241 -0.12422327 0.12625675 0.022938916 -0.14972867 0.021158395
-0.06667809 0.012558109 0.08040494 0.10037335 0.02602272 -0.051598396 0.031427853 -0.10671812
-0.05624973 0.14002375 0.060005147 0.010118889 0.115905434 0.12740794 -0.023486441 -0.049684945
-0.08998022 -0.027165249 0.04002566 -0.1564236 -0.020781625 0.13137345 -0.19200692 0.18114515
-0.025060663 -0.05096707 -0.15302026 0.018805953 0.030535974 0.10698714 -0.0030145652 0.06298681
-0.028145105 -0.13903171 0.023379356 -0.09190928 -0.067027315 -0.039359074 0.18617927 -0.11637382
-0.16011024 0.03325284 0.05608911 -0.16517194 -0.12739594 0.11743902 0.18542495 -0.012188259
-0.11986093 0.026022177 0.039364368 0.15489677 -0.08500587 0.17397383 0.22052139 -0.018349964
-0.04103505 0.05137567 0.17186463 0.07595377 -0.121099755 0.16750455 0.069227494 0.009327082
0.1257551 0.016919928 -0.018497013 0.02619775 -0.10496062 0.09221229 0.058003895 0.028017461
0.028345777 -0.11592381 0.011722841 0.02252004 -0.0010365769 -0.13440977 -0.009880972 -0.0973128
0.15009111 0.0047431677 -0.113386005 0.113349155 -0.09334114 -0.145072 -0.0014404447 -0.0077696815
0.13317615 0.01004009 0.034462657 -0.18100168 -0.0086921435 -0.16236763 -0.07491559 -0.05390258
00000000: 76a1 9ebd c2da 92be 3678 533c 537d 393c
00000010: 8947 a23d d4f6 2a3e 52c3 5e3d 58b7 febc
00000020: 03e7 b8bd 2ef6 79bc d552 113e eb8e 64bd
00000030: ec78 acbd 66a3 f43d b6fa 4a3d a973 1cbe
00000040: d475 9c3d 463e 7f3d 6bd6 9fbc 1c9c 12bd
00000050: 5eba e9b9 edae 8c3d c2b9 383e 84b6 463b
00000060: b5ad 77bc 4960 bc3b e80e b03d 4430 5e3e
00000070: cada 12be cea4 153e 383d 123e 2930 ff3c
00000080: 543b 6d3e d08d d3bd 4170 0abd 6461 833c
00000090: c98b 75bd 9a9f 0bbd 2199 d33c bb7f 183e
000000a0: 9bca ea3a 39ca 0bbd ef93 78bd fd59 b03c
000000b0: 697c 03be 4f8b 68bd 594c 14be ceb4 a3bb
000000c0: 2851 c83d 9472 c23d 08f7 d0bc dc6d a53d
000000d0: 4378 58be 16bb 11be 8665 7f3b 7831 45be
000000e0: d3d7 de3d 4af0 0f3e 0f66 06bd 9a7e f6bc
000000f0: 1b7d febd 228f 613d e58f 11be 21b7 05be
00000100: df16 1b3e 56b2 1cbd 2aa8 23be 8c77 2fbd
00000110: 6a56 803d c6ec 38bc 9d52 27bd beaa 6a3d
00000120: edc4 263d ed12 af3d 75f3 7e3d a62c a83d
00000130: cf49 513e 277d 21be 879b 83be b7e0 1bbb
00000140: fd61 133e 4927 5ebe 1d76 fa3d 8c3e 1abe
00000150: 89da af3c 73fe c5bd c9e9 9bbd e56d 12be
00000160: c455 593e b32a 1abe 56e9 d03c a8e6 38bc
00000170: 4e98 85bd 6abf 06be f4e8 cbbd ad8f 603d
00000180: 5d62 1bbe 2a3e f7bc b863 3c3d e706 3d3c
00000190: c61a e53d 51e1 ffbd 474c d4bd 438b 46be
000001a0: 9224 5fbd 909e e73d 1584 9c3d eb8e 9e36
000001b0: 7651 eb3d 1e5e c4bc 54e2 553c 8af0 0c3e
000001c0: 9d92 adbd 53e4 0f3d d38d 823d 64ba a4bd
000001d0: c706 3f3c 65fd 283e 7980 43bd d1b9 eb3d
000001e0: 26d6 ad3c 4e32 833d 0da1 c13c eca8 90bd
000001f0: 0ecf 313d 770c 8abc 5b18 e5bc f0e6 543e
00000200: 5f0c f13d 319b 263c 70de cfbd 893f 4e3c
00000210: fa4c c9bd 6cd1 8ebc a24f 0cbe b5e8 66bc
00000220: 9bca 083b 1ec7 0d3e 5468 573d 2c44 a7bc
00000230: 900a c73d 8ec1 eabd 6d2a a6bd 104f bf3d
00000240: 252a b13d 6df4 ecbc 346a b23c 3cc6 0fbe
00000250: 2c4c b5bb a13e 14be ef27 edbd 703d ca3d
00000260: e555 4f3d b247 01be d4e6 0ebe c568 febd
00000270: 7349 013e 65ea bb3c 7952 19be 5f54 ad3c
00000280: 868e 88bd 87c0 4d3c 58ab a43d 8b90 cd3d
00000290: 992d d53c d758 53bd 7eba 003d 088f dabd
000002a0: 1e66 66bd 6362 0f3e f5c7 753d b2c9 253c
000002b0: d45f ed3d 3a77 023e a366 c0bc 7182 4bbd
000002c0: 8d47 b8bd a889 debc f2f1 233d 822d 20be
000002d0: 3a3e aabc c386 063e 769d 44be 1d7e 393e
000002e0: 054c cdbc d9c2 50bd 58b1 1cbe f10e 9a3c
000002f0: 9426 fa3c 131c db3d 0390 45bb 3bff 803d
00000300: 9090 e6bc 545e 0ebe 1086 bf3c ef3a bcbd
00000310: 9e45 89bd fb36 21bd c7a5 3e3e 6655 eebd
00000320: f0f3 23be 2134 083d b2bd 653d d522 29be
00000330: 1574 02be de83 f03d 0ae0 3d3e 43b1 47bc
00000340: a679 f5bd 762c d53c 883c 213d 429d 1e3e
00000350: 8f17 aebd 3226 323e 5cd0 613e aa52 96bc
00000360: 5e14 28bd 4b6f 523d 48fd 2f3e a68d 9b3d
00000370: 2603 f8bd 5086 2b3e 25c7 8d3d 9ed0 183c
00000380: f2c5 003e a99b 8a3c 0c87 97bc aa9c d63c
00000390: 98f5 d6bd ccd9 bc3d 7e95 6d3d e084 e53c
000003a0: 6735 e83c 7669 edbd 2911 403c f27b b83c
000003b0: c0dd 87ba b7a2 09be cde3 21bc ef4b c7bd
000003c0: 7cb1 193e 936c 9b3b ec36 e8bd 9a23 e83d
000003d0: a429 bfbd c18d 14be 4ecd bcba d098 febb
000003e0: 545f 083e 317f 243c b728 0d3d 8158 39be
000003f0: 7e69 0ebc b343 26be 586d 99bd f4c8 5cbd

features.6.bias f4 [32]
-0.025580846 -0.0016079822 -0.08974456 0.077711284 -0.062227022 0.099233136 -0.058449835 0.09276019
-0.045012765 -0.02281822 0.120833226 0.035351895 -0.038315713 -0.022137946 0.038144972 0.08612726
0.057835996 0.12115456 -0.08081176 -0.024809718 -0.047567762 0.07074139 -0.09228325 -0.035607714
0.089692734 0.028024951 -0.004566683 -0.03665126 -0.116143346 -0.073026605 -0.08864638 0.04901389
00000000: ec8e d1bc eec2 d2ba ffcb b7bd 1827 9f3d
00000010: c3e1 7ebd be3a cb3d 1869 6fbd 0ef9 bd3d
00000020: 4e5f 38bd 47ed babc 6977 f73d 26cd 103d
00000030: f0f0 1cbd a35a b5bc e73d 1c3d 7d63 b03d
00000040: 70e5 6c3d e21f f83d a380 a5bd c03d cbbc
00000050: 6ad6 42bd dde0 903d 00ff bcbd 65d9 11bd
00000060: d3b0 b73d 9594 e53c 1da4 95bb a21f 16bd
00000070: 90dc edbd f98e 95bd 3c8c b5bd cac2 483d

features.7.weight f4 [32]
1.115047 1.145518 1.1623741 1.1520528 1.1077404 0.85791093 1.1657532 1.1605725
1.0834322 1.1596185 1.1396003 1.1726686 1.1645348 1.1252629 1.137887 1.1352528
1.135106 1.1525034 1.1536621 1.0815163 1.0948845 1.1333203 1.1590066 1.1533189
1.10395 1.134423 1.0441942 1.1681068 1.1564125 1.1417677 1.1327022 1.153246
00000000: dcb9 8e3f 55a0 923f adc8 943f 7776 933f
00000010: 70ca 8d3f 0da0 5b3f 6737 953f a48d 943f
00000020: e8ad 8a3f 616e 943f 6cde 913f 011a 963f
00000030: 7a0f 953f 9d08 903f 48a6 913f f74f 913f
00000040: 274b 913f 3b85 933f 33ab 933f 206f 8a3f
00000050: 2d25 8c3f a410 913f 545a 943f f49f 933f
00000060: 3c4e 8d3f c634 913f 28a8 853f 8684 953f
00000070: 5305 943f 7225 923f 63fc 903f 919d 933f

features.7.bias f4 [32]
0.030244848 0.17435376 0.19190079 0.16866907 0.1598065 -0.09997448 0.17751351 0.19880177
0.22788265 0.18268597 0.17912354 0.20573531 0.1687788 0.13834807 0.16811052 0.2301243
0.13579898 0.15938002 0.14818445 0.122377574 -0.10667426 0.16929917 0.19107741 0.1583426
0.12441962 0.134152 0.08463795 0.20370089 0.16913235 0.1678219 0.12598686 0.16885161
00000000: 0bc4 f73c cb89 323e a481 443e 96b7 2c3e
00000010: 51a4 233e 6cbf ccbd 1ac6 353e b192 4b3e
00000020: 125a 693e 0812 3b3e 296c 373e 47ac 523e
00000030: 5ad4 2c3e 1eab 0d3e 2a25 2c3e b4a5 6b3e
00000040: e30e 0b3e 8434 233e aabd 173e 18a1 fa3d
00000050: 0978 dabd c35c 2d3e cca9 433e 9024 223e
00000060: b7cf fe3d 245f 093e a956 ad3d f796 503e
00000070: 0831 2d3e 81d9 2b3e b302 013e 70e7 2c3e

features.7.running_mean f4 [32]
0.08728932 -0.09476294 -0.19266132 0.16443703 -0.23265544 0.14900877 0.17825037 -0.1481726
0.065850936 -0.3424097 0.1638151 0.13303901 0.12860462 0.012745766 0.02841682 0.06671248
0.10711257 0.15092972 -0.05661229 -0.04154924 0.25094268 0.060068727 -0.22203694 -0.1149775
-0.017375471 0.29855058 0.033935286 -0.23804931 -0.17170908 -0.3225613 0.09748908 0.08934049
00000000: bec4 b23d 1313 c2bd 0249 45be 2e62 283e
00000010: 3a3d 6ebe c195 183e 4487 363e 8fba 17be
00000020: dbdc 863d 5350 afbe 25bf 273e 613b 083e
00000030: eeb0 033e 9ed3 503c 64ca e83c 8da0 883d
00000040: d65d db3d 528d 1a3e 4ae2 67bd 892f 2abd
00000050: 8f7b 803e a00a 763d a75d 63be 5379 ebbd
00000060: 0157 8ebc 9fdb 983e baff 0a3d 33c3 73be
00000070: 81d4 2fbe c126 a5be 5ba8 c73d 26f8 b63d

features.7.running_var f4 [32]
0.87079746 2.3565006 0.8634434 0.7213041 2.2163339 2.7181675 1.4446993 1.6868044
0.7428131 1.479306 2.9869487 4.2010164 1.1357081 0.722036 2.3963513 1.031915
1.9770739 0.5269368 0.71608454 2.1451025 1.3135424 2.249402 0.28521258 1.2093
1.3942276 1.3810172 1.1145157 1.314698 0.94328254 0.5314901 2.0006022 1.0525446
00000000: 95ec 5e3f e8d0 1640 a00a 5d3f 63a7 383f
00000010: 6ad8 0d40 75f6 2d40 e8eb b83f 35e9 d73f
00000020: 0029 3e3f e659 bd3f 2b2a 3f40 ba6e 8640
00000030: e25e 913f 5ad7 383f d25d 1940 ca15 843f
00000040: c210 fd3f 55e5 063f 5151 373f 5c49 0940
00000050: 2822 a83f 34f6 0f40 6207 923e 58ca 9a3f
00000060: 0d76 b23f 2cc5 b03f 73a8 8e3f 0648 a83f
00000070: f77a 713f bc0f 083f de09 0040 c8b9 863f
