NIDS_attacks/pytorch_attack/MLP70x2.100.pt (torch, 96499 bytes, 26 tensors)

features.0.weight f4 [128, 70]
0	0xbdbf7396	-0.09348218
1	0xbdea568f	-0.11442291
2	0xbeaf1eb6	-0.34203118
3	0xbf2d5af1	-0.6771689
4	0xbec477a8	-0.3837254
5	0xbe229889	-0.158785
6	0xbed62eac	-0.41832483
7	0x3e37894c	0.17923468
8	0xbe8cbd1c	-0.2748803
9	0xbec87c42	-0.391573
10	0xbdaab084	-0.08334449
11	0x3d91a411	0.07111371
12	0xbdaa4873	-0.083146
13	0xbb91816a	-0.004440476
14	0xbcd3dfbb	-0.025863519
15	0x3d87d9b8	0.066333234
16	0xbd02778a	-0.031852283
17	0xbb20de23	-0.0024546466
18	0x3d75e53f	0.06003308
19	0xbd55b0f6	-0.052170716
20	0xbd94c481	-0.07264043
21	0xbd88fcba	-0.06688829
22	0x3c6e59d6	0.014547786
23	0xbced9b00	-0.029004574
24	0xbef04115	-0.46924654
25	0xbe41b803	-0.18917851
26	0xbead6ca7	-0.33871958
27	0xbd719cac	-0.058987305
28	0xbe8d5e65	-0.2761108
29	0xbf0379b8	-0.51357603
30	0xbd1f7b4d	-0.03893595
31	0xbd8f8ad1	-0.07008899
32	0xbdee1638	-0.11625332
33	0xbd467942	-0.048455484
34	0xbcbbb925	-0.022915432
35	0x3e0d674c	0.13808936
36	0x3d699761	0.05702913
37	0xbe69faee	-0.22849628
38	0xbe2928a0	-0.16519403
39	0xbe0c27c9	-0.13687052
40	0xbdb27ba1	-0.087149866
41	0xbe2c000b	-0.16796891
42	0xbdb01f7c	-0.08599755
43	0xbd86282c	-0.06550631
44	0xbd3ab0f4	-0.045578912
45	0x3cba535e	0.02274483
46	0xbd1c035b	-0.038089138
47	0x38419b26	4.615928e-05
48	0x3d9a1c86	0.07524972
49	0x3e62b080	0.22137642
50	0xbe2632b5	-0.1623028
51	0xbedb87ff	-0.42877194
52	0xbe487542	-0.1957598
53	0xbe0b8db1	-0.1362827
54	0xbed4b094	-0.41540968
55	0xbed7a07c	-0.42114627
56	0xbf434155	-0.76271564
57	0xbe8e175e	-0.27752203
58	0x3d03fed7	0.032225456
59	0xbe53cd3b	-0.20683758
60	0xbf108daf	-0.5646619
61	0xbd9bbba5	-0.0760415
62	0xbe561a6e	-0.2090852
63	0xbf1c5cff	-0.610794
64	0xbe509d38	-0.20372474
65	0xbe90cc55	-0.28280893
66	0x3d601a5b	0.054712635
67	0x3e17b451	0.14814879
68	0xbdf089d2	-0.11745037
69	0xbd3151a7	-0.04329076
70	0xbc3b708b	-0.011440407
71	0xbde42ef3	-0.11141767
72	0xbf2bd0a4	-0.67115235
73	0xbf36183b	-0.7113072
74	0x3ebbee55	0.3670527
75	0xbf1f302a	-0.6218287
76	0xbd7b3a18	-0.0613347
77	0xbdaa46fb	-0.0831432
78	0x3d033fe1	0.03204334
79	0xbdf8cbd1	-0.1214825
80	0xbdb7fb03	-0.089834236
81	0x3cf53582	0.029932741
82	0xbd2d09f9	-0.04224584
83	0x3da519ce	0.080615625
84	0xbdbfad63	-0.09359243
85	0xbdd59eee	-0.10430704
86	0xbe5de45f	-0.21669148
87	0xbdb43f55	-0.08801142
88	0xbe4697c1	-0.19393827
89	0xbdea7732	-0.11448516
90	0x3c458b7d	0.012057182
91	0xbdff7042	-0.12472583
92	0xbdd1f23a	-0.10251279
93	0xbe024b71	-0.12724091
94	0xbe38cbc2	-0.18046477
95	0x3d61b083	0.055099975
96	0x3e9a6a37	0.3015916
97	0x3e033818	0.12814367
98	0x3d7575c0	0.05992675
99	0x3d3de9a1	0.046365384
100	0xbdf64bd0	-0.12026179
101	0xbe0a952b	-0.13533466
102	0x3d32e6c7	0.043677118
103	0xbe3fed5c	-0.18742889
104	0xbe513d1d	-0.20433469
105	0x3e8c2d9e	0.27378553
106	0x3e129953	0.14316301
107	0xbe44b049	-0.19207872
108	0xbd568ee9	-0.052382383
109	0x3d0cad52	0.03434498
110	0x3db26866	0.08711319
111	0x3d976286	0.07391839
112	0xbde9e1c0	-0.114200115
113	0x3e04347f	0.1291065
114	0x3d86b645	0.06577734
115	0xbe203a3f	-0.15647219
116	0x3e050920	0.12991762
117	0xbe1dc8fb	-0.15408699
118	0x3d94481a	0.07240315
119	0xbe0a9b02	-0.13535693
120	0xbd4fd220	-0.0507375
121	0x3e3ecc45	0.1863261
122	0xbe151e1b	-0.14562266
123	0xbdaf4e05	-0.08559803
124	0xbf3d6f70	-0.73998165
125	0x3e9f6a46	0.31135768
126	0xbf3ea6e9	-0.74473435
127	0xbf1fc62f	-0.6241178
128	0x3c92b928	0.017910555
129	0x3dcdf4f8	0.1005649
130	0xbf439783	-0.76403064
131	0x3d4fca19	0.050729845
132	0xbd80309f	-0.06259274
133	0xbc21b52f	-0.009869858
134	0xbdd89bbf	-0.10576581
135	0x3d30eb01	0.043192867
136	0x3dae1f8c	0.08502111
137	0x3e43c32d	0.19117422
138	0xbaf703d5	-0.0018845747
139	0xbbe5e2e8	-0.0070155747
140	0xbcbea7af	-0.023273317
141	0x3ddf9875	0.10917751
142	0xbdfd98cc	-0.12382659
143	0xbe38706c	-0.18011636
144	0xbcd55806	-0.02604295
145	0xbe9c1982	-0.3048821
146	0xbd80167b	-0.06254288
147	0x3d1616f4	0.036642984
148	0xbe1f6bef	-0.15568517
149	0x3c1d35eb	0.009595375
150	0x3d73e75a	0.059546806
151	0x3dc822cf	0.09772264
152	0x3dd375e5	0.10325221
153	0x3db5fb0e	0.088857755
154	0xbdb53449	-0.08847863
155	0xbc9f88e4	-0.019474454
156	0x3e0214a8	0.12703192
157	0x3e15f2e6	0.1464344
158	0xbd98169a	-0.07426186
159	0x3dc9e981	0.098589905
160	0xbaa08be7	-0.0012248725
161	0x3c996c51	0.018728407
162	0x3d02a273	0.031893205
163	0xbd62c14c	-0.055360124
164	0xbd759d82	-0.059964664
165	0xbddc4fcf	-0.1075741
166	0x3d1a9fdf	0.03775012
167	0xbda93d5b	-0.08263656
168	0xbd5bcf99	-0.053664777
169	0xbdeb9a4c	-0.11504039
170	0xbe248f3b	-0.16070263
171	0x3c95af6e	0.018272128
172	0x3cc6c40e	0.024263408
173	0xbe402886	-0.18765458
174	0xbaa8d193	-0.0012879841
175	0xbc819b33	-0.015821075
176	0xbe07bfc2	-0.13256744
177	0x3e24d229	0.16095795
178	0x3e33a0d4	0.1754182
179	0x3e2b77a5	0.1674486
180	0x3dae011b	0.084963046
181	0x3ccdb07b	0.025108567
182	0x3d395a55	0.045252163
183	0xbb59e6aa	-0.0033249059
184	0xbd5903ed	-0.05298226
185	0x3d598856	0.053108536
186	0x3cd78280	0.026307344
187	0xbd0d1884	-0.034447208
188	0xbc3de373	-0.011589873
189	0x3e0c060d	0.13674183
190	0x3cc3da64	0.023907848
191	0xbd8131a2	-0.06308295
192	0x3e105ce9	0.14097942
193	0xbdc5f4c2	-0.096658245
194	0xbe60a489	-0.21937765
195	0x3d95f891	0.07322801
196	0xbe657c4d	-0.22410698
197	0xbea17636	-0.315355
198	0xbd0910bf	-0.033463236
199	0xbdf6c464	-0.12049177
200	0xbe9af9c7	-0.3026869
201	0x3daef700	0.08543205
202	0x3dcfcefc	0.10146901
203	0xbe3c96b6	-0.18416867
204	0xbe41ab31	-0.1891296
205	0x3e71da12	0.23618343
206	0x3e08d3ef	0.13362096
207	0x3ba8142b	0.0051293573
208	0x3d3484a0	0.044071794
209	0x3dec80c8	0.115480006
210	0xbea79c25	-0.32736316
211	0x3ce8c750	0.028415352
212	0xbec4ca58	-0.38435626
213	0xbe966b15	-0.29378572
214	0xbeb85762	-0.36004168
215	0xbe9511a6	-0.29115027
216	0xbe0b074e	-0.13577005
217	0x3997621f	0.0002887407
218	0xbd03c750	-0.0321725
219	0xbdfe2652	-0.12409653
220	0x3dd7dc9d	0.105401255
221	0xbe11b828	-0.14230406
222	0x3d9be573	0.07612123
223	0x3e1d8c0c	0.15385455
224	0xbd3189ae	-0.043344192
225	0xbc197d2d	-0.009368223
226	0x3d4eee07	0.05051997
227	0xbd91320f	-0.07089626
228	0x3d99ec8e	0.07515822
229	0xbd2f59e1	-0.042810325
230	0x3d82da38	0.06389278
231	0xbd81853d	-0.06324241
232	0xbd91b5c0	-0.07114744
233	0x3d0f829e	0.035036676
234	0xbebdd41d	-0.37075892
235	0x3e3ae91c	0.18252987
236	0x3c79fa3b	0.0152574135
237	0x3dd5ddb0	0.10442674
238	0x3d3fd601	0.04683495
239	0xbe918e9b	-0.28429112
240	0xbe549787	-0.20760928
241	0x3e55c864	0.20877224
242	0xbe1dd832	-0.15414503
243	0xbdd242eb	-0.1026667
244	0x3d8d946a	0.06913073
245	0x3d4ee975	0.05051561
246	0xbd836eeb	-0.0641764
247	0xbcf34640	-0.029696584
248	0x3e1a5b11	0.15073802
249	0x3e37fe8a	0.17968193
250	0x3d6e6ed2	0.058211155
251	0xbd78876f	-0.060676035
252	0xbcc8f304	-0.024529941
253	0x3da3c00b	0.07995614
254	0x3d5f4b25	0.054515023
255	0xbd86584b	-0.06559809

features.0.bias f4 [128]
0	0x3ded29f2	0.11580266
1	0xbd908692	-0.07056917
2	0x3df23d11	0.11828054
3	0x3cf47e1e	0.029845294
4	0x3cf2af2e	0.029624548
5	0xbdb4b5ff	-0.088237755
6	0x3dca2598	0.09870452
7	0x3d24ecc5	0.040264864
8	0xbad3144a	-0.0016104069
9	0x3de77c9d	0.11303065
10	0x3d809038	0.062775075
11	0x3da6bc7f	0.081414215
12	0x3da6ff3c	0.08154151
13	0x3d2fda10	0.04293257
14	0xbd43326b	-0.047655504
15	0x3dba8729	0.09107811
16	0xbdaf913c	-0.08572623
17	0xbdcd18db	-0.100145064
18	0x3cd491d5	0.025948444
19	0x3d6252b9	0.05525467
20	0xbced6513	-0.02897886
21	0x3d78eaac	0.060770676
22	0xbc574d7a	-0.01314103
23	0x3da16f3b	0.07882544
24	0x3db095d9	0.08622331
25	0x3c9d3f6f	0.019195287
26	0x3d7b27b7	0.061317172
27	0x3dd63de1	0.10461021
28	0x3d8cb89d	0.0687115
29	0xbddf4fe4	-0.1090391
30	0xbdac67db	-0.08418246
31	0xbd9fd1f8	-0.0780372
32	0xbdcaa71d	-0.098951556
33	0x3d53fc17	0.051754083
34	0xbd535ed3	-0.051604103
35	0xbdeace8e	-0.114651784
36	0x3c500f50	0.012698963
37	0xbcf75179	-0.030190216
38	0x3d9e8d68	0.07741815
39	0x3d9d94e7	0.076944165
40	0x3db53e59	0.088497825
41	0xbdb9e7ea	-0.09077437
42	0xbd76c3ae	-0.06024521
43	0x3a38aba6	0.00070446206
44	0x3b8dae65	0.004323768
45	0xbce95d70	-0.028486937
46	0x3d05e515	0.032689173
47	0x3c4c37af	0.012464448
48	0xbd4a7cb4	-0.049435332
49	0x3c370346	0.011170214
50	0xbdc404aa	-0.09571202
51	0x3d83a77e	0.06428431
52	0xbde12add	-0.10994504
53	0xbd3528fc	-0.04422854
54	0xbcb50e6b	-0.022101602
55	0x3dce61c1	0.10077239
56	0xbdae0c88	-0.08498484
57	0x3be505d8	0.006989222
58	0xbdc3a9c3	-0.09553864
59	0x3dd3643c	0.103218526
60	0xbd74691c	-0.059670553
61	0xbd82562b	-0.063640915
62	0xbd2611d8	-0.04054436
63	0xbdcab84e	-0.098984346
64	0xbd874913	-0.06605735
65	0x3ddf6f4b	0.10909899
66	0xbdbf1c6d	-0.09331594
67	0xbdc1e4bd	-0.094674565
68	0x3df96f0f	0.12179386
69	0xbdf1b277	-0.118016176
70	0xbdd890c0	-0.10574484
71	0x3d925995	0.07145993
72	0xbd65fd18	-0.056149572
73	0x3d9b867c	0.0759401
74	0x3dc5a3f7	0.096504144
75	0xbca4ce60	-0.020117939
76	0x3dbe480c	0.092910856
77	0x3d45a600	0.048254013
78	0x3d093f87	0.03350785
79	0x3de35b60	0.11101413
80	0x3dcf90cc	0.1013504
81	0xbd540097	-0.051758375
82	0xbd5a1410	-0.05324179
83	0x3dea60f0	0.114442706
84	0xbdd8d7f0	-0.10588062
85	0x3cb245fe	0.02176189
86	0x3c529bce	0.01285453
87	0x3d2d16a4	0.04225792
88	0x3dd44b68	0.10365945
89	0x3d3b7709	0.045767818
90	0x3d206607	0.0391598
91	0x3db431d6	0.08798568
92	0xbdbb1bc3	-0.091361545
93	0x3d760f0d	0.060072947
94	0x3de833e5	0.11338023
95	0xbd9aeb84	-0.07564452
96	0xbcfa8faf	-0.030586092
97	0xbd44f970	-0.048089445
98	0xbc9aac57	-0.018881006
99	0xbdbfd9f8	-0.09367746
100	0xbd4fdbb8	-0.05074665
101	0x3de71296	0.11282842
102	0x3d1fac13	0.038982462
103	0xbda25841	-0.07926989
104	0xbc96c056	-0.01840226
105	0xbdedbfa2	-0.11608817
106	0xbcfddfba	-0.03099047
107	0xbd8198f6	-0.06328003
108	0xbd11288b	-0.035439055
109	0x3d90c623	0.070690416
110	0xbdea178f	-0.11430275
111	0x3dc7a9c0	0.09749174
112	0x3d9f40c4	0.07776025
113	0x3dd5ee82	0.104458824
114	0x3dcae7dd	0.09907506
115	0x3c4ef543	0.012631717
116	0x3d895b24	0.06706837
117	0xbd971fa9	-0.073790856
118	0x3c7747f6	0.01509284
119	0xbb69b6bd	-0.00356619
120	0x3d4ae4c4	0.049534574
121	0xbdefc99f	-0.11708378
122	0xbdde2cf3	-0.10848417
123	0x3d4f2595	0.05057295
124	0xbcf1f1b3	-0.029534196
125	0xbc6c777f	-0.014432787
126	0xbda1101b	-0.078644
127	0xbcb7b8e8	-0.022427037

features.1.weight f4 [128]
0	0x3f8a72bc	1.0816264
1	0x3f789ccd	0.9711426
2	0x3f80c09a	1.0058777
3	0x3f40ff70	0.75389767
4	0x3f7cf5f8	0.9881282
5	0x3f7d0702	0.9883882
6	0x3f4e9bdc	0.8070657
7	0x3f745823	0.95446986
8	0x3f5f54e8	0.8723893
9	0x3f7d9c12	0.9906627
10	0x3f8dbe7a	1.1073754
11	0x3f8806a5	1.0627028
12	0x3f84ba17	1.036929
13	0x3f621897	0.8831877
14	0x3f8a42a0	1.0801582
15	0x3f86cbdf	1.0530967
16	0x3f6e137b	0.92998475
17	0x3f6ca0e3	0.92432994
18	0x3f610240	0.8789406
19	0x3f87b1e8	1.0601168
20	0x3f983afe	1.1893003
21	0x3f7daae8	0.9908891
22	0x3f66b8cd	0.90125734
23	0x3f8a4071	1.0800916
24	0x3f691028	0.9104028
25	0x3f7499ae	0.95546997
26	0x3fa7db3d	1.3113781
27	0x3f6650b0	0.8996687
28	0x3f79b040	0.9753456
29	0x3f813025	1.0092818
30	0x3f54187b	0.82849854
31	0x3fa3206a	1.2744267
32	0x3f847d8c	1.0350814
33	0x3f9a8167	1.207074
34	0x3f8095f6	1.0045764
35	0x3f76516a	0.9621798
36	0x3f7131dd	0.9421671
37	0x3f88d531	1.0690061
38	0x3f84ff17	1.0390347
39	0x3f76192b	0.96132153
40	0x3f741373	0.9534218
41	0x3f8d5d6c	1.1044135
42	0x3f8bf8b6	1.0935276
43	0x3f5d7d5e	0.8651942
44	0x3f6ffeca	0.9374815
45	0x3f7c7a19	0.98623806
46	0x3f5e3a82	0.86808026
47	0x3f8398b4	1.0280976
48	0x3f812ba4	1.0091443
49	0x3f76a296	0.96341836
50	0x3f9ac8e6	1.2092559
51	0x3f6e1292	0.92997086
52	0x3f81cb58	1.014018
53	0x3f8e3590	1.1110096
54	0x3f79a207	0.9751286
55	0x3f8206a2	1.0158274
56	0x3f7d586e	0.9896306
57	0x3f7a9e88	0.9789815
58	0x3f79826d	0.9746464
59	0x3fa9fc1a	1.328006
60	0x3f84f07c	1.038589
61	0x3f898e8f	1.074663
62	0x3f841879	1.0319968
63	0x3f69ddb9	0.91353947
64	0x3f8037e1	1.0017053
65	0x3f6da4d7	0.9282965
66	0x3f6fa8a8	0.93616724
67	0x3f756c41	0.9586831
68	0x3f8be916	1.0930507
69	0x3f6f84c3	0.93561953
70	0x3f6c6f70	0.9235754
71	0x3f6d0b9f	0.9259586
72	0x3f8d179d	1.1022831
73	0x3f83df6c	1.0302558
74	0x3f72c8e9	0.94837815
75	0x3f903a0d	1.1267716
76	0x3f814ee9	1.0102206
77	0x3f875adb	1.0574602
78	0x3f7fb2f7	0.99882454
79	0x3f92cc6c	1.1468635
80	0x3f80f908	1.0075998
81	0x3f8126c5	1.0089957
82	0x3f70e820	0.94104195
83	0x3f7914cc	0.9729736
84	0x3f86cad3	1.0530647
85	0x3f7f23f5	0.9966424
86	0x3f901b45	1.1258322
87	0x3f6a1487	0.9143757
88	0x3f87b75d	1.0602833
89	0x3f63a42e	0.88922393
90	0x3f8bd078	1.0922995
91	0x3f74877d	0.9551924
92	0x3f770b3e	0.9650153
93	0x3fa3c655	1.2794901
94	0x3f7746a8	0.9659219
95	0x3f8b4312	1.0879843
96	0x3f654d36	0.8957094
97	0x3f8c2048	1.0947351
98	0x3f76ac69	0.9635683
99	0x3f81a561	1.0128595
100	0x3f8d384b	1.1032804
101	0x3f6ac58b	0.91707677
102	0x3f836bcf	1.0267276
103	0x3f7a40a5	0.9775489
104	0x3f5da54b	0.8658034
105	0x3f876cfa	1.0580132
106	0x3f6e7c12	0.93158066
107	0x3f83f69e	1.0309637
108	0x3f7b8a44	0.9825785
109	0x3f87014b	1.054727
110	0x3f964ff8	1.1743155
111	0x3f78a673	0.9712898
112	0x3fa603a7	1.2969865
113	0x3f6dc63c	0.92880607
114	0x3f796896	0.9742521
115	0x3f95cc87	1.1703042
116	0x3f98b6da	1.1930802
117	0x3f7f452c	0.9971492
118	0x3f741112	0.9533855
119	0x3f58e263	0.8472044
120	0x3f74a6d7	0.9556708
121	0x3f88250b	1.0636305
122	0x3f83d041	1.0297929
123	0x3f671195	0.90261203
124	0x3f68f83b	0.9100377
125	0x3f722cb2	0.9459945
126	0x3f851bce	1.039911
127	0x3f73ec7b	0.95282716

features.1.bias f4 [128]
0	0xbd60d29b	-0.05488835
1	0xbd166f4a	-0.036727227
2	0x3cc72584	0.024309881
3	0xbe349f80	-0.1763897
4	0xbd45b613	-0.048269343
5	0xbda30c5b	-0.07961341
6	0xbe039501	-0.12849809
7	0xbd82df5e	-0.0639026
8	0xbd8667e8	-0.06562787
9	0x3ccf16b2	0.025279377
10	0xbd139eb3	-0.03604002
11	0xbc1ed6d1	-0.009694771
12	0x3b599615	0.0033201028
13	0xbdd15b9b	-0.102225505
14	0x3d5cb48d	0.053883124
15	0xbd49a32c	-0.04922788
16	0xbd697d33	-0.057004165
17	0xbd5924fa	-0.05301378
18	0x3deb5bfc	0.11492154
19	0xbdfff924	-0.12498692
20	0x3dccb223	0.099949144
21	0x3d510565	0.051030535
22	0xbd9ef3ec	-0.07761368
23	0x3c730817	0.014833472
24	0x3c90bcf0	0.017668217
25	0x3dc7740a	0.097389296
26	0x3c65a2e5	0.014015888
27	0xbdb6aec1	-0.089200504
28	0x3d8969d3	0.067096375
29	0x3ce8ae9c	0.028403573
30	0xbd78090b	-0.0605555
31	0x3cbeb555	0.023279825
32	0x3d1e9425	0.0387155
33	0x3d4a0f39	0.049330924
34	0x3cb2d343	0.021829253
35	0x3cea9c30	0.02863893
36	0xbdeee6d2	-0.11665119
37	0x3d190d51	0.037366215
38	0x3c677eb3	0.014129329
39	0xbd9cf5b4	-0.07664052
40	0xbdbaedae	-0.09127365
41	0xbd89eca9	-0.067345925
42	0x3c110ef1	0.00885366
43	0xbcc1d5af	-0.023661463
44	0xbdcdbddd	-0.10045979
45	0xbc821cd3	-0.015882885
46	0xbe0742cc	-0.13209075
47	0x3d087c4a	0.033321656
48	0xbdb60718	-0.08888072
49	0xbdb57bed	-0.088615276
50	0x3db92a23	0.0904124
51	0x3c3daf23	0.0115774
52	0x3cd0fad2	0.025510225
53	0xbcc0ddd6	-0.02354328
54	0xbe0b7f4a	-0.13622776
55	0x3cdc4dc0	0.026892543
56	0x3b8963e9	0.0041928184
57	0xbd7ed960	-0.062219024
58	0xbcd1cf0b	-0.025611421
59	0xbd172535	-0.036900718
60	0xbb9d70a8	-0.0048046894
61	0xbd9b9452	-0.07596649
62	0x3d02deae	0.031950645
63	0xbdf76b3f	-0.120810024
64	0xbbfae473	-0.007656628
65	0xbbb751e0	-0.005594477
66	0xbd4bece2	-0.049786456
67	0xbdae6403	-0.085151695
68	0xbd90122f	-0.07034718
69	0xbdc0fd8c	-0.0942336
70	0xbd97285b	-0.07380744
71	0x3cde39d1	0.027127178
72	0x3ce9ed15	0.028555432
73	0xbd2e0f66	-0.042495154
74	0xbd936fc0	-0.07199049
75	0xbdd76a4d	-0.10518322
76	0x3af744ca	0.0018865105
77	0x3d26b38b	0.04069857
78	0xbd085581	-0.033284668
79	0x3d90d291	0.07071412
80	0xbd34813c	-0.04406856
81	0x3d8a7f3c	0.06762549
82	0xbd40190f	-0.046898898
83	0x3ba388a6	0.004990655
84	0xb7ad1be1	-2.063619e-05
85	0xbbe9efb0	-0.0071391687
86	0xbd9db2b2	-0.07700099
87	0xbd96ce45	-0.073635615
88	0xbbdb9de7	-0.006702173
89	0xbe0f188c	-0.13974208
90	0xbe1000a1	-0.1406274
91	0x3ce2e137	0.027695281
92	0xbc72a6d5	-0.014810284
93	0xbc23e0be	-0.010002313
94	0xbc62e056	-0.013847431
95	0xbd7d00c2	-0.0617683
96	0xbcc74874	-0.02432654
97	0x3d297170	0.041367948
98	0xbcfd96e8	-0.030955747
99	0xbd31f22f	-0.043443855
100	0x3d54f574	0.051991895
101	0xbcc60e81	-0.024176838
102	0x3cc6334b	0.02419438
103	0xbdc76387	-0.0973578
104	0x3d1472ff	0.03624248
105	0xbcec8e04	-0.028876312
106	0x3d4dacff	0.05021381
107	0x3db50fa1	0.088408716
108	0xbcbe3b3b	-0.023221603
109	0x3c3e4e01	0.011615277
110	0x3d50ca97	0.050974455
111	0xbd354645	-0.044256467
112	0x3cb424b6	0.021990161
113	0xbe0066da	-0.12539235
114	0x3d3e7c51	0.046505276
115	0xbcb7030f	-0.022340326
116	0xbcc063ac	-0.023485027
117	0x3d12bb57	0.035823192
118	0xbd987338	-0.07443851
119	0xbd8f39a5	-0.06993417
120	0xbd5742a3	-0.052553784
121	0xbd10f6af	-0.035391506
122	0xbd245aa1	-0.040125493
123	0x3d1ac8bc	0.03778909
124	0x3c4b9964	0.012426708
125	0xbd9ea344	-0.07745984
126	0xbd939b58	-0.07207364
127	0xbdd5242f	-0.10407292

features.1.running_mean f4 [128]
0	0xbefee231	-0.49781945
1	0xbed4eaee	-0.41585487
2	0x3dc4f923	0.096178316
3	0xbe97bcbe	-0.29636186
4	0x3f26c7ff	0.6514892
5	0xbeb9dff3	-0.36303672
6	0x3ebef8f1	0.37299302
7	0xbeba3786	-0.36370486
8	0x3dffeba4	0.12496117
9	0xbda224af	-0.07917153
10	0xbee21f0a	-0.44164306
11	0xbe90d124	-0.28284562
12	0x3e26ed80	0.16301537
13	0xbf08dfd6	-0.53466547
14	0xbb69ba62	-0.0035664071
15	0xbdcd5e2e	-0.10027729
16	0x3e8f24df	0.27957818
17	0xbdfa0651	-0.12208236
18	0x3e81d5ab	0.25358328
19	0xbef6235c	-0.48073852
20	0xbe4ad640	-0.19808292
21	0xbe2b7b94	-0.1674636
22	0x3eb2745c	0.348544
23	0x3dc63624	0.09678295
24	0x3eda31c0	0.4261608
25	0x3d4d7b37	0.050166335
26	0xbe6e917e	-0.23297688
27	0xbbfb01e5	-0.007660138
28	0x3e44caac	0.19217938
29	0xbd9d1b73	-0.07671251
30	0xbea152ae	-0.31508392
31	0x3c01d13b	0.00792342
32	0x3e9706f4	0.29497492
33	0x3ee86a90	0.453938
34	0x3ee3266f	0.4436526
35	0xbe1466db	-0.14492361
36	0x3e763c0b	0.24046342
37	0xbed69921	-0.41913703
38	0x3f02f2e7	0.5115189
39	0xbf018e57	-0.5060782
40	0x3f09f525	0.53889686
41	0xbf26af6b	-0.65111417
42	0xbee5a256	-0.44850415
43	0xbf2ab13e	-0.666767
44	0x3e532b6a	0.2062203
45	0xbe80b3a0	-0.25137043
46	0x3ee7a5c0	0.45243645
47	0xbee00eeb	-0.43761382
48	0xbe20f8c5	-0.15719898
49	0x3e2eac2d	0.17057867
50	0xbf3a9324	-0.7288077
51	0xbeebd575	-0.46061292
52	0x3e6cf6dd	0.23141046
53	0xbe793ed4	-0.24340373
54	0x3e573f3a	0.21020213
55	0xbe479285	-0.19489487
56	0xbe19c951	-0.15018202
57	0x3e508e09	0.20366682
58	0xbe1914df	-0.14949368
59	0x3e2b01e6	0.16699943
60	0xbc828920	-0.015934527
61	0xbe98605b	-0.29761013
62	0xbe93b904	-0.28852093
63	0xbdb65605	-0.08903126
64	0x3ed79b4c	0.4211067
65	0xbd8a6d11	-0.06759084
66	0x3e830d6f	0.25596187
67	0x3d5a3662	0.05327452
68	0x3e825a8b	0.25459704
69	0xbeb114a9	-0.34586075
70	0xbde2e409	-0.110786505
71	0x3c8d7475	0.017267445
72	0xbec59b82	-0.38595206
73	0x3dec916b	0.11551174
74	0xbe67042e	-0.22560188
75	0xbe6fb0db	-0.23407309
76	0x3e6a588e	0.22885343
77	0x3ed01ca7	0.4064686
78	0x3ed715a5	0.420087
79	0x3e408373	0.18800144
80	0x3d933ec1	0.07189704
81	0xbf226292	-0.63431656
82	0xbefa2f23	-0.48864087
83	0xbe39f629	-0.18160309
84	0x3d8ff9b8	0.07030052
85	0x3e88b2f4	0.2669903
86	0xbe3a71d0	-0.18207479
87	0x3ec13a6f	0.37739894
88	0xbe8d4348	-0.27590394
89	0x3d9402b4	0.07227078
90	0xbe10084c	-0.14065665
91	0x3f3e3217	0.7429518
92	0xbf270e6e	-0.6525639
93	0x3f0bed5c	0.54659057
94	0x3f2bf00e	0.6716317
95	0xbde0d909	-0.10978896
96	0x3f186cf9	0.5954128
97	0x3dee979b	0.1165001
98	0x3e287b1d	0.16453214
99	0xbe51340e	-0.20430014
100	0xbe221916	-0.15829882
101	0x3e491e82	0.19640544
102	0x3ecb1fa9	0.39672592
103	0x3f3163bf	0.69292825
104	0x3e986942	0.29767805
105	0xbf0c6240	-0.5483742
106	0xbea383d9	-0.3193653
107	0xbdf5a04b	-0.11993464
108	0xbefa75f5	-0.4891812
109	0xbd001ff9	-0.03128049
110	0xbec7e5bf	-0.3904247
111	0x3e00a6c5	0.12563618
112	0xbe43a373	-0.1910532
113	0xbe234cce	-0.15947267
114	0x3e637afd	0.22214885
115	0x3db68d77	0.08913701
116	0xbefdb801	-0.49554446
117	0xbe0d5e5e	-0.1380553
118	0xbea3c78e	-0.31988186
119	0x3f44ea0f	0.76919645
120	0xbe9ddeb0	-0.3083396
121	0xbf28ecf9	-0.6598659
122	0xbd38656e	-0.045018606
123	0xbef18089	-0.47168377
124	0x3ea56f44	0.3231145
125	0x3d83e4e4	0.06440142
126	0xbe394bc7	-0.18095313
127	0x3e018e60	0.12651968

features.1.running_var f4 [128]
0	0x3deba5c2	0.11506225
1	0x3d564ba3	0.052318227
2	0x3d73c02f	0.059509452
3	0x3d83c791	0.06434549
4	0x3d17c093	0.037048887
5	0x3cabb388	0.02095963
6	0x3cc89ff1	0.024490329
7	0x3c7fdcd2	0.0156166125
8	0x3d1abb30	0.037776172
9	0x3cb7adcb	0.022421738
10	0x3cc65689	0.024211185
11	0x3c1d591b	0.009603764
12	0x3dcc7e95	0.09985081
13	0x3c575f26	0.013145244
14	0x3cfc9d9a	0.030836869
15	0x3d8ff4c0	0.07029104
16	0x3e15633c	0.14588636
17	0x3cc44dc1	0.023962857
18	0x3cefe253	0.029282724
19	0x3cf6c0e8	0.030121282
20	0x3be212c4	0.0068992097
21	0x3dd1aa39	0.102375455
22	0x3d609ed5	0.054838974
23	0x3ca7cc0f	0.020483045
24	0x3d9b5083	0.07583716
25	0x3d216bbc	0.039409384
26	0x3d22e6c6	0.039770864
27	0x3d493b38	0.04912874
28	0x3d96073d	0.07325599
29	0x3dca2383	0.098700546
30	0x3d61fb5b	0.055171352
31	0x3d865a5b	0.06560203
32	0x3c9dc142	0.019257192
33	0x3bc97b92	0.006148764
34	0x3dce7d1b	0.10082456
35	0x3d07836a	0.03308431
36	0x3c72fd7d	0.014830944
37	0x3be21d5e	0.0069004735
38	0x3d823be1	0.06359077
39	0x3d17ab76	0.037028752
40	0x3dd78b7f	0.10524654
41	0x3ca74887	0.020420326
42	0x3d682464	0.05667533
43	0x3dff918a	0.12478931
44	0x3c94733a	0.01812135
45	0x3caf836f	0.021424977
46	0x3e1d56b1	0.15365101
47	0x3d7ae48f	0.061253127
48	0x3d0445eb	0.03229324
49	0x3d6551d5	0.055986244
50	0x3c7bad3b	0.015361126
51	0x3d8a9d6e	0.067683086
52	0x3dc68da5	0.09694985
53	0x3c936805	0.017993936
54	0x3d760f49	0.06007317
55	0x3d65302d	0.055954147
56	0x3da1ba38	0.078968465
57	0x3c107390	0.008816615
58	0x3cd45214	0.025918044
59	0x3ceae8b6	0.028675418
60	0x3d79d117	0.06099042
61	0x3c870838	0.016483411
62	0x3d9d5547	0.07682281
63	0x3cb43036	0.021995645
64	0x3de01dc6	0.10943179
65	0x3da74ed6	0.08169334
66	0x3dab90a4	0.083771974
67	0x3d4b8613	0.04968841
68	0x3c7db92c	0.015486043
69	0x3db220e5	0.086976804
70	0x3cfe7f7a	0.031066645
71	0x3dbe3c4c	0.092888445
72	0x3c419378	0.011814944
73	0x3c885cb5	0.016645769
74	0x3d949f9c	0.072570056
75	0x3db53304	0.08847621
76	0x3d9b01e1	0.07568718
77	0x3cf2c694	0.029635705
78	0x3d70ef59	0.05882201
79	0x3d59e35a	0.053195335
80	0x3d86594f	0.06560003
81	0x3d84362c	0.06455645
82	0x3dd5c33d	0.10437629
83	0x3d3263e9	0.043552313
84	0x3d3b95a7	0.045797016
85	0x3c0ed289	0.008717188
86	0x3d015da0	0.03158343
87	0x3dcf830f	0.10132419
88	0x3daa6d56	0.083216354
89	0x3d558a8a	0.052134074
90	0x3caddf6a	0.021224696
91	0x3e1caf2f	0.15301202
92	0x3ca4dec6	0.020125758
93	0x3c1cd0d1	0.00957127
94	0x3c828619	0.015933083
95	0x3bbd953e	0.0057856133
96	0x3db21c09	0.086967535
97	0x3c052b6e	0.00812803
98	0x3c5358ab	0.012899558
99	0x3c8a8a15	0.016911546
100	0x3d69d7de	0.057090633
101	0x3da20c9d	0.07912562
102	0x3dc9b39f	0.09848713
103	0x3d95aca8	0.07308322
104	0x3d809ccb	0.06279906
105	0x3cd3e908	0.025867954
106	0x3cedd848	0.029033795
107	0x3d6746a1	0.05646384
108	0x3c14d5a1	0.009084136
109	0x3cbb151b	0.022837212
110	0x3d9c8e85	0.07644371
111	0x3d034208	0.032045394
112	0x3bc32d79	0.0059563485
113	0x3e074e4f	0.13213466
114	0x3d59ea1b	0.053201776
115	0x3c109332	0.008824157
116	0x3ca8a70b	0.020587465
117	0x3d237c04	0.039913192
118	0x3d5ec279	0.054384682
119	0x3ce5ebbc	0.028066508
120	0x3e18ceb4	0.14922601
121	0x3ca8f553	0.020624792
122	0x3c89f0e7	0.016838504
123	0x3d3406ee	0.04395192
124	0x3d785f1d	0.060637582
125	0x3d127fa9	0.035766277
126	0x3c207700	0.009793997
127	0x3dd08ab4	0.101827055

features.3.weight f4 [64, 128]
0	0xbd4dc045	-0.05023219
1	0xbc60b643	-0.01371533
2	0x3e078682	0.13234904
3	0x3d54817b	0.051881295
4	0x3dff4eae	0.12466179
5	0x3dc6ecab	0.097131096
6	0xbd829cd9	-0.063775726
7	0x3d8cb75d	0.06870911
8	0x3db75765	0.08952216
9	0x3d875dc2	0.0660968
10	0xbc1729e9	-0.009226301
11	0x3c38e6bf	0.011285483
12	0x3df474f8	0.119363725
13	0xbe13eaf5	-0.14445098
14	0x3e3830b5	0.1798733
15	0xbd891f70	-0.06695449
16	0x3dc88564	0.09791067
17	0x3d7a309f	0.061081525
18	0xbc6769b1	-0.01412432
19	0xbd98bc58	-0.07457799
20	0xbda7209b	-0.08160516
21	0xbcae533e	-0.021279927
22	0xbd6845d2	-0.05670721
23	0x3ded46b7	0.115857534
24	0x3ba7a36d	0.0051159174
25	0x3e1dbf54	0.15405017
26	0xbe0d9671	-0.1382692
27	0x3c88f520	0.016718447
28	0x3cdb0410	0.026735336
29	0xbcd5ee16	-0.026114505
30	0xbe0f95c7	-0.1402198
31	0xbc0d106c	-0.008609872
32	0xbdb28a87	-0.08717828
33	0xbe16bc55	-0.1472028
34	0x3dbb9cdf	0.0916078
35	0x3d6620d4	0.05618365
36	0xbd50ae87	-0.050947692
37	0xbcbae53c	-0.022814386
38	0x3be5249b	0.006992889
39	0x3dbc6a74	0.09199992
40	0xbb735edb	-0.0037135396
41	0xbdb16dc7	-0.086635165
42	0xbde2dac0	-0.110768795
43	0xbde8ba7a	-0.113636926
44	0x3e029711	0.1275294
45	0x3d8c2a36	0.068439886
46	0x3c65fa70	0.01403676
47	0xbdedc535	-0.1160988
48	0x3d8f135f	0.069861166
49	0x3cfe6d8f	0.031058101
50	0x3d9fe847	0.07807975
51	0xbdbaa9b0	-0.091143966
52	0x3e1addfe	0.15123746
53	0xbda8e948	-0.0824762
54	0x3d92e12f	0.071718566
55	0x3e015f32	0.1263397
56	0x3e1694f5	0.1470526
57	0xbd4727f8	-0.0486221
58	0x3db6bf81	0.08923245
59	0xbc3f04ce	-0.01165886
60	0xbd43e64b	-0.047827046
61	0xbdd68862	-0.10475232
62	0xbb6d46ac	-0.0036205454
63	0x3ccee814	0.025257148
64	0x3e000c0f	0.125046
65	0x3c587acb	0.01321287
66	0x3d25389a	0.040337183
67	0xbe24ffbe	-0.16113183
68	0xbd16a4a7	-0.03677812
69	0x3df6a22b	0.1204265
70	0x3c322452	0.010872917
71	0xbdf21d22	-0.11821963
72	0xbde395ce	-0.11112557
73	0x3cd05f1a	0.025435973
74	0x3ce4b6d6	0.027919214
75	0x3cea9211	0.028634103
76	0xbc5e39bd	-0.013563571
77	0xbd124ef5	-0.03571983
78	0x3beff2cd	0.0073226453
79	0xbde55031	-0.11196936
80	0xba09a021	-0.00052499963
81	0x3c491bc9	0.012274691
82	0xbe41bb2a	-0.18919054
83	0x3d045bef	0.032314237
84	0x3db1d3a7	0.086829476
85	0x3e1096e5	0.14120062
86	0x3e2f7df0	0.17137885
87	0x3d8b01d1	0.06787456
88	0xbd8abb4d	-0.06774006
89	0x3d774a7c	0.06037377
90	0xbd332b66	-0.04374256
91	0x3b8e17d7	0.004336338
92	0xbca0bc25	-0.019620964
93	0xbdbbfa7b	-0.09178635
94	0xbdb89096	-0.090119526
95	0xbe2b7a07	-0.16745768
96	0xbd682f62	-0.056685813
97	0xbd7ca6bf	-0.06168246
98	0x3d870852	0.06593384
99	0x3e0177db	0.12643377
100	0xbe314973	-0.17313175
101	0xbcb305ad	-0.021853292
102	0x3d323c3f	0.043514486
103	0x3d9462db	0.07245418
104	0xbc61745d	-0.013760653
105	0xbcc145c9	-0.023592846
106	0xbdfaa692	-0.12238802
107	0x3d9b76a6	0.0759099
108	0xbda7834b	-0.08179339
109	0x3e01b906	0.12668237
110	0xbe2277b5	-0.15865977
111	0x3db6a811	0.08918775
112	0xbdb753cd	-0.089515306
113	0x3cbb1237	0.022835834
114	0x3d4a8ce4	0.04945077
115	0x3d801b30	0.062551856
116	0xbc354c71	-0.011065588
117	0x3dcf5420	0.101234674
118	0xbd04118d	-0.0322433
119	0x3cbba48a	0.022905607
120	0xbde99666	-0.11405639
121	0x3d676e73	0.056501817
122	0xbe5ddf8e	-0.2166731
123	0x3d9b8eb4	0.07595578
124	0xbd925383	-0.07144835
125	0x3d9d0eef	0.07668864
126	0x3d9e79fe	0.07738112
127	0xbd739122	-0.05946458
128	0x3dbdb854	0.092636734
129	0x3d9c8026	0.0764163
130	0xbe1f7ba5	-0.1557451
131	0xbd2587cb	-0.040412705
132	0xbd924ab9	-0.071431585
133	0x3c2795df	0.010228603
134	0xbdbc29db	-0.09187671
135	0xbd6c736c	-0.057727262
136	0xbc9441fe	-0.018097874
137	0xbd7e505b	-0.06208835
138	0xbe3465de	-0.17616984
139	0xbe04d739	-0.12972726
140	0xbd9e3b04	-0.077261
141	0x3c8d0d0e	0.017218139
142	0xbd840745	-0.06446699
143	0x3d917df9	0.071041055
144	0xbdfef8f0	-0.12449825
145	0x3acfd534	0.0015856386
146	0x3d45d18c	0.048295543
147	0x3e2bf39a	0.16792145
148	0x3dce69e6	0.10078792
149	0x3e0406d8	0.12893236
150	0xbc9e72d9	-0.019341873
151	0x3b94da38	0.0045426153
152	0x3e2fd053	0.17169313
153	0xbde85cf4	-0.113458544
154	0x3d5a8a2b	0.053354423
155	0xbc112fc6	-0.008861488
156	0xbd5ac535	-0.053410728
157	0xbc269f90	-0.010169879
158	0xb9844169	-0.00025225736
159	0x3cf60fcb	0.030036828
160	0xba0bedd3	-0.0005337868
161	0x3d458bfe	0.04822921
162	0xbdeb9223	-0.11502483
163	0x3d0c67a4	0.034278527
164	0xbdf4b497	-0.11948507
165	0x3d28cc40	0.041210413
166	0xbe2e6fa3	-0.17034774
167	0xbba4cb4c	-0.0050291177
168	0x3da38d42	0.07985927
169	0x3d801a67	0.06255036
170	0xbde65230	-0.11246145
171	0x3d9371ac	0.071994156
172	0xbd697bb9	-0.057002757
173	0x3ca4e23d	0.02012741
174	0x3bb586df	0.0055397595
175	0x3e0a7d3d	0.13524337
176	0xbdb842d7	-0.08997124
177	0xbcf10508	-0.029421344
178	0xbda787b7	-0.081801824
179	0x3cc4b64d	0.024012709
180	0xbc4aeeac	-0.012386005
181	0x3d1f24e1	0.03885353
182	0xbcd9e585	-0.026598701
183	0xbd091f86	-0.03347733
184	0xbe1491e8	-0.14508784
185	0xbdf5a4fc	-0.11994359
186	0xbc1bb241	-0.009502948
187	0x3db0fc7c	0.086419076
188	0xbba88046	-0.0051422445
189	0x3de02f82	0.109465614
190	0x3d52112a	0.0512859
191	0xbe10fd2a	-0.14159074
192	0xbc40ac29	-0.011759796
193	0xbe099a95	-0.13437875
194	0xbdb49f83	-0.08819487
195	0x3de686e9	0.11256201
196	0xbe04665a	-0.12929669
197	0xbd992b6a	-0.07478984
198	0xbcc660de	-0.024216112
199	0x3b3cc832	0.002880585
200	0x3dd8b8b3	0.105821036
201	0x3da74c12	0.08168806
202	0xbc7e26c4	-0.015512172
203	0xbdc61f67	-0.09673958
204	0xbdd6f40e	-0.104957685
205	0xbd41b2d3	-0.04728968
206	0xbdf964ee	-0.12177454
207	0x3e2dc965	0.16971357
208	0xbe0eccdf	-0.1394534
209	0xbc9764ec	-0.01848074
210	0x3da5b922	0.08091952
211	0xbd412f6c	-0.047164366
212	0xbe031fd0	-0.12805104
213	0xbd4cd965	-0.05001201
214	0x3b7f3dfe	0.0038946862
215	0xbd986421	-0.07440973
216	0xbd10cee1	-0.035353545
217	0x3bc620c3	0.006046386
218	0x3d5ede16	0.054411016
219	0x3bce33a7	0.0062927785
220	0xbcbbaa4f	-0.022908358
221	0xbd4ea230	-0.050447643
222	0xbd31f247	-0.043443944
223	0x3dcf9110	0.1013509
224	0x3b6f0b8d	0.003647539
225	0x3d781a9a	0.060572244
226	0xbdb7d782	-0.08976652
227	0x3c3cdded	0.011527521
228	0x3de053fa	0.10953517
229	0xbe094d8a	-0.13408485
230	0x3c1cd94c	0.009573292
231	0x3d07bb53	0.03313763
232	0x3dcf4f61	0.10122562
233	0x3d49d7eb	0.04927818
234	0xbdc9d3fd	-0.09854887
235	0xbe2a2932	-0.16617277
236	0xbc2bddfe	-0.010489939
237	0xbdbff828	-0.09373504
238	0x3cbcb7da	0.023036886
239	0xbd94af57	-0.07260006
240	0x3d3ab0af	0.045578655
241	0xbe25f1c3	-0.16205506
242	0xbd812de6	-0.063075826
243	0x3e19a586	0.15004548
244	0x3cdf0ec6	0.027228724
245	0xbdf05eae	-0.11736809
246	0xbd82d8d4	-0.06389013
247	0xbcb538da	-0.022121836
248	0x3bce1773	0.0062894165
249	0xbd8b6531	-0.0680641
250	0xb834010d	-4.2916323e-05
251	0xbdcb55b0	-0.09928453
252	0x3dc147fe	0.094375595
253	0x3dfede84	0.12444785
254	0x3bda610c	0.006664401
255	0x3d532ff9	0.051559422

features.3.bias f4 [64]
0	0x3d0d1a75	0.03444906
1	0x3d9840da	0.074342445
2	0xbc622caf	-0.013804599
3	0x3db2c2cb	0.0872856
4	0x3b459987	0.0030151324
5	0xbd31b31e	-0.04338371
6	0x3dae7d20	0.085199594
7	0x3d84068d	0.06446562
8	0x3d81aa9c	0.06331369
9	0xbdb20674	-0.08692637
10	0xbdb007fa	-0.085952714
11	0xbbd8922c	-0.006609222
12	0x3c891132	0.016731832
13	0x3d68d17b	0.0568404
14	0x3d525185	0.051347274
15	0xbd23fd4a	-0.040036477
16	0x3c9508e3	0.018192714
17	0xbd430092	-0.047607966
18	0x3d1c2eff	0.038130756
19	0xbcf8c557	-0.030367536
20	0xbd785548	-0.060628206
21	0x3b726c34	0.0036990764
22	0x3c83bdc7	0.016081704
23	0xbcee7a9c	-0.0291112
24	0x3db028ee	0.08601557
25	0x3d2af8c1	0.041741136
26	0x3d5cb989	0.053887878
27	0x3cd0d04c	0.025489949
28	0x3d49338b	0.04912142
29	0x3d87509d	0.06607173
30	0xbcefc4aa	-0.029268581
31	0xbceab1f2	-0.028649304
32	0x3d383475	0.044971902
33	0x3da3625b	0.07977744
34	0x3d5e9449	0.054340634
35	0xba2ae339	-0.0006518844
36	0x3c382c60	0.011241049
37	0x3d863453	0.06552949
38	0x3cc58b6f	0.024114339
39	0x3d02abf8	0.031902283
40	0xbd1ac50f	-0.037785586
41	0x3cf10712	0.029422317
42	0xbce6535b	-0.028115919
43	0xbd89ba23	-0.06724956
44	0xbd99b0ed	-0.07504449
45	0xbc050798	-0.008119486
46	0xbda42e12	-0.080166
47	0x3ceb12fd	0.028695578
48	0x3adcad9c	0.0016836408
49	0xbd2ba657	-0.04190668
50	0x3d3edf7c	0.04659985
51	0xbc8e240a	-0.01735117
52	0x3da652b8	0.08121246
53	0x3ba9d568	0.0051829107
54	0xbbe034aa	-0.0068422155
55	0x3d82158f	0.06351768
56	0xbc1834a7	-0.009289897
57	0x3c425cce	0.011862947
58	0xbd83dbc7	-0.064384036
59	0x3bdefb48	0.0068048574
60	0xbd143ab3	-0.036188792
61	0xbc6f449a	-0.014603758
62	0xbc0d45b2	-0.008622574
63	0x3c0c2a9d	0.008555082

features.4.weight f4 [64]
0	0x3f7e9f7b	0.994621
1	0x3f6e1061	0.9299374
2	0x3f6be78b	0.9215018
3	0x3f91b103	1.1382145
4	0x3f6445f1	0.8916922
5	0x3f7e31f5	0.9929498
6	0x3f80e040	1.0068436
7	0x3f6f5fc7	0.9350552
8	0x3f92b42f	1.1461238
9	0x3f6eec25	0.9332908
10	0x3f7abea5	0.9794715
11	0x3f6df846	0.9295696
12	0x3f8b587f	1.0886382
13	0x3f8dd417	1.108035
14	0x3f6f7e5b	0.9355218
15	0x3f7abc2f	0.97943395
16	0x3f5f9874	0.87342
17	0x3f6b7cbf	0.9198722
18	0x3f6c0066	0.9218811
19	0x3f6a6b64	0.91570115
20	0x3f66a7d7	0.90099853
21	0x3f69e810	0.91369724
22	0x3f829169	1.0200626
23	0x3f81ffc3	1.0156177
24	0x3f6d26af	0.9263715
25	0x3f860064	1.0468869
26	0x3f74dbdf	0.95647997
27	0x3f889933	1.0671753
28	0x3f84bb8d	1.0369736
29	0x3f901c4e	1.1258638
30	0x3f88aca3	1.0677685
31	0x3f73dd7a	0.9525982
32	0x3f7aee3d	0.9801977
33	0x3f878bd0	1.0589542
34	0x3f897fe1	1.074215
35	0x3f72b02d	0.9480007
36	0x3f7d71ed	0.9900196
37	0x3f7fbfe5	0.9990218
38	0x3f82c4ec	1.0216346
39	0x3f94dba4	1.1629529
40	0x3f615319	0.8801742
41	0x3f5bb084	0.85816216
42	0x3f69e7ee	0.9136952
43	0x3f861cc2	1.0477526
44	0x3f8df52b	1.1090444
45	0x3f8bdf78	1.0927572
46	0x3f820d80	1.016037
47	0x3f883d13	1.0643638
48	0x3f84db51	1.037943
49	0x3f75ff7c	0.96092963
50	0x3f6eff16	0.9335798
51	0x3f5b49d8	0.8565955
52	0x3f6ed79c	0.93297744
53	0x3f7ee621	0.995699
54	0x3f825ee4	1.0185208
55	0x3f7ad4d6	0.9798101
56	0x3f667e04	0.90036035
57	0x3f78e973	0.97231215
58	0x3f71f8aa	0.94520056
59	0x3f8bee07	1.0932015
60	0x3f88e99b	1.0696291
61	0x3f6a2a01	0.9147034
62	0x3f710ee2	0.94163334
63	0x3f668f50	0.9006243

features.4.bias f4 [64]
0	0x3d90e21a	0.070743755
1	0xbd932e82	-0.07186605
2	0xbdb4dc30	-0.0883106
3	0x3db38fa7	0.08767634
4	0x3d1bda9c	0.03805028
5	0xbd2b1112	-0.041764326
6	0x3cac06b7	0.020999296
7	0xbb59344d	-0.0033142746
8	0x3c71b808	0.014753349
9	0xbdb73535	-0.08945695
10	0xba0643cb	-0.0005121796
11	0x3d0fb86c	0.035087988
12	0x3d138a1b	0.03602038
13	0x3d8c7b2f	0.06859433
14	0xbe06fc41	-0.13182165
15	0x3d823ce5	0.06359271
16	0xbda90efc	-0.08254811
17	0xbd9d16a2	-0.076703325
18	0xbda51dc1	-0.08062316
19	0xbd3cc396	-0.046084963
20	0xbdb53b06	-0.088491485
21	0xbd73cc21	-0.059520844
22	0xbc9e72ee	-0.019341912
23	0xbd8d5415	-0.06900803
24	0xbdc05e1e	-0.093929514
25	0x3d8ed64e	0.06974469
26	0xbd849a31	-0.06474722
27	0xbb2e72f4	-0.002661881
28	0x3da78e98	0.081814945
29	0xbe003453	-0.1251996
30	0x38b85e65	8.791386e-05
31	0xbb8fd91c	-0.004389895
32	0x3ba77a73	0.0051110326
33	0x3dbc5cc0	0.09197378
34	0x3d846d1c	0.064661235
35	0xbd046a6c	-0.032328054
36	0x3c07ed2c	0.008296292
37	0x3cc6e3de	0.024278577
38	0xbddd04b6	-0.10791914
39	0xbd992aca	-0.074788645
40	0xbdbabea8	-0.09118396
41	0xbdc642a1	-0.09680677
42	0xbd8ecc30	-0.069725394
43	0x3d3dba19	0.046320055
44	0x3dced78a	0.100997046
45	0x3d81ee0c	0.06344232
46	0x3c8eb41c	0.017419867
47	0x3d434617	0.047674265
48	0x3cecf42f	0.02892503
49	0xbc8ab201	-0.016930582
50	0x3ceaf5b2	0.02868161
51	0xbdf16cff	-0.117883675
52	0xbd8472b3	-0.0646719
53	0x3c6bdb6d	0.014395577
54	0x3dd4e093	0.10394397
55	0x3d3a933a	0.045550562
56	0xbd836a22	-0.064167276
57	0xbc3eff1c	-0.0116575025
58	0xbddca492	-0.10773577
59	0x3d687083	0.056747925
60	0x3d1d0715	0.038336832
61	0xbdc812cf	-0.097692125
62	0xbd7d4dd3	-0.061841797
63	0xbdb93907	-0.0904408

features.4.running_mean f4 [64]
0	0xbd30d1e7	-0.04316893
1	0xbe5b66e8	-0.21425974
2	0xbd284ae2	-0.04108704
3	0xbe81abd9	-0.25326422
4	0xbdfdb566	-0.12388115
5	0xbe4965db	-0.19667761
6	0xbe816450	-0.25271845
7	0x3d41cfc8	0.047317296
8	0x3f06d2e7	0.5266556
9	0x3d9309e7	0.07179623
10	0xbf5fa7a7	-0.8736519
11	0x3d4b59cf	0.049646195
12	0xbf427c01	-0.75970465
13	0xbf306820	-0.6890888
14	0x3e4909b8	0.19632614
15	0xbecfd6de	-0.40593618
16	0xbdde48fd	-0.10853765
17	0xbed3e48b	-0.41385302
18	0x3e5e6d96	0.21721491
19	0xbee744e7	-0.45169756
20	0xbe501192	-0.20319203
21	0xbda89593	-0.08231654
22	0xbf9dfde8	-1.2343111
23	0x3d4d72e5	0.0501584
24	0x3e56532c	0.20930165
25	0xbe99b8f9	-0.30023935
26	0x3ec61dc7	0.38694593
27	0x3e7b4721	0.24538852
28	0xbf0779fd	-0.52920514
29	0x3df0fca0	0.117669344
30	0xbe56ec12	-0.20988491
31	0xbee6508e	-0.44983333
32	0x3dac7209	0.08420188
33	0xbebe9659	-0.3722408
34	0xbe24ab66	-0.16081008
35	0x3e8140c5	0.25244728
36	0xbe6a49bd	-0.22879691
37	0x3e7a0633	0.24416427
38	0x3ecc0265	0.39845577
39	0x3f432c40	0.76239395
40	0x3eafb368	0.34316564
41	0x3cee33ec	0.029077493
42	0x3eacb135	0.33728948
43	0xbd8b7dfb	-0.06811138
44	0xbeb5a3e6	-0.35476607
45	0xbf55c120	-0.8349781
46	0xbd14909d	-0.036270726
47	0xbeec5866	-0.46161193
48	0xbee0c385	-0.4389917
49	0x3d63cc28	0.05561462
50	0x3e49e1e1	0.19715072
51	0xbe07652f	-0.13222192
52	0x3ddca315	0.10773293
53	0xbf364982	-0.71205914
54	0xbe3088b8	-0.17239654
55	0x3e51a5d0	0.20473409
56	0xbd8de705	-0.06928829
57	0x3de4f469	0.1117943
58	0x3ebf99fd	0.3742217
59	0xbd92b678	-0.071637094
60	0x3eea0b20	0.45711613
61	0x3ef62642	0.48076063
62	0x3e7cd38f	0.24690078
63	0xbe53abeb	-0.2067105

features.4.running_var f4 [64]
0	0x408c63eb	4.387197
1	0x3fbe6340	1.4874039
2	0x4082a747	4.0829196
3	0x3ea1f274	0.3163029
4	0x3fca4ab9	1.5804054
5	0x408a6c81	4.325745
6	0x4068b808	3.6362324
7	0x3fa6dcd8	1.3036146
8	0x3fee0f12	1.8598349
9	0x40134130	2.3008537
10	0x3fbb4d0b	1.4632887
11	0x3fc524ca	1.5401852
12	0x3fb96395	1.4483515
13	0x3fb60e3c	1.4223094
14	0x401d60dc	2.4590368
15	0x3fb3e518	1.4054289
16	0x3fed893b	1.8557504
17	0x4064b170	3.57333
18	0x4027902a	2.618174
19	0x3f72e716	0.9488386
20	0x40147db6	2.3201728
21	0x3fced947	1.6160058
22	0x3fa0fefb	1.2577814
23	0x3fa9f5aa	1.3278096
24	0x3fb562dd	1.4170796
25	0x40418b4d	3.0241272
26	0x3fc9eaaa	1.5774739
27	0x3fc8016e	1.5625436
28	0x40043bcb	2.0661495
29	0x3f259c0a	0.6469122
30	0x4047be55	3.120992
31	0x40017f97	2.0234125
32	0x3fa70ffa	1.3051751
33	0x4003de8e	2.0604587
34	0x3f80497e	1.0022428
35	0x400ca9d4	2.1978655
36	0x3f932939	1.1496955
37	0x3fa3ab2d	1.2786614
38	0x3f9730f7	1.1811818
39	0x3f8426a3	1.0324291
40	0x3fe1a8b5	1.762961
41	0x402cc85f	2.6997297
42	0x3fc69089	1.5512859
43	0x3f3e7311	0.7439433
44	0x3ed7c44e	0.42141956
45	0x3f1aaabc	0.6041677
46	0x401d4640	2.4574127
47	0x3f7fcdda	0.9992348
48	0x3eb73c1e	0.35788053
49	0x3fcd5373	1.6041092
50	0x4030ea34	2.7642946
51	0x40143627	2.3158052
52	0x40156fac	2.334941
53	0x3f19db0a	0.6009985
54	0x40080d0f	2.125797
55	0x3f392a4f	0.7233018
56	0x3fe1bd4c	1.7635894
57	0x408634bd	4.193938
58	0x3f3bad33	0.73311156
59	0x3f414a2e	0.75503814
60	0x3fa6f97e	1.3044889
61	0x3fa8ef5e	1.3198049
62	0x406c90bd	3.6963341
63	0x3fc2bdb2	1.521414

features.6.weight f4 [32, 64]
0	0xbdd36a15	-0.10322968
1	0x3ca309d3	0.019902145
2	0xbc23c3b4	-0.00999539
3	0x3e78d96c	0.2430169
4	0x3d24e494	0.04025705
5	0xbde63673	-0.11240854
6	0x3ceb24b1	0.02870402
7	0xbcb1eaaa	-0.021718342
8	0xbe001fb4	-0.12512094
9	0x3cdc49a4	0.026890583
10	0xbdd60e71	-0.10451973
11	0x3d2a0dae	0.041516952
12	0x3d4e9527	0.05043521
13	0xbe2e0991	-0.16995837
14	0xbe0649b3	-0.13114052
15	0x3e1052af	0.14094041
16	0xbd0f2e78	-0.034956425
17	0xbd1bcde5	-0.038038153
18	0xbda05ac0	-0.07829809
19	0x3e2560df	0.16150235
20	0xbbf566d8	-0.0074890666
21	0x3e2117cb	0.15731733
22	0x3cbd8165	0.02313299
23	0xbdb39ed7	-0.08770531
24	0xbd910ad2	-0.07082142
25	0x3de951d4	0.113925606
26	0x3d4d6f13	0.050154757
27	0xbd890ce6	-0.06691913
28	0xbe00c2c7	-0.12574302
29	0xbddedcf9	-0.10881991
30	0xbd4f2f56	-0.050582252
31	0xbc9d7043	-0.01921857
32	0xbdf0e57b	-0.1176252
33	0x3df8a47a	0.121407464
34	0x3dc3c4e6	0.0955904
35	0xbcc560a9	-0.024093943
36	0xbce6025d	-0.028077299
37	0x3dd3d9a9	0.1034425
38	0xbe34c6a5	-0.17653902
39	0xbe2d80fd	-0.16943736
40	0xbe5eac4f	-0.21745418
41	0x3d310aa0	0.043223023
42	0x3cfb138f	0.030648975
43	0xbd32f1d1	-0.043687645
44	0x3d2730f1	0.04081816
45	0xbcca48a8	-0.024692848
46	0xbda97781	-0.08274747
47	0xbdddbff0	-0.10827625
48	0x3e55f635	0.20894702
49	0xbd111b19	-0.035426233
50	0xbdb8aa0a	-0.090168074
51	0xbdaf3b8d	-0.0855628
52	0x3c8b4b9b	0.017003825
53	0xbda20515	-0.079111256
54	0x3c6b2d21	0.014354021
55	0x3d87bf9d	0.06628344
56	0x3d2fa2b3	0.04287977
57	0x3da243b7	0.07923072
58	0xbb0a9408	-0.0021145362
59	0x3e1dbe53	0.15404634
60	0xbd38545a	-0.04500232
61	0xbe05bb47	-0.13059722
62	0x3d826505	0.06366924
63	0xbe240660	-0.16018057
64	0x3d52f679	0.051504586
65	0x3cb3577d	0.021892304
66	0x3d809653	0.06278672
67	0xbe29ed00	-0.16594315
68	0x3e039ad2	0.12852028
69	0xbdbfc54a	-0.09363802
70	0xbd8d20ce	-0.068910226
71	0xbe36ddc0	-0.17858028
72	0x3c8bb7b9	0.01705538
73	0xbd1d51bc	-0.038408026
74	0x3b8a758e	0.0042254394
75	0xbdc07932	-0.09398116
76	0xbe324e55	-0.17412694
77	0xbe120931	-0.14261319
78	0x3dfe9331	0.12430418
79	0xbdc7c6ca	-0.09754713
80	0xbe0cf65e	-0.13765857
81	0x3d657e72	0.05602879
82	0xbd64d56a	-0.05586759
83	0xbd1ff498	-0.039051622
84	0x3e07a276	0.13245568
85	0xbde6337b	-0.11240288
86	0x3d1c2288	0.03811887
87	0x3c36b31a	0.0111511
88	0x3d3ee5b9	0.0466058
89	0x3ccfb179	0.02535318
90	0xbd3e7614	-0.046499327
91	0x3e31f0e7	0.17377053
92	0xbd9d94cd	-0.07694397
93	0xbe5697ae	-0.20956299
94	0xbe4ecfc9	-0.20196451
95	0xbda89d60	-0.08233142
96	0x3c9cf274	0.01915858
97	0xbc8a0994	-0.01685027
98	0xbe2cc71f	-0.16872834
99	0xbd4cb016	-0.049972616
100	0xbd4956b6	-0.04915496
101	0xbd66ba09	-0.05632976
102	0xbbaea507	-0.0053297314
103	0xbd09a5e1	-0.03360546
104	0x3e30c47e	0.17262456
105	0x3dade76c	0.08491406
106	0x3dd821cc	0.10553321
107	0xbd80cc64	-0.062889844
108	0x3e01373d	0.12618728
109	0xbd305168	-0.043046385
110	0x3a2ef2bf	0.0006673745
111	0xbc83b8d6	-0.016079348
112	0xbe56cddd	-0.20976968
113	0x3e51e97f	0.20499228
114	0xbb8eeacb	-0.0043614856
115	0xbd19c05c	-0.037536964
116	0xbd154d9d	-0.03645097
117	0xbd801a94	-0.062550694
118	0x3d2a5d39	0.04159281
119	0xbb8299a3	-0.0039856
120	0x3d3597f0	0.044334352
121	0xbcf77e3b	-0.030211559
122	0x3df130af	0.11776864
123	0xbdfe8850	-0.12428343
124	0x3dffabc8	0.124839365
125	0x3e3ef063	0.18646388
126	0x3dfc2782	0.12312223
127	0xbde457b2	-0.11149539
128	0xbd13905e	-0.03602635
129	0x3c7ac8d8	0.015306674
130	0x3d28ffdb	0.041259628
131	0xbe39aa26	-0.18131313
132	0xbdaf6948	-0.08565003
133	0xbe3c4ee1	-0.18389465
134	0xbe09946d	-0.13435526
135	0x3d5ffa61	0.05468214
136	0x3e01f706	0.12691888
137	0xbe41fc1c	-0.18943828
138	0x3cbec2ef	0.023286311
139	0xbe5b5177	-0.21417795
140	0x3dc003e5	0.09375743
141	0x3e5de6ec	0.21670121
142	0x3d5a58ae	0.053307228
143	0x3dd120bf	0.10211324
144	0x3c094d14	0.008380193
145	0xbe123e10	-0.14281487
146	0x3e2c1973	0.16806583
147	0x3e3437ef	0.17599462
148	0x3bec6d56	0.0072151823
149	0x3de4a6b8	0.111646116
150	0x3e679d14	0.22618514
151	0xbda9b86c	-0.08287129
152	0x3cb1f432	0.021722887
153	0x3c745bfa	0.014914507
154	0xbdb8afc8	-0.090179026
155	0xbe6adf59	-0.22936763
156	0x3cee06a7	0.029055906
157	0x3e0c2137	0.13684545
158	0x3da5caec	0.08095345
159	0x3e407c41	0.18797399
160	0x3ce62c10	0.028097183
161	0xbd84ab13	-0.06477942
162	0x3d000a23	0.031259667
163	0x3c0db603	0.008649352
164	0x3d96a93a	0.07356496
165	0xbcb7ea49	-0.022450583
166	0x3d6b67a8	0.0574719
167	0x3cd034da	0.025415827
168	0xbe069d48	-0.13145936
169	0xbe0f3b52	-0.13987473
170	0x3d49d7fc	0.049278244
171	0x3dd94f97	0.10610884
172	0xbe0be43b	-0.13661282
173	0x3e082618	0.13295782
174	0xbd37b6aa	-0.044851936
175	0x3dabf191	0.083956845
176	0x3c67a282	0.014137866
177	0xbe2a67da	-0.16641179
178	0xbe013b4b	-0.12620275
179	0xbd1000f5	-0.035157163
180	0x39beff7e	0.0003642998
181	0x3d035bb6	0.032069884
182	0xbc1c5845	-0.0095425295
183	0x3d63a046	0.05557277
184	0x3d9a206f	0.075257175
185	0x3e6350e6	0.22198829
186	0xbdb840a7	-0.089967065
187	0xbdee56de	-0.11637662
188	0xbe0d2086	-0.13781938
189	0xbdf5a2c7	-0.11993938
190	0xbd965cfb	-0.07341953
191	0xbd8fc8ea	-0.07020743
192	0x3d2cc758	0.042182297
193	0x3d3de0be	0.04635691
194	0x3ce1b6ae	0.027552929
195	0x3e48a5eb	0.19594543
196	0x3e2b3857	0.1672071
197	0xbde18b17	-0.110128574
198	0xbda4418b	-0.08020314
199	0xbdd62117	-0.1045553
200	0xbe5d9c89	-0.21641745
201	0xbd5209dc	-0.051278934
202	0xbdd320d5	-0.103089966
203	0x3db5edb4	0.08883229
204	0xbe307841	-0.17233373
205	0xbdafb61b	-0.08579656
206	0xbd8045e1	-0.06263328
207	0x3e0ad2c7	0.13556968
208	0xbc9415a0	-0.018076718
209	0xbbe3ed9d	-0.006955816
210	0xbe13c97b	-0.14432327
211	0x3d74fdd8	0.059812397
212	0x3c421fbb	0.011848385
213	0xbcad7f65	-0.02117891
214	0x3c2717b0	0.010198519
215	0xbe054799	-0.13015594
216	0xbe1ab28f	-0.15107177
217	0xbd8c6195	-0.0685455
218	0xbbaa9ebd	-0.0052069114
219	0x3dd6d10d	0.10489092
220	0xbdb4869d	-0.08814738
221	0xbd6c6381	-0.05771208
222	0xba1ff41f	-0.00061017455
223	0xbd5d51c1	-0.054033045
224	0x3d659769	0.0560526
225	0x3e1b9ed3	0.15197305
226	0x3da5b428	0.08091003
227	0xbd25012c	-0.04028432
228	0x3dd93fb6	0.10607855
229	0x3d92352e	0.071390495
230	0xbe07174e	-0.13192484
231	0xbe38f3f5	-0.18061812
232	0xbd60b2d3	-0.05485804
233	0xbd56720f	-0.05235487
234	0x3c427dec	0.011870842
235	0xbe28ceb9	-0.16485108
236	0x3e75cf97	0.2400497
237	0xbd9f2c48	-0.07772118
238	0xbe1eb80c	-0.15499896
239	0x3b4c865a	0.003120801
240	0x3d7aa72f	0.061194595
241	0xbcb575f1	-0.022150965
242	0x3d9d3e18	0.07677859
243	0x3e07f8d8	0.1327852
244	0xbe3df5ac	-0.18550748
245	0x3d5559d5	0.052087624
246	0x3db54bd9	0.088523574
247	0x3c54ef3b	0.01299649
248	0xbc5229ad	-0.012827319
249	0x3c3066c5	0.01076669
250	0xbb9d2064	-0.004795121
251	0x3cdc3328	0.026879862
252	0x3d10edf7	0.03538319
253	0xbd552bf8	-0.052043885
254	0xbd2f03c8	-0.042728215
255	0xbd29aa90	-0.041422427

features.6.bias f4 [32]
0	0xbd668cb8	-0.056286544
1	0xbcf49542	-0.029856328
2	0x3d8cb1b7	0.06869834
3	0xbda38944	-0.07985166
4	0x3d1162d6	0.035494648
5	0xbd652900	-0.055947304
6	0xbdbcbb3c	-0.092153996
7	0xbde945b5	-0.11390249
8	0x3d557cea	0.05212108
9	0xbddfeb26	-0.10933523
10	0xbdea522e	-0.11441456
11	0xbd4f32b2	-0.050585456
12	0xbd79ceb3	-0.06098814
13	0xbc9cce1e	-0.019141253
14	0xbc6c723c	-0.0144315325
15	0xbd8451c2	-0.064609066
16	0xbc443cc2	-0.011977376
17	0xbcbe8ac3	-0.023259526
18	0x3d1c4edc	0.038161144
19	0x3d43b51d	0.047780145
20	0x3ca3809d	0.019958789
21	0xbcda0480	-0.026613474
22	0x3de268bf	0.11055135
23	0xbdadb558	-0.08481854
24	0xbdb91f06	-0.090391204
25	0xbce74fe7	-0.028236343
26	0x3dbc3d63	0.09191396
27	0xbdf53a33	-0.11973991
28	0xbd8bf188	-0.06833178
29	0x3d0444a7	0.032292034
30	0x3d5302c9	0.051516328
31	0x3dfbc707	0.12293821

features.7.weight f4 [32]
0	0x3f9694eb	1.1764196
1	0x3f5b3a43	0.85635775
2	0x3f974cf3	1.1820358
3	0x3f93c560	1.1544609
4	0x3f96eee3	1.1791652
5	0x3f9555e5	1.1666838
6	0x3f963ca1	1.1737252
7	0x3f840a71	1.0315686
8	0x3f8d0444	1.1016927
9	0x3f898e43	1.074654
10	0x3f8fa34a	1.1221707
11	0x3f8c9021	1.0981485
12	0x3f8ba6c5	1.0910269
13	0x3f8cd949	1.100381
14	0x3f87f990	1.0623035
15	0x3f933c1b	1.1502718
16	0x3f90f3d5	1.1324412
17	0x3f8497cb	1.0358824
18	0x3f92c975	1.146773
19	0x3f7b274b	0.9810683
20	0x3f90fc18	1.1326933
21	0x3f84d900	1.0378723
22	0x3f56adcb	0.8385894
23	0x3f933c28	1.1502733
24	0x3f813ae1	1.0096093
25	0x3f8a65d2	1.0812323
26	0x3f8e01da	1.1094315
27	0x3f972cc9	1.1810542
28	0x3f8c0356	1.0938518
29	0x3f90d6f8	1.1315603
30	0x3f549655	0.8304189
31	0x3f4cacdd	0.7995127

features.7.bias f4 [32]
0	0x3dfdd325	0.12393788
1	0xbe15dd51	-0.14635207
2	0x3e21753f	0.15767382
3	0x3df22168	0.11822778
4	0x3de8fb74	0.11376086
5	0x3e24f145	0.16107662
6	0x3deb3794	0.1148521
7	0xbd7762c5	-0.06039693
8	0x3daa8b2d	0.08327327
9	0x3dcae596	0.09907071
10	0x3deed13e	0.116610035
11	0x3dbc9b76	0.09209339
12	0x3de3fadd	0.11131833
13	0x3dd6b092	0.10482897
14	0x3d827a67	0.06371003
15	0x3de69e96	0.112607166
16	0x3e1640f9	0.14673223
17	0x3cc54f88	0.024085775
18	0x3e203c96	0.15648112
19	0xbcdc7346	-0.026910435
20	0x3e010ec9	0.12603296
21	0xbcc7cfbe	-0.024391051
22	0xbdf00f7a	-0.11721702
23	0x3d446c34	0.047954753
24	0xbca052ad	-0.019570673
25	0x3de4cca6	0.11171846
26	0x3e150837	0.14553915
27	0x3e0da8e6	0.13833961
28	0x3dabf6b1	0.08396662
29	0x3e1d42b0	0.1535747
30	0xbe58a5fa	-0.21157065
31	0xbe5eaa7d	-0.21744724

features.7.running_mean f4 [32]
0	0xbe3ef830	-0.18649364
1	0xbeb1dee7	-0.34740373
2	0x3d1e897e	0.03870534
3	0xbe54ea27	-0.20792447
4	0xbe37aacf	-0.17936252
5	0x3d2f2b04	0.042765632
6	0xbdf2a93c	-0.11848685
7	0x3e62b9a2	0.22141126
8	0xbe47501f	-0.19464158
9	0xbd6895b0	-0.056783378
10	0xbe3c13ff	-0.18367003
11	0x3e14088a	0.14456382
12	0x3e139b5c	0.14414734
13	0x3e62858e	0.2212126
14	0x3da694fd	0.08133886
15	0x3c8e0fd1	0.017341526
16	0xbda1ede0	-0.07906699
17	0x3e310f7a	0.1729106
18	0x3e85cf81	0.26134875
19	0x3e90dbd5	0.2829272
20	0x3ea14c14	0.31503356
21	0xbeca3132	-0.39490658
22	0xbee9c460	-0.45657635
23	0x3d908f69	0.07058603
24	0xbeb1d907	-0.3473589
25	0xbd8201d7	-0.06348007
26	0x3ae258f5	0.0017268943
27	0x3d2eb94f	0.042657193
28	0xbc459a3b	-0.012060697
29	0x3e088e6c	0.1333558
30	0xbeb365a8	-0.35038495
31	0xbe9d03fe	-0.30667108

features.7.running_var f4 [32]
0	0x3f534855	0.82532245
1	0x3f498276	0.7871469
2	0x402ae3d2	2.670155
3	0x3f744fb8	0.9543414
4	0x3ef24f17	0.47325966
5	0x402af948	2.671465
6	0x3f1f8855	0.623174
7	0x3f08d26b	0.5344607
8	0x3f612373	0.87944716
9	0x3f5369e5	0.8258346
10	0x401c2c64	2.4402094
11	0x40315091	2.7705424
12	0x3f84a9d3	1.0364326
13	0x3fd38d2a	1.6527455
14	0x3f3e14e0	0.742506
15	0x401874c7	2.3821275
16	0x3fe4f728	1.7887926
17	0x400a2755	2.1586506
18	0x3feb0b81	1.8362886
19	0x3f2074d0	0.6267824
20	0x3fd028bf	1.6262435
21	0x3f319b71	0.6937781
22	0x40579199	3.3682616
23	0x3f00e80f	0.50354093
24	0x3f197d75	0.5995706
25	0x3f301c8e	0.6879357
26	0x3fbe4996	1.4866207
27	0x400ee063	2.2324455
28	0x3f6e370d	0.9305275
29	0x4018ca1d	2.387336
30	0x3eaa6913	0.3328329
31	0x3fbbdf13	1.4677452
