NIDS_attacks/pytorch_attack/MLP_CICIDS2017_70x2_1000.pt (torch, 92808 bytes, 22 tensors)

features.0.weight f4 [128, 70]
00000000: 4429 0e3e 8a50 25be ebd9 c53e 6fd1 243f
00000010: 86c8 dd3e 5117 cc3c d20e 953e c544 a13d
00000020: 7c73 083e 2d57 a83d f8f2 553c 0b6b 413e
00000030: 5c13 7cbd 41d0 af3c 267e f93c 915a 43bd
00000040: 471a 14be 041d 54bd 6893 313d 189d f4be
00000050: 9d2d 1cbe be8a 91bd 2a52 ccbd 6d95 e73c
00000060: b044 24bf 25c8 4d3e f79a d03d 4192 453e
00000070: 20f0 0f3d 8176 b03d db08 a3bc fd43 7b3d
00000080: b1ec 823d 99d6 8f3e e2b0 083d 8102 693d
00000090: 3f47 933e c143 0ebe de32 8dbd 6773 0fbc
000000a0: 5bf9 98bd 8b93 bbbc b4c8 d63d e50f 9f3d
000000b0: 6406 e2bd 455f 1bbd 4922 cabd 796e bdbd
000000c0: 4782 9d3e 184c ed3d 3e52 fcbd 6dd3 8e3e
000000d0: 4548 1d3d d82c b8bd 73b3 0f3f 885e c53e
000000e0: d9ba 1a3f 1ac6 393e 4b10 553d 8e88 893e
000000f0: 9806 643f 8514 393d 37d2 863e 7318 923d
00000100: 5de8 9d3e bf3f 9d3e f4e7 e0bd 50af 11be
00000110: 7557 04be 91df 25be 4fb0 613e 50e4 eebd
00000120: 5c00 3ebf 7122 59bf 94da 06bf 51bb 26bf
00000130: dd42 acbe 137f 933d 9fd0 df3c dc44 4f3d
00000140: c957 13be 7585 a03e b4d0 95bd cc4a 753d
00000150: eb7f 3dbf 6b06 973e 0913 9c3d 0d56 23be
00000160: 6168 23be 2edb 2c3f a7c6 1fbe 576b f4bc
00000170: 6c66 48bc 74a6 f4bd 3457 8c3c 67ec f83c
00000180: 3160 623e d09e ab3e 7c9c c23d 5ae1 253e
00000190: 5e98 85be 047c 7dbd 1188 4fbe f74f 29bf
000001a0: fc8f 9abc 4857 283e d11b 4d3d c281 8ebe
000001b0: ea96 58bd 079e 2e3d 3d5b a1bc e378 79be
000001c0: 59bd 95be c9a6 43be fa39 efbc 48b7 923c
000001d0: ffb0 803d 33b1 a1bd 2d12 17bd 935e 19bf
000001e0: 3cfb 97bb d59a 173e 28ff ed3b 5dfd 82be
000001f0: 542a 41bf cd59 07bf aad1 41bf f094 06bf
00000200: 3831 d33d 10e0 a83c eb2c 59bf bb67 fe3b
00000210: 004a 95bc 2672 683e 68b8 c13d 8223 11be
00000220: df9b b1bd 506b 90be 4165 883d 7ea1 6abd
00000230: 8934 453e 1bd8 24bd 9338 5a3e 9d79 7f3f
00000240: 504c 7c3c d4fb 583f dbf2 083e 1383 bd3d
00000250: 3f18 9dbd a74b 3ebd 9f0e f4bb 7dcd d33d
00000260: 7a07 f6bb 603f a5ba 5304 24bc c67e ed3e
00000270: 3626 9fbe 9ecf 70be e46b d9bd c714 fa3c
00000280: 3386 89bc edfd 82bc 6bb7 25be 88b9 d6bd
00000290: 7586 59be aa52 2e3d 4eec db3d 558b 143e
000002a0: f5ba 2a3d 1947 683e baec 173d 33b8 30bd
000002b0: cf78 cabd 5b97 503f 5a72 853e d609 d83d
000002c0: 18f8 9f3e fa4f 163e 432a a8bc 5716 b3bd
000002d0: 7c90 153e b652 04bd 4d0c f63d 14c7 e1bc
000002e0: 607b 82bc b81a 4cbd e0ec ce3d c611 713d
000002f0: ca3a a83d d442 1abe 758f 8b3d e47c d7bc
00000300: 67e9 cbba 0629 0abe 6689 a33e 785d 1c3b
00000310: 4e43 663f 67ee 5f3f ea58 41be 4d5e 3abe
00000320: 3bc4 64bd 0c93 ce3b 7406 de3e cfb2 dc3e
00000330: c922 203f 91ab e43e 7e35 ef3c 8322 a73c
00000340: ed22 9b3d 28f7 013e 7072 ab3d 4c52 1fbd
00000350: a43f b9be dda2 2ebf 2e2b eebe cddd 24bf
00000360: fb14 37be 6e3b 9a3d 54ac ebbd d642 13be
00000370: 7f97 efbd 6d7d 053e 3a2b eabb 01ef 453e
00000380: ab2d eabe e233 823d 0f39 043d 521d 4b3d
00000390: fe99 a1bd e76a a9be ee7f 11be f5a3 a53d
000003a0: 85de 053d 31d2 c6bd 5942 e23e a327 e5bc
000003b0: 0932 9e3e 1558 193e 4a64 f53b c2fe 2e3e
000003c0: 214b 8f3d 2ba9 9e3d 061e 71be 3b5a 22bf
000003d0: 7aeb 2cbe 20c9 fe3e 548a e8bd 66e8 0cbe
000003e0: b530 b3bd be09 393e e8d6 373d 1205 0d3c
000003f0: 5113 303e 7335 483c 0ff6 c0bc 50d6 3ebd
0.13882929 -0.16144004 0.3864282 0.6438207 0.4331705 0.024913462 0.2911287 0.07874445
0.13325304 0.082197525 0.013058417 0.1888849 -0.0615419 0.021461608 0.03045566 -0.047693793
-0.14463149 -0.051785484 0.04335347 -0.47776103 -0.15251775 -0.07106541 -0.09976609 0.028269494
-0.6416731 0.2009588 0.10185807 0.19294073 0.03514111 0.08616353 -0.019901684 0.061344136
0.063928016 0.28093413 0.033371814 0.056887154 0.28765294 -0.13893034 -0.06894468 -0.008755541
-0.07469436 -0.022897502 0.104875 0.077667035 -0.11036375 -0.037932653 -0.098698206 -0.092495866
0.30763456 0.11586779 -0.12320374 0.2789568 0.038399 -0.08992928 0.5613319 0.38548684
0.60441357 0.18141976 0.05201749 0.26861995 0.8907256 0.045185585 0.26332256 0.071335696
0.30841342 0.30712697 -0.109817415 -0.14227033 -0.12923987 -0.16198565 0.22039913 -0.11664641
-0.742193 -0.8481818 -0.52677274 -0.6512957 -0.33644763 0.07201972 0.027321158 0.05060278
-0.14388956 0.3135182 -0.073151976 0.059885785 -0.7402331 0.29497084 0.07620818 -0.15950795
-0.15957786 0.6752194 -0.15603124 -0.02983634 -0.0122314505 -0.11945811 0.017131425 0.030386163
0.22107007 0.33519602 0.09502503 0.16199246 -0.2609281 -0.06188585 -0.20266749 -0.6613764
-0.018867485 0.16439545 0.050075356 -0.27833372 -0.052878298 0.042631175 -0.019696826 -0.24362521
-0.29246023 -0.19106592 -0.02920245 0.017909661 0.06283759 -0.07895126 -0.03688257 -0.59909934
-0.004638104 0.14805157 0.007263083 -0.25583926 -0.7545521 -0.528714 -0.75710547 -0.5257101
0.10312122 0.020614654 -0.84834164 0.0077638305 -0.018223763 0.22699794 0.09459001 -0.14173701
-0.08672308 -0.28206873 0.06659938 -0.057282917 0.19258322 -0.040245157 0.21310644 0.9979494
0.015399054 0.8475926 0.13373892 0.09253516 -0.0767064 -0.046458866 -0.007448032 0.10341928
-0.0075082155 -0.0012607388 -0.010010797 0.46385783 -0.3108384 -0.235167 -0.10616282 0.030527486
-0.016787624 -0.015990222 -0.1618325 -0.10484606 -0.21242698 0.042559303 0.10738431 0.14506276
0.041682202 0.22683372 0.037090994 -0.043144416 -0.09886324 0.8148095 0.26063806 0.10548751
0.31243968 0.14678946 -0.020527964 -0.08744495 0.14605898 -0.03230544 0.12014065 -0.027560748
-0.01592797 -0.04983017 0.10103774 0.05885484 0.08214338 -0.15064555 0.06814472 -0.02630467
-0.001555723 -0.13492212 0.31940764 0.0023859423 0.8994645 0.8747315 -0.18881574 -0.18200035
-0.055851202 0.0063041504 0.43364298 0.4310517 0.6255308 0.44662145 0.029200312 0.020402199
0.07575021 0.12691939 0.083714366 -0.038896844 -0.36181366 -0.6821726 -0.46517318 -0.6440094
-0.17879097 0.075308666 -0.11507478 -0.14380965 -0.116988175 0.13036127 -0.0071462663 0.19329454
-0.45737967 0.06357552 0.032280978 0.04958851 -0.078907 -0.33089373 -0.14208958 0.08087913
0.032682914 -0.097080596 0.44191244 -0.027973002 0.3089755 0.14975007 0.007488762 0.1708937
0.069967516 0.0774711 -0.2354661 -0.6341893 -0.16886702 0.4976282 -0.11354509 -0.13760528
-0.087495245 0.18070123 0.044882685 0.008607166 0.17194869 0.012219775 -0.02355483 -0.046591103

features.0.bias f4 [128]
00000000: 622a c7bd fd56 eebd 3053 60bd 3e02 2cbc
00000010: b82f e3bd ea26 ea3d 4d06 3c3d f340 83bc
00000020: 1ece 813d 7c46 b63d 1fff 0fbc 81e6 b9bd
00000030: 0b65 273d bcf9 5dbd 111e 9fbd 903e 2abd
00000040: c047 db3d 92f7 bbbc 0473 a7bd 58ec 143d
00000050: 22ac 9a3d d7f8 df3d 9cd2 2cbd ab4a e9bd
00000060: 0b1a 863d 2475 88bd ef7a 24bd 80cf e0bc
00000070: 1af1 8dbd ff7d 823c aa3c a1bd a65f 9ebd
00000080: 1855 dabd d631 a1bd fb8a 4dbd ae08 07bb
00000090: ebff d9bc 9f5d d93d 9e61 e9bd 4737 313d
000000a0: 3943 1cbd d252 c53a 9e7d cd3d 1bb7 373d
000000b0: 7039 0b3c bda7 99bd 5b36 073c 040f 1dbd
000000c0: 877a 563d 0d17 87bd ec63 843b 9bb3 f6bc
000000d0: ea63 113d 505e bcbd 1d0a 3fbd 7a97 ef3d
000000e0: 2f84 03bd 6f96 62bd 354b 53bd 4b35 5dbd
000000f0: cd5e 62bc 4dae 8fbd 80e8 9b3d 2bf1 77bd
00000100: 71a9 ce3d 776c acbc 7656 e13d 905f 0c3d
00000110: a0f7 013d 4271 5abd 2cc1 413d cfc3 2cbd
00000120: 2d04 0e3d d3cf 67bd c616 e33d 5714 a83d
00000130: 9694 8abd d865 e53c d7cf bfbc ed03 53bd
00000140: 697e 3f3d 587b 8e3d 1826 20bd eba4 bbbd
00000150: bcf5 72bd 55f8 1abc 58f7 c33d 2dab 323d
00000160: 8e5a c4bd 44f9 ccbd 06da 8c3c 54b4 98bd
00000170: 01b2 0a3c e852 edbd 5267 ae3d a943 eebd
00000180: bc6d 30bd 50cd d8bd 60eb c93d c9f9 063d
00000190: 8f2e 993d c46f 523c 8f41 9f3d 3ebc 9bbd
000001a0: cf94 40bd e855 8bbd d2f3 bcbc 8279 f23c
000001b0: 1a39 81bd 4dbd e0bb 42db d33d ca51 863d
000001c0: 23a3 c7bc 2d18 2cbd 1a8c 00bd 0c7e 87bd
000001d0: 0e96 0bbd 6119 e43d 1fc7 8d3d fa7e 44ba
000001e0: 2231 953c f0e6 803d 7d31 103d d54c 1abd
000001f0: a9a1 e8bc 21da b1bd c38f 94bd 8b31 873c
-0.09724881 -0.116376854 -0.054766834 -0.010498581 -0.11093086 0.114332035 0.045904446 -0.016022181
0.06338142 0.089001626 -0.008788853 -0.09077168 0.040867846 -0.054193243 -0.077694066 -0.04156357
0.107070446 -0.0229452 -0.08176234 0.036358207 0.07552363 0.10936134 -0.04219304 -0.11391195
0.06547936 -0.06662968 -0.0401563 -0.027442694 -0.06930752 0.01592922 -0.07872899 -0.07733087
-0.106607616 -0.078708336 -0.05018137 -0.0020604539 -0.026611289 0.1061356 -0.11395572 0.043265607
-0.038150046 0.001505459 0.10033725 0.044852357 0.008497581 -0.07502697 0.008252705 -0.0383444
0.052362945 -0.065961935 0.004040232 -0.03011494 0.035495676 -0.09197676 -0.046640504 0.11698814
-0.032108482 -0.055319246 -0.051585395 -0.054005902 -0.013816548 -0.07015667 0.07612705 -0.06053273
0.10090912 -0.021047814 0.11002819 0.034270823 0.031730294 -0.053330667 0.047303364 -0.042178925
0.03467195 -0.05659468 0.11088328 0.082070045 -0.06766622 0.028002664 -0.023414535 -0.051517416
0.046751413 0.0695712 -0.03909883 -0.09162315 -0.05931638 -0.009458621 0.095686615 0.043620277
-0.095875844 -0.10008481 0.017193805 -0.0745627 0.008465291 -0.11588079 0.085158005 -0.11633999
-0.0430734 -0.10586035 0.09859347 0.032953057 0.074795835 0.01284403 0.07776176 -0.07604264
-0.047016915 -0.06803495 -0.023065481 0.029598955 -0.063097194 -0.006858504 0.103445545 0.06558569
-0.024369782 -0.042015243 -0.03138361 -0.066158384 -0.03407865 0.11137653 0.06922745 -0.00074957276
0.018211905 0.06294048 0.035203446 -0.03767093 -0.028397398 -0.08684183 -0.07253983 0.016503116

features.1.weight f4 [128]
00000000: c44e 6c3f f5d2 823f 4ca5 883f 55e5 793f
00000010: 18c5 863f e150 623f 1b2f 8a3f 74be 623f
00000020: 66fd 8f3f 00b8 673f d64e 6e3f 0c03 933f
00000030: 30f1 5f3f e081 7b3f d2a3 933f 3a2e 743f
00000040: 44a2 983f 3d19 803f c104 783f f651 d33f
00000050: e3da 943f bbdb 693f 4af7 5a3f c500 833f
00000060: 04f7 613f 171c 7d3f 038b 5c3f 223f 723f
00000070: 9dd7 833f cceb 913f e38b 973f 4b3d 843f
00000080: 6866 9c3f 53dc 813f 6fa8 783f 0624 993f
00000090: a71f 833f 210f 933f cefc 8b3f 5364 773f
000000a0: 2d56 8f3f d436 a93f 0124 a33f fe71 803f
000000b0: f60e 863f 137b 713f f26a a43f e5de 753f
000000c0: f1aa 713f c478 7f3f 5973 8e3f 80dc 6e3f
000000d0: f913 5b3f e3b1 8d3f 8459 783f e0ca 853f
000000e0: 24d6 6f3f ebf1 953f 407e 6e3f b821 843f
000000f0: 52dc 993f 444b 563f 1f4f 7d3f 4336 983f
00000100: fcef 763f 791d 943f f5f4 9e3f 415a 5f3f
00000110: 8a6d 773f ac97 873f 48cd 9d3f b715 7a3f
00000120: d08c 673f efc9 803f ffb9 833f 3488 723f
00000130: 2250 733f d161 6c3f 0dd5 7b3f 0b35 863f
00000140: 3a44 8b3f 357c 883f d4f0 7c3f 7bc1 783f
00000150: 2ab7 af3f 375f 703f 05c2 693f 98d2 633f
00000160: 33b9 7e3f 5b88 a43f 68da 8f3f 17d5 773f
00000170: 567b 853f 439a 6f3f 72a4 8a3f 73ec 5e3f
00000180: 6ac9 8f3f ea31 6c3f cb11 8a3f e50f 7b3f
00000190: 1c56 a23f 102c 723f d48b 763f 0e6c 823f
000001a0: 982a 703f 94d2 8e3f 1255 673f 6f6d 9d3f
000001b0: eed3 903f 89a0 733f 6907 db3f f8bc 793f
000001c0: b752 853f f05b 813f 7e3a 863f 0c94 5c3f
000001d0: 634e 6a3f 80b2 843f 5681 833f 73af 563f
000001e0: 754c 7b3f e58d 6a3f 1fbe 9e3f 74bc 603f
000001f0: ab74 963f 90d7 6a3f 53b2 7e3f 4086 813f
0.92307687 1.0220629 1.0675445 0.9761556 1.0528898 0.8840466 1.0795625 0.8857186
1.1249206 0.90515137 0.93089044 1.1485305 0.874774 0.9824505 1.1534369 0.95383036
1.192452 1.0007702 0.96882254 1.6509387 1.1629299 0.9135091 0.85533583 1.023461
0.8826754 0.98870987 0.86149615 0.94627583 1.0300175 1.1400084 1.1839565 1.0331205
1.2218752 1.0145363 0.9713201 1.1964118 1.0244035 1.1488992 1.0936525 0.9663746
1.1198174 1.3219857 1.2745363 1.0034788 1.0473316 0.9432842 1.2845137 0.96043235
0.9440146 0.9979365 1.1128951 0.93305206 0.8557735 1.1069912 0.9701159 1.0452538
0.9368613 1.1714453 0.9316139 1.032279 1.2020361 0.83708596 0.98948854 1.1891559
0.9645994 1.1571494 1.2418505 0.8724709 0.9665152 1.0593162 1.2328272 0.97689384
0.9044924 1.0061625 1.0291137 0.9473908 0.9504415 0.92336756 0.98371965 1.0484937
1.0880196 1.0662905 0.98804975 0.9717023 1.3727772 0.93895286 0.91311675 0.88993216
0.9950134 1.2854112 1.1238527 0.96809524 1.0428264 0.9359476 1.0831435 0.8707954
1.1233342 0.9226366 1.078668 0.9807113 1.2682528 0.94598484 0.9630711 1.0189226
0.9381499 1.1158013 0.9036418 1.2299021 1.1314676 0.9516683 1.7111636 0.9755397
1.0415868 1.0106182 1.04866 0.861634 0.9152586 1.0366974 1.0273845 0.83861464
0.9816354 0.91622764 1.240177 0.87787557 1.1754354 0.9173517 0.9949085 1.0119095

features.1.bias f4 [128]
00000000: 0dfc 76bd 80b7 423d d469 3f3d 1558 19be
00000010: 9e68 3abc 9de9 2e3b cb6d 5abb a521 b3bd
00000020: e9aa 1cbe 636c aebd 2c60 cabd 03ae c8bc
00000030: 5a3d 64bd f115 d83d 96b6 fbbd aac4 aebd
00000040: 10ca c0bd 199f 15bc eb8e 96bd 87b6 2ebd
00000050: 2740 91bd 0199 d5bc dfed 13be 9bfc c0bd
00000060: 4be2 fcbd 55df f9bd 07f5 acbd 30d5 183c
00000070: 5476 3cbc 9850 50bc 08e6 98bd b68b cabd
00000080: 82f2 6bbd bd2b 6e3c 76a3 fa3c a686 013d
00000090: 8f3f eebc cf36 04be 0fe9 babd 7f7e c6bd
000000a0: 77aa 4fbc b695 0b3e 599d cfbd 3a15 d9bd
000000b0: ed82 21bc 0e21 3bbe f1f9 a33d b949 f7bd
000000c0: bc57 783c 012d 7b3b 643e 6abe f110 84bd
000000d0: 5f53 d8bd 7e3f 10bd 5ad3 8fbc c928 fc3a
000000e0: 8821 e1bc c3ac 1dbe b0c9 7abd f806 56bd
000000f0: 4650 cebb 98fd 813d 402d 62bd b8f8 8e3b
00000100: 3f07 81bd 2bb1 44be 667a 14bd 9f1f 30bd
00000110: 61e2 7bbd 0e1a 1abe 814c 35bc a02c a03d
00000120: 8d49 50be 937b dbbd d246 993c 0605 c8bd
00000130: edc0 50b9 e5fb 2cbe 3e42 05bd 3d6a 74bd
00000140: d6b0 73bd 3610 a8bd 37b9 7dbd 08b1 b5bd
00000150: bc3e 18be ad8a c3bd 1e8c 97bd 3fe9 f2bd
00000160: 834f 2dbe c8d4 69be bacc e33d 88a6 e83c
00000170: 2347 d0bd 86a2 12bd 21ee 303d b147 963a
00000180: 921f 97bd 89cf f7bd 3a75 88bd 4e3f dcbc
00000190: 6cf2 4a3d 3c39 e93d c272 93bd 76bb 39be
000001a0: 41cc c9bd bc35 203d ae04 0fbe 2b4f aabd
000001b0: 9377 23bc 8789 26bd 77e1 34be d0f5 45bd
000001c0: 9299 2f3d 7ff3 7cbe cf9e a4bc 215d dbbd
000001d0: 929e 27be 54a3 6b3c 3f6a 4a3d c5c8 38be
000001e0: 2ea2 59bd e5bb 4cbe ae16 67be d38a a83c
000001f0: 9d0c 9abd a0be fabd 46f1 08bd 30ee 4cbe
-0.060298968 0.04753828 0.046731785 -0.14975007 -0.011377482 0.0026689537 -0.0033329602 -0.087466516
-0.15299572 -0.08516767 -0.098816246 -0.024497038 -0.055722572 0.1055106 -0.12290685 -0.085336044
-0.0941354 -0.00913217 -0.07351478 -0.04265454 -0.07092314 -0.026073935 -0.1444621 -0.09423181
-0.123478495 -0.122008 -0.08445173 0.009328172 -0.011502821 -0.012714528 -0.0746575 -0.09889929
-0.05760432 0.014536795 0.030595522 0.03162255 -0.029083041 -0.12911533 -0.09126484 -0.09692096
-0.012674919 0.13631329 -0.101374336 -0.10599752 -0.009857875 -0.18274328 0.08006657 -0.12074608
0.015157636 0.0038326385 -0.22875363 -0.06448544 -0.10562777 -0.0352168 -0.017556835 0.0019238229
-0.02748181 -0.15397935 -0.0612275 -0.05225274 -0.0062961904 0.06347197 -0.055218935 0.0043631457
-0.0630021 -0.19208209 -0.03624954 -0.042998906 -0.06149519 -0.15049002 -0.011065603 0.078210115
-0.20340557 -0.10716929 0.018710528 -0.09766583 -0.00019908296 -0.16892965 -0.032533877 -0.05967163
-0.059494816 -0.08206217 -0.061944213 -0.08871657 -0.14867681 -0.09547935 -0.07399772 -0.118608944
-0.16924863 -0.22835076 0.11123033 0.02839972 -0.10169818 -0.035799526 0.043195847 0.0011465458
-0.073790684 -0.12100131 -0.06662984 -0.026885655 0.049547598 0.1138787 -0.07199623 -0.18137917
-0.098534115 0.039113745 -0.13966629 -0.08315881 -0.009977239 -0.0406585 -0.17664133 -0.04833013
0.042871065 -0.24702261 -0.020095257 -0.10711122 -0.16369084 0.014382202 0.04941773 -0.18045337
-0.053133182 -0.19993551 -0.22567245 0.020574009 -0.07521937 -0.1224339 -0.03343322 -0.20012736

features.1.running_mean f4 [128]
00000000: 30b4 ed3a cc81 a9bf 7441 1e3f 63d0 58bf
00000010: 6fa6 013e 77b2 bcbe e133 753e 65b9 db3e
00000020: 0641 3a3e 01cf 763d 188b 1b3e b3c6 a63c
00000030: 0973 0a3c 11fc 733e 65e7 aebe dc21 b2bc
00000040: f861 eabe 30a7 98bd e00c 223e 93e1 3abe
00000050: 511d 29bf 4548 7a3e ebb4 dabd b587 84bd
00000060: e9ed 8e3e 5e6b c5bd 6e57 c1be 9575 583e
00000070: 6a50 8f3e cf97 173f de67 323f 3112 1bbe
00000080: 1800 b0bf ac65 a3be 43ea acbf d570 713f
00000090: 1867 5cbd 4421 3fbc ef79 ccbd 3747 55bf
000000a0: 792c 03bf 8c9f 723e d9ae 8a3f 05e9 99be
000000b0: 8324 283e ddf2 c93d ba60 78be 1a29 28bf
000000c0: d885 8bbf da6c d93c 495a b4bf 4cff aabd
000000d0: 92cd 463e 8fb3 9cbe b5cf 24bf 9fcc fe3d
000000e0: 4364 dc3e 1356 ec3e 2d86 343e 84b9 20be
000000f0: 12e1 76bb 1e32 4abe 3d7a 463e b9fd b8bf
00000100: 1c37 9c3e 46c3 18be c732 dabf 7a83 11bf
00000110: 821f acbe 20f6 003f ec7a b2bf cd2f dd3e
00000120: 6375 03bf 29b2 433d e0ba c83e f3b9 75be
00000130: f873 8c3e 9629 05bf d7a0 04be c7ba 9abf
00000140: 107f 9ebf 4797 48be aec8 82bf b391 b2be
00000150: b850 1dbf ee17 a4bc 3a1d a8be 2256 14bf
00000160: afbc c7be b28b cdbd b9f2 403f 6d1c d43e
00000170: d94c a5bf feb2 f23d 19cd c83f 385c 633e
00000180: 5a10 bdbe a27e 43bf dcdc 7e3e e7ba a03e
00000190: 8ab9 7abe db24 0d3f 1c76 43bf 2159 18be
000001a0: 21b7 54bf 6921 033c be5c 97bf b1c3 ffbe
000001b0: 0dba 693f 9031 82bf b685 a6bf 911c d83e
000001c0: e51b 9dbf e1ed a2bf 841e 23bf 8da0 04be
000001d0: c1a8 133f ffa1 1f3f 591a 88be 295c 14be
000001e0: 9ab8 a2bf 6b4e f4bd 9299 4dbf e3cb 7fbf
000001f0: 329a 55bf 6aa7 363d 3877 70be 7191 f3be
0.0018135365 -1.3242736 0.61818624 -0.8469297 0.12661146 -0.36854908 0.23945571 0.42914882
0.18188867 0.060256008 0.15189779 0.020358419 0.008450278 0.23826624 -0.34160915 -0.021744661
-0.4577787 -0.074537635 0.15825224 -0.18250112 -0.6606036 0.24441631 -0.106790386 -0.064711966
0.27915886 -0.09639619 -0.37762016 0.21138604 0.2799104 0.59216017 0.6968974 -0.15143658
-1.3750029 -0.31913507 -1.3508991 0.94312793 -0.053809255 -0.011665646 -0.099841945 -0.8331179
-0.51239735 0.23693675 1.0834609 -0.30060592 0.16420178 0.098607756 -0.24255648 -0.65687716
-1.0900221 0.026541162 -1.4090053 -0.08349475 0.19414356 -0.30605742 -0.64379436 0.12441372
0.43045244 0.4615942 0.17629309 -0.15695769 -0.0037670773 -0.1974568 0.19382568 -1.445243
0.30510795 -0.14918241 -1.7046746 -0.5684124 -0.3361779 0.50375557 -1.3943763 0.43200532
-0.5135099 0.04777733 0.39205074 -0.23996715 0.27432227 -0.5201658 -0.1295198 -1.208825
-1.2382526 -0.19588958 -1.0217493 -0.34876785 -0.6145129 -0.020030942 -0.32834798 -0.5794393
-0.39011142 -0.100364104 0.75370365 0.41427937 -1.2914077 0.11850546 1.5687591 0.22203147
-0.36926538 -0.763651 0.24888939 0.31392595 -0.2448484 0.5513436 -0.76352096 -0.1487775
-0.8309193 0.008003571 -1.1825178 -0.49953988 0.91299516 -1.0171375 -1.3009555 0.42209294
-1.2274138 -1.2728845 -0.6371844 -0.1295187 0.57679373 0.6235656 -0.26582602 -0.14488281
-1.2712586 -0.119290195 -0.80312455 -0.9992048 -0.8343841 0.044593252 -0.23482978 -0.475719

features.1.running_var f4 [128]
00000000: a4b3 883d 5530 aa3d ce34 783c bfb2 123d
00000010: 2e8f 3b3d 7645 853d d9ef 983c 39aa 4f3d
00000020: 9471 b43c ca2d c23d 0639 303d 7894 713d
00000030: 2acb 7b3d 4bca 533c bed5 4a3c ea4a 353d
00000040: d590 5b3c 68db a43d 123a 653d 0ff8 4e3d
00000050: 2763 ac3b b63d 8a3c 2001 2a3d efcf 8f3c
00000060: f85a 1d3d 890f d03c 9fdd de3c 7c82 fb3d
00000070: 1df1 733d 70ac b33c 215d 653c 2b11 163e
00000080: c3bc 9f3d 9389 5c3d 3a2a 543d 659a ee3b
00000090: 3b61 003d f7f7 393d e1e2 443d af52 833d
000000a0: 6292 a63c 6ea5 b03c 89ce bd3c 4a55 173e
000000b0: 5255 e63c 8db2 3f3d 9572 2c3d 5267 713d
000000c0: 4478 fd3d 3310 233c dd26 0f3d e825 503c
000000d0: e023 933d 8d18 5d3d 577e 823d c9fa 793d
000000e0: 0258 cf3c a6cf 533c 4830 a13d 8f7f d03d
000000f0: bddd a63c 49a0 a33d 624d 123d bd52 4c3d
00000100: 5251 9a3d 9ab1 863c 0e34 d83b 2b0f 783d
00000110: 0fb3 7e3c 5e6e 1b3c 6ebf df3c 0bd4 c03c
00000120: 838a c83d 6c5d 203c 4388 b53d 7189 1f3d
00000130: c6a3 403e 7075 e93d 9e71 bb3d 1927 813c
00000140: 139c 303d cc51 163c ab04 323d 3ba2 b83d
00000150: ccf1 a13c a792 6a3d e0bb cd3d 35fc 163d
00000160: d6c5 f43d e00d 353c fd13 123e a298 173d
00000170: 0f4c 483d 0158 d33d d7fb b03c 332b 083e
00000180: 0588 f53c acbc 613d 423d 453c 732c 783d
00000190: f3e5 f93c da33 a23c b02b dc3c 45b3 593d
000001a0: 9a98 f23c 946c 993d 0b05 2e3d fe5d 123c
000001b0: 4ecf 953c abc1 853d a2bf 2b3b db77 a33c
000001c0: 45af 353d 6c98 323d f246 b73c 2b82 003d
000001d0: e19b d73c 4283 c43c 0703 423d cd2a 2b3d
000001e0: 6a2c 823d 991b b83d f728 6f3c b132 ab3d
000001f0: 646f 313d 9321 2f3d 7c24 e43d 13c5 f33c
0.06674889 0.0831 0.015149308 0.035814997 0.045790844 0.06507389 0.018669056 0.050699446
0.022026815 0.0948139 0.04302313 0.05897948 0.06147305 0.012926648 0.012380062 0.044260897
0.01340123 0.08049661 0.055963583 0.050529536 0.0052608433 0.01687513 0.04150498 0.017555205
0.038416833 0.025398033 0.027205287 0.12280747 0.059556115 0.02193281 0.013999254 0.14654987
0.07799675 0.05384214 0.051798083 0.007281589 0.031342726 0.045402493 0.04806793 0.06412255
0.020333473 0.021563258 0.023169773 0.14778629 0.028116856 0.04680114 0.04210146 0.058936425
0.123764545 0.009952593 0.034949172 0.01270435 0.07184577 0.05397849 0.06371754 0.061030183
0.02531052 0.012927925 0.07870537 0.1018058 0.020369405 0.07989556 0.03571833 0.049883593
0.07535042 0.016442109 0.0065980023 0.06056134 0.015545621 0.009486763 0.02731296 0.02353861
0.09792044 0.0097878985 0.088638805 0.038949434 0.18812475 0.113993526 0.0915253 0.015765714
0.043117594 0.009174775 0.043461483 0.09015318 0.019768618 0.057268765 0.100456 0.036861617
0.11951797 0.011050671 0.14265437 0.037010796 0.04890066 0.1031952 0.021604462 0.13297729
0.029972086 0.055111572 0.012038531 0.060589265 0.030505156 0.019800115 0.0268763 0.05314948
0.029613782 0.07491413 0.042485278 0.008933542 0.018287327 0.0653108 0.0026206751 0.019954612
0.044356603 0.043602392 0.022372697 0.031374138 0.026319446 0.02398837 0.04736617 0.041788865
0.063561276 0.08989639 0.014597169 0.08359278 0.04331912 0.04275663 0.11139771 0.029757058

features.3.weight f4 [64, 128]
00000000: bbae c43b 84c8 313e fd0d e4bd 1bf2 373b
00000010: f798 e1bd f6dd a53d 43f9 8cb9 d671 503d
00000020: 9cdd e1bd 948f 01bd 01e2 1abd edb6 abbd
00000030: 0424 023d ff15 94bd bfef 8d3c 35ec 31ba
00000040: 9b90 d8bd f2bd a63d 7dc0 bfbd 9268 e63c
00000050: f1bc 84bd e02a 00bd 7e60 46bd 456f a03d
00000060: 9fcd 23bd f2c6 3439 91df af3d ec05 943c
00000070: 0494 443d f1db 3ebe 7179 1bbe cbe7 643d
00000080: f0bf a4bd e36f d13d cfb7 723d cdfd 51be
00000090: 8f51 a23c 9f4c bebd 934c 0bbe cd99 083e
000000a0: 4c62 153e c37b 0dbe 0bda d3bc cc3a d03d
000000b0: 0139 913d a515 42bc 3339 1dbe c474 7d3d
000000c0: df6a 26bd 2ba5 b2bd 4b04 f4bd 76a1 e7bb
000000d0: d3d7 903c a4b3 ebbd 02ea 093e 8c9a 003d
000000e0: b3f3 a8bd e003 c2bd b0c0 cfbd 6dc6 2abd
000000f0: 95b3 173d 77bb 95bc eff0 d33c 0573 193d
00000100: e4b5 9e3d 8333 a93c 4e46 213d 4fec c13d
00000110: 8fbc d03c 603c 0e3b cca6 ddbc 0ba0 90bc
00000120: 9958 afbc c31b 92bd 3a5a ebbd 25f1 e13d
00000130: a55a 983c 90bc e53c bcaa d33d 6f35 5a3d
00000140: 7b77 a63d 409c fdbd 4129 883d 3f02 b93d
00000150: bc3a 0fbd fa64 63bc a171 06bc 55bb 093e
00000160: 26dd d4bd 2f15 af3d 07c9 5ebd 4761 17bd
00000170: 8ba4 d63d 49af af3c c355 2dbe 609c 2cbd
00000180: 2020 e9bd f837 b33c 2a20 d63d 0caf 67bc
00000190: d3e5 ba3d 49ee cdbd c0a4 113e 41ea c4bd
000001a0: ca3a 003d 016b dc3c 9c12 bebc c00b 91bd
000001b0: 6ba8 133e 45cf d03d 9d22 91be 79d9 943c
000001c0: ada7 9e3d e2eb b6bc 4ec3 80bd a1f5 a93d
000001d0: 8123 2abd 7cec fabd b164 04be 641c f5ba
000001e0: e00b e03c 476b 0f3e 3fd3 a4bc 5bf8 f83d
000001f0: 3999 4dbc 94c8 b33d 3f58 253d dd51 ae3c
00000200: 15ef 823d ab8c 0abe 9e47 08bd 5707 2fbd
00000210: c8fc 213d 8042 393d 99f4 5cbd efe3 d3bd
00000220: 5b16 3abd 80ad 05be f607 f53c 86b8 10bd
00000230: 35c5 fbbd b67e 6d3d dcdb 7c3d 66d6 0fbe
00000240: a2f6 a33d c224 7fbc 3e0e 88bc 77e2 f43d
00000250: c974 883d e190 903c 71a8 7d3b 3db4 b2bd
00000260: 24f5 983d 5166 ad3d 31e4 06be 105d ae3d
00000270: 4681 923c c500 433e c2c7 c13c 9b81 8fbd
00000280: bdbf 2f3d 116a ffbd ba5f cebd ff3b 063e
00000290: 8404 0abc a90e d5bd 03ac b73c 07e1 47bd
000002a0: 28b7 d93d 7d45 913d a79c 393e 77bd 1bbe
000002b0: 3c4c 2abe 3309 72bc db6a 73bc 8917 c9bd
000002c0: 627c ffbc 01e3 a13c 7245 3e3d a576 f6bd
000002d0: b36c c73d 58ea c1bd 9d44 c9bd f48e 69bd
000002e0: c47c 873b 0431 ab3c 9eea 893d 88f0 b23c
000002f0: 8d35 d4bd 77ae 9bbc 683c 0abe d431 a5be
00000300: e100 7ebd 9b67 7abe 5c5d 373c 9df2 2abe
00000310: 7b7d 9abd c488 ad3d 0efb bc3d 6030 b73c
00000320: 5c87 aebd fdfe 543c 0b30 75bc 4c52 34bc
00000330: a338 e5bc a8cc 54bd 9baf 88bd 09b3 853c
00000340: 7797 a43d fb29 f53c aa1c c5bd 5d40 d1bd
00000350: 93a3 523d 7343 30be bb80 973d 4714 18be
00000360: 8687 a1bd dc12 30bd 3234 43be 2b79 7f3d
00000370: f7fd 2dbe ee3d d3bd c8a0 50bc c57e fc3d
00000380: 7253 9d3c c5a2 2bbd a0b3 86be 95da 4fbd
00000390: c129 48bc e427 df3d 9b87 983d bec6 193e
000003a0: c046 ecbc 3e01 f53c c185 fcbd 190c 3d3d
000003b0: 90a3 2abe 46fd 47bd 0f7a 333d 3732 c0bb
000003c0: d672 19bd 5be2 783d 3427 52bc 491e d1bc
000003d0: 79b9 3ebb b2f7 483e df94 f2bd 7c3d 22be
000003e0: 44c6 333e f2a8 4b3d a7a0 9b3d 696c 93bd
000003f0: 6e36 9bbd 73b3 35bd 7ed0 7fbd d785 7c3d
0.006002275 0.17361647 -0.111354806 0.002806789 -0.11015504 0.08098976 -0.00026888595 0.050889812
-0.11028597 -0.031631067 -0.03781319 -0.083845 0.03177263 -0.07230758 0.017326234 -0.0006787212
-0.10574456 0.08141698 -0.09362886 0.028126035 -0.0648135 -0.03129089 -0.048431866 0.07833723
-0.039991017 0.0001724025 0.08587564 0.01806923 0.04799272 -0.18638588 -0.15183045 0.055885118
-0.08044422 0.10226419 0.059257325 -0.20506974 0.01981428 -0.09291958 -0.1360343 0.1333992
0.14588279 -0.13816743 -0.025860807 0.101674646 0.07090951 -0.011845981 -0.15353851 0.061878935
-0.040629264 -0.087229095 -0.11914881 -0.007068808 0.017681038 -0.11508873 0.13468173 0.031397387
-0.08249607 -0.09473395 -0.10144174 -0.04169314 0.037036497 -0.018277867 0.025871722 0.037463207
0.07749537 0.020654446 0.03937369 0.094689004 0.025480537 0.0021703467 -0.027057074 -0.01765444
-0.021404551 -0.071342014 -0.11491819 0.11032323 0.01859791 0.028044015 0.103352994 0.053273614
0.08128258 -0.12383318 0.066484936 0.090336315 -0.034968123 -0.013879055 -0.008205802 0.13450368
-0.10393743 0.08548962 -0.054390933 -0.036958005 0.10480603 0.021445887 -0.16927247 -0.04214132
-0.113830805 0.021877274 0.104553536 -0.0141408555 0.09125867 -0.10055215 0.14223003 -0.09614993
0.031306066 0.026906492 -0.023202233 -0.07082319 0.14419715 0.101957835 -0.2834672 0.018170105
0.07746825 -0.022329275 -0.062872514 0.08298803 -0.041537765 -0.12252137 -0.12929036 -0.0018700478
0.027349412 0.14005767 -0.020120261 0.12156745 -0.012548738 0.087784916 0.04036736 0.02127927
0.063932575 -0.13530223 -0.033271424 -0.04273161 0.03954771 0.045229435 -0.053944204 -0.10346209
-0.045431476 -0.13054466 0.029911023 -0.035332225 -0.12293474 0.05798217 0.06173311 -0.1404663
0.08006026 -0.015572729 -0.016608354 0.11957257 0.066629 0.017647209 0.0038705135 -0.08725784
0.07468632 0.08466781 -0.13172986 0.08513844 0.017883908 0.19043262 0.023654822 -0.07007142
0.042907465 -0.124714024 -0.10076852 0.13108824 -0.008423928 -0.10403187 0.022420889 -0.048798587
0.106306374 0.07093332 0.18126164 -0.15208994 -0.16630644 -0.014772701 -0.014857019 -0.09818942
-0.03118724 0.019761564 0.046452947 -0.120343484 0.097375296 -0.09468526 -0.0982754 -0.057021096
0.0041347463 0.020897396 0.06734203 0.02184321 -0.103617765 -0.01900409 -0.13499606 -0.32264578
-0.062012557 -0.24453585 0.011191692 -0.16694112 -0.07543465 0.084733516 0.092275724 0.022361934
-0.085219115 0.013000247 -0.014965068 -0.011005949 -0.027981108 -0.051952988 -0.06674119 0.016320722
0.08036702 0.029927244 -0.09624608 -0.102173544 0.051425528 -0.1721323 0.073976 -0.14851485
-0.07887177 -0.042986736 -0.1906288 0.062371414 -0.16991411 -0.103145465 -0.012733646 0.12328867
0.019204829 -0.041903276 -0.26308918 -0.050745565 -0.012216986 0.108962804 0.0744774 0.1501722
-0.02884233 0.029907819 -0.12330199 0.046154115 -0.16663957 -0.048825525 0.043817576 -0.005865361
-0.03746303 0.060762744 -0.01282673 -0.025527136 -0.002910225 0.19625738 -0.11844801 -0.15843767
0.17556101 0.049721666 0.075990014 -0.07198412 -0.07578741 -0.04436059 -0.062454693 0.061651077

features.3.bias f4 [64]
00000000: d5ea 03bd a73d 3ebd a898 993c f4bb a13d
00000010: 4f28 843d 6de1 523d 24b1 63bd 98f7 debc
00000020: 62dd 533d 5675 043d f427 4fbc d3b5 9cbd
00000030: e16e 05bd 8d1e ab3d d10f 2dbd ed6e 6f3c
00000040: 22f0 a2bd 3291 9bbb 7f55 45bd 0cd9 5f3b
00000050: 6b8c f73c 909f 113c 0596 dfbb 3ec2 febc
00000060: d6ba 1b3d 6c5b 61bd 88f8 5cbd c544 803d
00000070: f097 9b3c 3914 00bc 8891 473c 433a 7e3d
00000080: 79f1 c13c d279 42bd 4e3a 68bd 9e81 933d
00000090: 0eba 923d 2ed3 12bc 2a1c 973b 9e3c 723c
000000a0: 40dc 67bc c25b 88bd c635 0e3b a529 2d3d
000000b0: d76e 7ebc ca6a 853d 6f87 2d3c 443b 91bd
000000c0: f784 62bb a4b2 0d3d e4a7 663d c861 7e3d
000000d0: bb3f abbc 60d8 873d 4ae7 66bd 34a8 223d
000000e0: c9df 8bbd 41c5 bebb 0c3b 99bd 9962 d63b
000000f0: 9bff 33bd cc9e 0f3d 1902 5abd aaab 5b3d
-0.032206375 -0.046445515 0.01874955 0.07897177 0.06453001 0.051484514 -0.055588856 -0.027217671
0.0517248 0.032338463 -0.012643803 -0.07651868 -0.032576445 0.083554365 -0.04225141 0.014613849
-0.07955958 -0.0047475332 -0.04817724 0.003415647 0.030218324 0.00888814 -0.0068233036 -0.031098481
0.038019978 -0.055018827 -0.053947955 0.06263117 0.018993348 -0.007817321 0.012180693 0.06206728
0.023674713 -0.04747946 -0.05669623 0.07202457 0.07164393 -0.008961482 0.0046115117 0.01478496
-0.014151633 -0.066581264 0.0021699532 0.042276043 -0.015529356 0.06514509 0.010591372 -0.07091382
-0.0034564117 0.034594193 0.056312457 0.06210497 -0.020904412 0.06633067 -0.05637292 0.039711192
-0.06829793 -0.0058218543 -0.074819654 0.0065425155 -0.043944936 0.03506355 -0.053224657 0.05363051

features.4.weight f4 [64]
00000000: ca97 763f a4c7 663f d304 8a3f a039 6b3f
00000010: 249d 8a3f 4723 7e3f ee27 7c3f 66cd 823f
00000020: 7a3b 813f 8858 873f b1b1 693f ac36 8f3f
00000030: b911 823f 25b4 6c3f 4b8b 8a3f acaf 643f
00000040: 10d1 b33f 09c1 8a3f 4e25 893f b315 763f
00000050: bc93 5c3f fb2a 933f 8fcb 6f3f 49dd 7d3f
00000060: 11d7 633f 881b 7c3f 279f 703f 0c73 863f
00000070: 0ac8 5a3f 9c62 563f 61bb 823f dfa2 973f
00000080: b9a5 703f 3b8c 8f3f 9e97 8a3f 588a 723f
00000090: 5829 823f 8cd0 873f e079 563f 9f89 473f
000000a0: afa4 653f c8df 8e3f 2113 7d3f 760d 713f
000000b0: 51ff 833f 9901 883f a8c8 6f3f fe08 6c3f
000000c0: 2074 743f 8eb8 793f 8e74 883f b32b 883f
000000d0: 5798 833f 186c 943f 9ee4 8c3f e4ca 7d3f
000000e0: 9f9c 4d3f 785f 843f 0222 993f 370e 6f3f
000000f0: c872 843f 101f 853f 1713 6b3f 4444 993f
0.9632536 0.9014838 1.0782722 0.91884804 1.0829206 0.9927258 0.9849843 1.0218933
1.0096276 1.0573893 0.9128676 1.118856 1.0161659 0.9246238 1.0823759 0.89330554
1.4048176 1.084016 1.071451 0.9612686 0.86162925 1.1497492 0.9366998 0.9916578
0.8900004 0.9847951 0.9399285 1.050386 0.85461485 0.83744216 1.0213434 1.1846579
0.9400287 1.121467 1.082752 0.94742346 1.0168867 1.0610518 0.83779716 0.7794437
0.8970441 1.1162043 0.98857313 0.94161165 1.0312291 1.0625488 0.9366555 0.9220122
0.9548969 0.97547233 1.066057 1.0638336 1.0280865 1.1595488 1.1007268 0.9913771
0.8031711 1.0341635 1.1963503 0.93381065 1.0347528 1.0400105 0.91826004 1.1973958

features.4.bias f4 [64]
00000000: 21d5 f8bd 844f bd3b 7d14 75bd 0010 f5bd
00000010: 7bee cabd ae67 0ebd d470 14be 7d75 e1bd
00000020: d6cf 943b 0385 e13b 4029 82bd d850 2fbe
00000030: 83cc ccbc cb83 6cbe ee1c 2cbd ca17 57be
00000040: 1a14 26be 36d6 0dbe ce99 06bd d0aa 363b
00000050: 1a42 43be c6be f7bd d945 9fbd 0efb 43be
00000060: f6e6 c7bd bd13 0fbd 6e99 03be f629 0abe
00000070: 505c debd 8712 afbd 0828 b2bd ee1e d8bb
00000080: aa6b 89bd 3b27 4dbd f4aa d9bd 016a 6abd
00000090: e19b 28be 0157 d2bd a931 56be c099 d1bd
000000a0: f5e1 ebbc 0b76 ae3c fead d0bb 67d7 8f3d
000000b0: 8b70 293d 00b0 08bd 8e46 6abe 6dfb 26be
000000c0: 7bab bbbd 9832 da3d c5a8 733c 63ae 19be
000000d0: 4367 b83a c2d8 55be 1dd8 4abe a391 5cbe
000000e0: f59d 37be 1672 81bd fcfe 19be 9776 5ebe
000000f0: 566a 9fbd 2d39 41be 7b61 6cbd 11f7 a7be
-0.12150026 0.0057773013 -0.059833992 -0.119659424 -0.09908768 -0.034766845 -0.14496166 -0.11008737
0.0045413775 0.0068823113 -0.06355524 -0.17120683 -0.024999863 -0.2309715 -0.042019777 -0.21005169
-0.16218606 -0.13851246 -0.032861523 0.0027872808 -0.19068184 -0.12096934 -0.07776994 -0.19138739
-0.09760849 -0.034930933 -0.12851498 -0.1349257 -0.10857451 -0.08548456 -0.086990416 -0.006595484
-0.067099884 -0.05008624 -0.1062831 -0.05723 -0.16465713 -0.10270501 -0.20917381 -0.102344036
-0.028794268 0.021296522 -0.0063683977 0.070235066 0.041367095 -0.03337097 -0.22878477 -0.16306849
-0.09163567 0.10654181 0.014871781 -0.1500793 0.001406886 -0.20883468 -0.19809003 -0.21539931
-0.1793135 -0.06320588 -0.15038675 -0.21724926 -0.07783954 -0.18869467 -0.057710152 -0.32805684

features.4.running_mean f4 [64]
00000000: 2177 d0be d872 f3be df61 f43d 5af7 4f3e
00000010: f1ef 173f 18f5 43be 336b f83d 7fe7 e5bd
00000020: f207 783e 47d5 733e eaa1 d0bd 9ea3 debe
00000030: b031 d13e 4dea 0dbe d68f 7ebf 7b82 a1bd
00000040: 40cb cb3e b4b8 7d3e c33e 00be 4d3e acbd
00000050: 9f51 50bd c307 523f 3e77 103e b4df ba3e
00000060: d2f7 bb3d 9eeb 62be 98a2 81be 4c59 0b3f
00000070: 481f dc3e c0dc 8abd 6acc 293d f1dd 1c3e
00000080: 4684 613f 6932 29be aedd 8e3e 6df1 83bf
00000090: 79a5 d1be 2b55 873e d849 abbe bc11 7d3e
000000a0: 4735 60bf 8956 0d3f 2958 a7bf cd18 bb3e
000000b0: 1694 3bbe e3ac 9dbd ba02 1ebe f11f 263e
000000c0: 88c5 a13c 709e 2dbe 7ce4 1f3f 345e 883d
000000d0: bad1 0a3e 04ce b83e 9bc0 5e3f bddf f5bb
000000e0: a2e4 6bbe 8d1f 443c 0697 333f 17e2 10bf
000000f0: 2bc3 763e 4ce3 fabd 419e c1be 766a 0b3f
-0.40715888 -0.47548556 0.1193273 0.20309201 0.59350497 -0.19136465 0.12129822 -0.11225795
0.24221781 0.23811828 -0.10187133 -0.43484205 0.4085822 -0.1385891 -0.99438226 -0.07886215
0.39803505 0.2477749 -0.12523942 -0.084103204 -0.05085909 0.82043093 0.14107987 0.36498797
0.09178127 -0.22160193 -0.25319362 0.5443313 0.42992616 -0.06780386 0.04145471 0.15319039
0.8809246 -0.16523136 0.27903503 -1.0308052 -0.40946558 0.26432166 -0.33454776 0.24713796
-0.87581295 0.5521017 -1.3073779 0.3654236 -0.18318209 -0.07698991 -0.15430728 0.16223122
0.01974751 -0.1695497 0.62458014 0.06658593 0.13556567 0.36094677 0.8701264 -0.0075034783
-0.23036435 0.011970413 0.7015232 -0.56594986 0.24097888 -0.12250385 -0.3781605 0.5445932

features.4.running_var f4 [64]
00000000: 3529 323f 5c3e cf3e 5426 493f fa48 f93f
00000010: bf85 b83e 1a07 2840 22db 253f 2b16 0e40
00000020: 2a63 ee3f 327e 9f3e e604 243f 2787 1d3f
00000030: 6a03 773f 411c 1a40 2fdb c53e c93f 013f
00000040: 694c b13e feb5 0f3f 7d62 123f 3292 023f
00000050: 084b 5f40 0c86 ff3e cce8 bc3e a121 2b3f
00000060: d360 b13e 391a b33f 28ea d83f 6d5a 7a3f
00000070: 8209 0c40 a2b9 8340 e9b9 2a3f b7ee 503f
00000080: c4d8 f63f 08f5 553f 64da 6d3e 1335 8f3e
00000090: dfac 7f3e c12a 323f cc59 a83f 17ee cf3f
000000a0: d151 373f 8a6d 6e3f 92c7 f43f 4105 3540
000000b0: 91e7 a83f 1025 b63f 91c4 bc3e 5004 003f
000000c0: 1cf9 253f ab58 ff3e 435e b13e 6806 353f
000000d0: 992e 3c3f 8b89 723e c7d0 ec3e 0dea c03e
000000e0: bccf 0c40 0531 d83f 5dad cb3e e2fd ff3f
000000f0: 692c d13f 3afc ec3e 5d69 f33f c404 e93e
0.69594127 0.40477264 0.7857411 1.9475396 0.3603954 2.6254334 0.64787495 2.220103
1.8624012 0.31150967 0.64069974 0.6153435 0.96489584 2.4079745 0.38643786 0.50487953
0.3462861 0.56137073 0.5718153 0.51004326 3.4889545 0.49906957 0.3689636 0.6684819
0.34644184 1.3992378 1.6946459 0.9779423 2.1880803 4.1164103 0.66689926 0.8161425
1.9284902 0.83577013 0.2322784 0.2797018 0.24968289 0.6959649 1.3152404 1.6244534
0.71609217 0.93135893 1.9123404 2.8284457 1.3195668 1.423006 0.36868718 0.5000658
0.64833236 0.49872336 0.34642228 0.707129 0.735086 0.23685281 0.46253034 0.37678567
2.200179 1.688996 0.39780703 1.9999354 1.6341678 0.46286184 1.9016529 0.45511448

features.6.weight f4 [32, 64]
00000000: 3fa8 c13c bd68 6fbd 576d 10be 8fdb 1dbe
00000010: 1d3d 03be 9137 543d 6121 99bc 013a aa3d
00000020: 684e 7cbd 30df c1bc efe6 2d3c da36 6e3e
00000030: 9217 213e 3a63 c13d 0beb 213e 16fe 6cbc
00000040: f93c 4c3e b001 d7bd a657 1d3e 432e 35be
00000050: 885c a53d 018b 80bd 58d1 fbbd 446f 7e3d
00000060: 1b77 113b 745c 73bc f761 cd3c c189 74be
00000070: c737 8a3d 026d 1dbc c0ae a13d 36c4 5cbe
00000080: 06d6 d7bd 15b5 dfbd e633 3abd 089b ee3d
00000090: 4746 bfbc b6de 013e a644 8b3d be63 16be
000000a0: 1ba1 ec3d 5bd8 4c3d f22a 273e 95c7 5c3d
000000b0: 80ef e0bd 2bb6 11bd b68b a4bd f6d7 8e3c
000000c0: 4bb7 03bd 377f 15be c583 35bd 2fc3 853d
000000d0: 142c 9c3d d159 e8bd 25a7 1b3e 2eaa 5fbc
000000e0: cef7 68bc 36c3 cfbc 2b80 c3be 0ca9 b83d
000000f0: 3f51 d03b d2e3 983d 8f21 b73d d702 58bd
00000100: 6361 58bc a346 1bbe a1d7 cbbc 9ced 81bb
00000110: 615c f73c c74d da3b 0285 823d 97e0 f5bc
00000120: 34e4 d2bc ad82 a8bc 155a 993d ecee 17be
00000130: 1f95 98bd 5efb b13d b6c9 d23d 39e8 393c
00000140: bdc6 983d 18d1 0c3e f83f c1bd 85ad b93d
00000150: da78 83bc 0662 423e 1e78 dabd 5f96 e53d
00000160: ad30 853c 1cf7 a53d 5afa d23b 1072 d93d
00000170: 6931 81bd c937 903d ef2d 453e 1043 943d
00000180: ff4a 67be 8070 e23d bd91 2f3e 9359 133e
00000190: f424 22bd 154a 33be 3b00 e13d bc9b 133e
000001a0: 58c7 683c b50e 7c39 305a 23bc 73af 33bd
000001b0: 4a75 f9bc 2bcb d23d d09b ed3d 06b0 bb3d
000001c0: 9b9d 163d e20a a13d 73ba 0ebd 17a4 873c
000001d0: e0b8 66be 606e 1b3e cdd1 5dbe 2b73 babd
000001e0: 2719 d03d 277a 0c3e 2946 a0be f4ce cebc
000001f0: 2567 56be fe82 b83c 7507 05be 077c e73e
00000200: d3b7 27bd a584 fbbc 8bcd 3bbd 5af8 efbd
00000210: 9ebc 8fbd b376 10be 9dc5 383d 6f69 d63d
00000220: 5dd1 443e 4fe5 213d fd07 4ebd 0927 f6bc
00000230: 5660 52bd 8692 dc3c 0793 d4bd 8000 4d3d
00000240: d284 91bb 721a 38be e3cd 2bbd 5a26 e9bd
00000250: 32ff 153e 6d4f a0bd 4f9c ff3d 2d69 973d
00000260: 4c8e 243e 2443 18be b09c 883d f508 04be
00000270: b1ee b2bd fc7b 96bd cd9a db3c 5c7d 3ebe
00000280: 1a36 49bd 2690 07be ba10 33be 8dda 90bd
00000290: 39e0 8e3c 4094 493d 94da 4f3d 20f9 b73c
000002a0: fff9 dfbc b112 4c3e 9c06 8ebb 6a3d 8f3d
000002b0: 57e5 c83d 443b 7ebd 92a5 38bc b968 08bd
000002c0: 393f 17be 829f 013e 5e7c fd3d 16f8 38bd
000002d0: c066 b73d 7abd a83c 1c7b 47be 95ca 933d
000002e0: f867 dd3d 2c0f 22be 9d3a 4abd 8837 07bd
000002f0: 2f3e bf3d 1f9f 503d c7a8 a6bd 93bb 00be
00000300: e609 42bc 520e a53d 8f20 403d 88fb 7dbd
00000310: d2cf a43d 49a7 f63d 76f1 103d 81ce fdbd
00000320: 665e 17be 295a 1fbd 8734 873e 7f9c 443e
00000330: 29e7 893c 3e73 a33d 5eb5 3d3c ee1c af3c
00000340: 1c8a 283e dfee 94bc d9f6 9a3d ff89 15be
00000350: 1340 873b a4c1 263e 567e 6bbd f06c 67bd
00000360: 175c 16be 87d1 4c3c 6c26 273d 11db 2a3e
00000370: d16a be3d 7b42 47bd e60d a1bd 8311 d1bc
00000380: ee19 0fbe 52f6 263c 043d 153e 378a 9d3d
00000390: 08f4 9dbd 5734 923d a1b1 043c d32c c73c
000003a0: 9f6c 01be 8ff9 6f3d 9c0c 93bd 3193 79bd
000003b0: 900a f6bd e7c7 85bc 061c c53d 3177 033e
000003c0: bf17 c23d d08d f3bd 6fa9 71bc b872 423e
000003d0: 29f8 7f3d 88cb 2d3e 0402 973e 1394 cf3d
000003e0: 96e9 4f3d 4aa3 3dbd df12 043e 8a00 fc3d
000003f0: 8c14 45bc 6216 f43d 870e 0ebe f850 163a
0.023639796 -0.058449496 -0.1410421 -0.15415786 -0.12816282 0.051810805 -0.018692674 0.083118446
-0.06159821 -0.023665994 0.010614141 0.23263112 0.15731648 0.09442754 0.15812318 -0.014464876
0.19945134 -0.10498369 0.15365466 -0.17693429 0.080742896 -0.06276513 -0.122957885 0.06211783
0.0022196237 -0.0148535855 0.025071127 -0.23880674 0.0674892 -0.009608509 0.07894659 -0.21559224
-0.105388686 -0.109232105 -0.04545965 0.116506636 -0.02334894 0.12682614 0.06800203 -0.14686486
0.11554166 0.05001102 0.16324976 0.053901274 -0.10983181 -0.03557412 -0.0803446 0.017436963
-0.032157224 -0.1459931 -0.04431512 0.06531369 0.07625595 -0.11345256 0.1520048 -0.013651414
-0.0142192375 -0.025361639 -0.38183722 0.09016618 0.0063573415 0.07465328 0.08941948 -0.052737083
-0.013206813 -0.15163665 -0.024883093 -0.003965093 0.030195417 0.006662104 0.063730255 -0.03001432
-0.025743581 -0.020570124 0.07487885 -0.14837235 -0.074503176 0.086905226 0.102923796 0.01134687
0.07459781 0.13751638 -0.09436029 0.09066299 -0.016048837 0.18982705 -0.10667442 0.11210322
0.016258562 0.08103773 0.0064385356 0.10617459 -0.06308252 0.0704189 0.19255804 0.07239354
-0.22587202 0.11056614 0.17145438 0.14389639 -0.039586022 -0.17508729 0.10986372 0.14414877
0.0142076835 0.00024038072 -0.009970233 -0.043868493 -0.030451436 0.102926575 0.116019845 0.09164433
0.036771398 0.07863404 -0.03484578 0.016557736 -0.22531462 0.15178823 -0.21662064 -0.09103998
0.101610474 0.13718472 -0.31303528 -0.025245167 -0.20937784 0.0225234 -0.12991126 0.45211813
-0.040946793 -0.030702898 -0.045850318 -0.11717291 -0.07018398 -0.1410778 0.045110334 0.104693286
0.19220491 0.039525326 -0.050300587 -0.03004791 -0.051361404 0.026925337 -0.10379606 0.050049305
-0.0044408822 -0.17978838 -0.041944396 -0.11384268 0.1464813 -0.07827649 0.124809854 0.073931076
0.16069907 -0.14869362 0.06670511 -0.12894042 -0.08736933 -0.07347867 0.026807213 -0.18602508
-0.04912386 -0.13238582 -0.1748685 -0.07072935 0.017440902 0.049213648 0.05074556 0.02245766
-0.027340887 0.19929005 -0.004334284 0.06994136 0.09809368 -0.06206824 -0.011269944 -0.033302996
-0.14770211 0.12658504 0.12377237 -0.04515847 0.08955145 0.020598162 -0.19480556 0.07216374
0.10810846 -0.158261 -0.049372304 -0.033011943 0.093380325 0.050933 -0.081376605 -0.12571554
-0.01184318 0.08059372 0.04690605 -0.062007457 0.08047451 0.12043626 0.035386525 -0.12392903
-0.14782104 -0.038904343 0.26407263 0.19200324 0.016833859 0.07980965 0.011578886 0.0213761
0.16458935 -0.018180309 0.07566614 -0.14603423 0.0041275113 0.16284806 -0.05749353 -0.056500375
-0.14683567 0.012501127 0.040808126 0.1668513 0.09297717 -0.048647385 -0.07863979 -0.025521046
-0.13974735 0.010190563 0.14574057 0.07692378 -0.07712561 0.07138889 0.008098991 0.024313366
-0.12639092 0.058587607 -0.071801394 -0.06093139 -0.120137334 -0.016330672 0.09624486 0.12838437
0.094771855 -0.11892283 -0.014749869 0.18989074 0.062492523 0.16972172 0.29493725 0.10135665
0.050759874 -0.046298303 0.12897824 0.1230479 -0.012028825 0.11918332 -0.13872729 0.0005734111

features.6.bias f4 [32]
00000000: 6f7e 9fbd 1b72 5bbd 075e 153d aaa7 83bc
00000010: a14c 983d 277f cdbd 14cc c23d ab7d 863d
00000020: 0e83 c7bc 4ccb a53d 403c 813d 2f02 aebd
00000030: 9ae0 c33d d990 883c 19a6 0c3d af9a e9ba
00000040: a413 b2bc b82e c13d 9348 f4bd 052d 93bd
00000050: 2153 7c3d 5511 dabc 684c 16bd 3779 723b
00000060: aea7 c83d 25ac 1f3d 804c 74bd 4a84 b43d
00000070: 4942 9cbc c178 cc3d 4744 f33d 5a9e 8bbd
-0.07787787 -0.053575616 0.036466625 -0.01607116 0.07436491 -0.10034018 0.09511581 0.06566938
-0.024354484 0.080954164 0.0631032 -0.0849651 0.09564324 0.016670631 0.03433809 -0.0017822589
-0.021737881 0.09432739 -0.11927905 -0.07186321 0.061602715 -0.026619593 -0.03669396 0.003699852
0.09797607 0.03898253 -0.05964327 0.08814295 -0.019074576 0.099839695 0.11878257 -0.068173125

features.7.weight f4 [32]
00000000: 55cc bd3f 170a 9f3f 8376 8f3f 1cbc 913f
00000010: edca a73f 2429 993f 5f29 9d3f ff2c a23f
00000020: a63e a33f 09e7 a43f a955 aa3f e280 9b3f
00000030: 1234 a83f 249e 8a3f 4835 a03f ccce a43f
00000040: d1f1 9d3f 50c4 723f 5deb 943f 4d54 903f
00000050: fcd2 a63f 4e04 9f3f e105 9b3f ad2c c23f
00000060: fe65 833f 6dd8 ac3f b0d2 863f 19c0 8f3f
00000070: 5dbd a93f ea8f a43f 51ce 5a3f e3c6 913f
1.4827982 1.2424954 1.1208042 1.1385531 1.3108803 1.196568 1.227825 1.2669982
1.2753494 1.2883006 1.3307391 1.2148707 1.3140891 1.0829511 1.251626 1.2875609
1.2339422 0.948308 1.1634327 1.1275727 1.3033137 1.2423189 1.2111169 1.5169884
1.02655 1.3503548 1.0533047 1.1230499 1.3260914 1.2856419 0.85471064 1.138882

features.7.bias f4 [32]
00000000: c1a6 31bd 86ae 713e afaf 2b3e eecf 29be
00000010: 9384 fbbd b423 3a3e e7dd 323e c983 cf3d
00000020: 7133 773d cf2d 8a3e 05f6 86bd 72a5 053e
00000030: 6729 d63d 3ecd 9d3d 30d7 093e aef1 e6bd
00000040: cd0b 86bc dadd 0fbe b5d4 3e3e 1001 0cbe
00000050: f105 533e f10f 173e 6de2 183e 69ec 893d
00000060: 609e d3bd bf27 cd3d c60f 18be 4943 393e
00000070: 9e93 253e 4618 123e 2785 23be d50c d13d
-0.04337192 0.23601732 0.16766237 -0.16583225 -0.12281146 0.18177682 0.17467462 0.10132558
0.060351793 0.26988074 -0.06589893 0.13051394 0.104571156 0.077051625 0.13460994 -0.112765655
-0.016363049 -0.14049473 0.18635829 -0.1367228 0.20607735 0.14752175 0.14930125 0.06734545
-0.10332942 0.100173466 -0.14849767 0.18092074 0.16169593 0.14267072 -0.15968762 0.10207526

features.7.running_mean f4 [32]
00000000: 9fe5 48be 14ac b33d b3bb 24be 26d4 853e
00000010: d1df 563e 331f 8bbe 91ea 4c3e e4ff 633e
00000020: fdee 793e 7b85 fb3d dc56 903e ade5 3a3d
00000030: 0c0d a83e ab5b 2a3e d71e a23e cb70 873e
00000040: a240 653e 8b7a cc3d 4bfc 78be e900 5c3e
00000050: f0de 53be 6188 20be 02f0 48bc ae39 7e3e
00000060: e65b 6e3e 3900 9b3e 7d1a 9f3d 4290 173e
00000070: 1327 9e3e 80b2 ba3e 22c5 9a3a 0cc3 513e
-0.19618843 0.08773056 -0.16087227 0.2613842 0.20983817 -0.2717224 0.20011355 0.22265583
0.24407573 0.12281319 0.28191268 0.045629192 0.32822454 0.16636531 0.31664154 0.26453242
0.22387937 0.09984311 -0.24314992 0.21484722 -0.20690513 -0.15677024 -0.012264254 0.2482669
0.23277244 0.30273607 0.07768724 0.14801124 0.30889186 0.3646431 0.0011808018 0.2048456

features.7.running_var f4 [32]
00000000: 7aae ab3d 19d3 c63e 9abe 6b3e 8a91 bc3e
00000010: 4fce d03d 4582 1b3e 22a9 c63d 664c ad3e
00000020: df15 523f 1fe5 b63e 51db aa3e 53f5 c13e
00000030: e63a 8f3e d17a 173e 4561 f03e bc1c 353e
00000040: b4e7 1d3e b4d2 033e c257 9d3e d5c4 9b3e
00000050: 6d3e c83d 27e5 533d 07ff cd3e ce2c 723e
00000060: 7701 463f 1daf 1d3f 4888 7f3d 8641 e33e
00000070: eb17 173e 1976 dc3e 9596 973f b3fc a43f
0.08382888 0.3883293 0.23021927 0.36829787 0.101956 0.15186413 0.09700228 0.3384735
0.8206462 0.3572168 0.3337045 0.3788248 0.27974623 0.14792944 0.4694921 0.17686743
0.15420419 0.12873346 0.30731016 0.30423608 0.09777532 0.05173221 0.40233633 0.23649904
0.77345985 0.61595327 0.062385827 0.44385928 0.14755218 0.4305885 1.1842829 1.2889618
