NIDS_attacks/pretrained_models/MLP70x4.400.pt (torch, 96662 bytes, 26 tensors)

features.0.weight f4 [128, 70]
0	0xbded2526	-0.11579351
1	0x3ddd74bc	0.10813281
2	0x3e491443	0.19636635
3	0x3becc8bf	0.0072260792
4	0xbeb0c44b	-0.3452476
5	0xbdf45bc0	-0.119315624
6	0xbf0be696	-0.5464872
7	0x3e3d8f55	0.18511708
8	0xbed08811	-0.4072881
9	0xbf1407e6	-0.5782455
10	0xbb94c732	-0.0045403475
11	0x3dc43504	0.095804244
12	0xbac23066	-0.0014815449
13	0x3dafd8df	0.08586287
14	0x3ec7b61f	0.39006135
15	0xbe795185	-0.24347503
16	0x3e2a1d97	0.1661285
17	0x3e2b63ac	0.1673724
18	0x3d57de3f	0.052702185
19	0xbe712927	-0.23550855
20	0x3d40b58a	0.04704813
21	0xbd90b0f9	-0.07065005
22	0x3e60ff42	0.21972373
23	0x3d690b92	0.0568958
24	0xbe3eb305	-0.18622978
25	0xbdb78c5c	-0.08962318
26	0xbe18a8cf	-0.14908145
27	0xbb312917	-0.0027032548
28	0x3ccca049	0.024978774
29	0xbe27079b	-0.16311495
30	0xbe02f6db	-0.1278948
31	0xbb0cecba	-0.0021503405
32	0xbe043f83	-0.12914853
33	0xbe501ca6	-0.20323429
34	0xbe4a2bc3	-0.19743256
35	0xbd58d415	-0.052936632
36	0x3ebde74b	0.37090525
37	0x3dcb5a6e	0.099293575
38	0xbc5610b3	-0.013065505
39	0x3e3577ba	0.17721453
40	0xbcab5030	-0.02091226
41	0x3d398190	0.045289576
42	0xbca5d001	-0.020240786
43	0x3ce1cce1	0.027563514
44	0xbe23be12	-0.15990475
45	0xbd5bdc90	-0.05367714
46	0xbdf12d2b	-0.11776193
47	0xbd0140a0	-0.03155577
48	0xbc472432	-0.012154626
49	0xbe58d1f2	-0.21173838
50	0x3c9d5ac4	0.01920832
51	0xbefda623	-0.49540815
52	0xbc57f41d	-0.01318076
53	0xbe20549d	-0.15657277
54	0x3deb6f0c	0.1149579
55	0xbeaf691e	-0.34259886
56	0x3a9c9832	0.0011947213
57	0xbc48aae6	-0.012247777
58	0xbe018e02	-0.12651828
59	0xbe358ad9	-0.17728747
60	0x3f20f8c5	0.6287959
61	0xbd5e1307	-0.054217365
62	0x3e90c955	0.28278604
63	0xbde1ddc3	-0.11028626
64	0x3e8d388e	0.2758221
65	0x3e722403	0.2364655
66	0x3df01356	0.11722438
67	0x3df3e4c8	0.11908871
68	0x3d6310ed	0.055436064
69	0x3e0ee0af	0.13952897
70	0x3e09fee6	0.13476142
71	0xbe4c0606	-0.19924173
72	0xbf02ce67	-0.51096195
73	0xbe915753	-0.28386936
74	0x3e4e5b9b	0.20152132
75	0x3e56b1f5	0.20966323
76	0x3e7a8491	0.24464633
77	0x3b82f94b	0.003997003
78	0xbd5800ce	-0.052735142
79	0x3e3a5e24	0.18199974
80	0xbce83fa5	-0.02835066
81	0x3e6ca1bc	0.23108572
82	0xbde5f0b7	-0.11227553
83	0xbc8dd642	-0.01731408
84	0x3e55066f	0.20803235
85	0x3e005872	0.12533739
86	0xbeb454be	-0.35220903
87	0xbcdad499	-0.026712703
88	0xbd771cb6	-0.060330115
89	0xbf1d69fb	-0.6148984
90	0xbd73b7fa	-0.059501626
91	0xbe5eb9e6	-0.21750602
92	0x3d19af1e	0.03752052
93	0xbd0ad797	-0.03389701
94	0x3d7cf264	0.0617546
95	0xbe612b9d	-0.21989293
96	0x3ce12f9b	0.02748852
97	0xbe70a051	-0.23498656
98	0xbc9fe484	-0.019518144
99	0x3d83ff85	0.06445221
100	0x3d88f6a2	0.066876665
101	0xbd363cf9	-0.04449174
102	0xbf338b59	-0.701345
103	0xbe54a875	-0.20767386
104	0x3d937fb8	0.07202095
105	0xbc7e7da4	-0.015532885
106	0x3d29fdc6	0.041501783
107	0x3c8c464e	0.017123368
108	0xbd961d59	-0.07329816
109	0xbd623b4b	-0.055232327
110	0xbc5473ef	-0.012967094
111	0xbde89256	-0.11356036
112	0xbda8027c	-0.08203599
113	0x3e4495f4	0.19197828
114	0x3d56665f	0.052343722
115	0x3d2bb92a	0.041924633
116	0x3c884cc1	0.016638162
117	0xbe11c52d	-0.14235373
118	0x3d222c1b	0.039592844
119	0x3dfd4a56	0.12367694
120	0x3dd92d7f	0.10604381
121	0x3e13c249	0.14429583
122	0xbd70a0f5	-0.05874725
123	0xbf3e4fa6	-0.74340284
124	0xbeeaa3c3	-0.45828065
125	0x3e786c80	0.2426014
126	0xbe9d1201	-0.30677798
127	0x3e55cb51	0.2087834
128	0x3d2d65b8	0.042333335
129	0x3da9ba6a	0.08287509
130	0xbef134c9	-0.47110584
131	0xbd815088	-0.06314188
132	0x3d2ba355	0.041903812
133	0x3dcd467e	0.10023211
134	0x3e30c380	0.17262077
135	0xbbfe65e1	-0.0077636098
136	0xbe30524f	-0.17218898
137	0xbe0ac1b6	-0.13550457
138	0xbcc861e8	-0.024460748
139	0xbcab2fdc	-0.020896845
140	0xbd84401e	-0.06457542
141	0x3df5f815	0.120102085
142	0xbf6764b8	-0.9038806
143	0xbf60cf05	-0.87815887
144	0xbe2bea7b	-0.16788666
145	0xbf0c09a9	-0.5470224
146	0x3e37730e	0.17914984
147	0xbed54ad8	-0.41658664
148	0x3c9433c1	0.018091084
149	0x3ea52a3b	0.32258782
150	0xbcd88b51	-0.026433619
151	0xbe7780bf	-0.24170206
152	0x3cc60c4a	0.024175782
153	0xbce7f22d	-0.02831372
154	0xbf0b1bd7	-0.54339355
155	0xbe141edd	-0.14464898
156	0x3dd2be7a	0.10290237
157	0x3e179580	0.14803123
158	0x3c554ecd	0.013019276
159	0xbe0320e8	-0.12805521
160	0x3e18007c	0.14843935
161	0xbd567545	-0.05235793
162	0x3e31433d	0.17310806
163	0x3e24edff	0.16106413
164	0xbdd74afd	-0.1051235
165	0xbd834619	-0.064098544
166	0x3df35bae	0.11882721
167	0xbd21c244	-0.039491907
168	0xbb1681e1	-0.0022965597
169	0x3d04d260	0.03242719
170	0xbd591a4e	-0.0530036
171	0xbd93a9b1	-0.072101004
172	0xbf2b3d78	-0.6689067
173	0xbf48ef39	-0.78490025
174	0xbdaac140	-0.08337641
175	0xbe468303	-0.19385915
176	0xbf450137	-0.7695498
177	0x3dd54357	0.10413235
178	0xbd5cc9a4	-0.053903237
179	0x3e0cb6a6	0.1374155
180	0xbd6b0a56	-0.057382904
181	0x3dd58cb6	0.10427229
182	0xbe436cf3	-0.1908453
183	0xbe306a26	-0.17227992
184	0x3caa8186	0.020813715
185	0x3c3bb25b	0.0114560975
186	0xbe666f9a	-0.2250351
187	0x3a4683c7	0.0007572737
188	0xbb7ab31c	-0.003825373
189	0x3d80ff93	0.06298747
190	0x3cffaddd	0.031210834
191	0x3dbf51c4	0.093417674
192	0x3d94a5ee	0.07258211
193	0xbf351f78	-0.7075114
194	0xbf7ccf9b	-0.9875428
195	0xbe06feae	-0.1318309
196	0xbf402951	-0.75063044
197	0xbf353ec9	-0.7079893
198	0xbc86ea1c	-0.016469054
199	0xbcaf1e33	-0.021376705
200	0xbf7f7b8f	-0.9979791
201	0xbd1c79b2	-0.038201995
202	0xbe019fee	-0.12658665
203	0x3e9849be	0.2974376
204	0xbdef53ff	-0.11685943
205	0xbe36327c	-0.17792696
206	0x3d796bdd	0.060893882
207	0x3bedd745	0.007258328
208	0x3e0e892a	0.13919511
209	0xbd1d9578	-0.038472623
210	0xbd146cc9	-0.036236558
211	0x3cb0defb	0.0215907
212	0x3c90621f	0.017624913
213	0xbf11f6f9	-0.57017475
214	0xbf2439a6	-0.64150465
215	0xbef8875a	-0.48540765
216	0xbe99650a	-0.299599
217	0xbd3ab119	-0.04557905
218	0xbeb5c257	-0.35499832
219	0xbe80823a	-0.25099355
220	0x3de5ed77	0.112269334
221	0x3e91c47a	0.28470212
222	0x3cf886b2	0.030337665
223	0x3e2ce4e1	0.16884185
224	0xbeb5bad1	-0.35494092
225	0x3ec74015	0.38916078
226	0x3dee63a3	0.11640098
227	0x3df50fca	0.11965902
228	0x3df107f7	0.11769097
229	0xbed76c02	-0.4207459
230	0xbd66dd84	-0.056363598
231	0xbd2dfa39	-0.04247496
232	0x3c7ea914	0.015543241
233	0xbd3df5fc	-0.046377167
234	0xbe3593ac	-0.17732114
235	0xbe02e689	-0.12783255
236	0xbd816e06	-0.063198134
237	0x3e22143b	0.1582803
238	0xbe2a77f1	-0.16647317
239	0xbe8ab967	-0.27094576
240	0x3e063672	0.13106707
241	0xbcbf1e63	-0.02332992
242	0x3e1b5c93	0.15172033
243	0xbf17e434	-0.59332585
244	0x3e881d05	0.2658464
245	0x3ece7bce	0.4032883
246	0xbe7bee50	-0.24602628
247	0xbd93af09	-0.0721112
248	0x3e11ff5a	0.14257565
249	0x3e1646d4	0.14675456
250	0xbd744e77	-0.059645142
251	0xbe2e4f7d	-0.1702251
252	0x3e32ec67	0.17472993
253	0x3d0a44fa	0.033757187
254	0x3cf5fb1c	0.030026965
255	0x3e243003	0.1603394

features.0.bias f4 [128]
0	0x3d7ad9ff	0.061243054
1	0xba796798	-0.0009514033
2	0x3cee6cac	0.029104553
3	0x3d9ad733	0.07560577
4	0x3d24d6d4	0.04024394
5	0xbda77c71	-0.08178032
6	0x3cef0fc9	0.029182332
7	0x3d1e364a	0.038625993
8	0x3dcd9071	0.10037316
9	0x3ad324c5	0.0016108981
10	0xbdb75f8c	-0.08953771
11	0x3cbb9abf	0.022900937
12	0x3d4f610e	0.050629668
13	0x3dddbd05	0.10827068
14	0x3d5a94dd	0.053364623
15	0xbdaa36e8	-0.08311254
16	0x3d6ed694	0.058310106
17	0xbd5bf446	-0.053699754
18	0xbd7fc9f8	-0.06244847
19	0x3ddf9c72	0.109185115
20	0x3dced873	0.10099878
21	0x3dc16d95	0.09444729
22	0x3d6ce526	0.05783572
23	0x3dbe718a	0.092989996
24	0x3dcc890c	0.09987077
25	0x3c05204c	0.008125376
26	0xbb7b64df	-0.0038359684
27	0xbc98d14b	-0.018654486
28	0xbcc362f1	-0.02385089
29	0x3cc624b0	0.024187416
30	0xbdd80fde	-0.105499014
31	0xbddb1f1a	-0.106992915
32	0x3d2eb624	0.04265417
33	0xbc0d5c8e	-0.008628024
34	0xbdba5cdf	-0.09099745
35	0xbc3c7fd5	-0.011505087
36	0x3d0a8b22	0.033824094
37	0x3db01a0c	0.08598718
38	0xbd812a88	-0.0630694
39	0xbbbec29d	-0.0058215396
40	0xbc659ea1	-0.014014871
41	0xbcbc8314	-0.023011722
42	0x3d293920	0.041314244
43	0xbca39b7e	-0.019971605
44	0xbd82bdd1	-0.06383861
45	0xbd452fd4	-0.048141316
46	0x3cd24e73	0.025672173
47	0x3de9e9e6	0.11421566
48	0xbddf6151	-0.109072335
49	0x3db675c2	0.08909179
50	0xbdb56249	-0.08856637
51	0x3de932e4	0.1138666
52	0x3dd5af67	0.10433846
53	0x3d3b4b9a	0.045726396
54	0x3d5bfaf7	0.053706136
55	0x3ddf1e97	0.108945064
56	0x3d0e705b	0.03477512
57	0x3c2d0ec6	0.010562604
58	0xbdcdb4e0	-0.10044265
59	0xbdad28a3	-0.084550165
60	0xbd88288f	-0.06648361
61	0x3d51901f	0.051162835
62	0xbdcb6315	-0.09931008
63	0xbdad9e37	-0.08477443
64	0xbd9af6cf	-0.07566606
65	0xbdda1e2b	-0.10650285
66	0xbd981e97	-0.074277095
67	0xbdbbec44	-0.091759235
68	0x3de34572	0.1109723
69	0x3debbac9	0.11510236
70	0xbdb26617	-0.08710878
71	0xbd255735	-0.04036637
72	0xbceb20b9	-0.028702127
73	0xbd89871c	-0.06715223
74	0xbd0704fc	-0.032963738
75	0xbd9a2bed	-0.075279094
76	0xbda9a8d6	-0.08284156
77	0xbddcb52c	-0.10776743
78	0x3d788db9	0.060682032
79	0x3dad8523	0.084726594
80	0xbe023f6f	-0.1271951
81	0xbd4a902d	-0.049453903
82	0xbdee09ed	-0.11622987
83	0xbd82784a	-0.063705996
84	0x3da9414b	0.08264407
85	0x3d9f97a4	0.07792595
86	0xbc6cff7b	-0.014465208
87	0x3d1c089c	0.038094148
88	0xbb6cf54e	-0.0036156955
89	0x3dd2d295	0.102940716
90	0xbdcd4744	-0.100233585
91	0x3d92897b	0.071551286
92	0xbd834480	-0.0640955
93	0xbbed52d4	-0.00724254
94	0xbdbf3335	-0.09335939
95	0xbcc93470	-0.024561137
96	0xbd2d1662	-0.042257674
97	0xbd16adfc	-0.03678702
98	0xbd600577	-0.05469271
99	0x3cb949bc	0.022618167
100	0x3d565cc0	0.052334547
101	0x3bfe008c	0.00775153
102	0xbd035148	-0.032059938
103	0xbbb2a3dc	-0.0054516625
104	0xbdc4e2e0	-0.096135855
105	0x3d91b289	0.07114131
106	0xbd1f3db7	-0.038877215
107	0x3bd02e2d	0.006353161
108	0xbbe13db9	-0.006873813
109	0x3da19df6	0.07891457
110	0xbdd76066	-0.105164334
111	0x3c7100f6	0.014709702
112	0x3cb57f83	0.022155529
113	0xba361e51	-0.00069472665
114	0xbcc70d28	-0.024298266
115	0x3dee3620	0.11631417
116	0x3d55ad2e	0.05216711
117	0xbc72cc27	-0.0148191815
118	0xbdb7e2fd	-0.089788415
119	0x3dae66a5	0.08515672
120	0x3cff72ce	0.031182673
121	0x3d9baa6b	0.07600864
122	0x3dab16a0	0.08353925
123	0x3d392d35	0.04520913
124	0xbd9adda8	-0.07561809
125	0xbccae0b0	-0.024765342
126	0xbcd866c9	-0.0264162
127	0x3d40c801	0.04706574

features.1.weight f4 [128]
0	0x3f84e2c9	1.0381709
1	0x3f5f462f	0.87216467
2	0x3f622f45	0.8835338
3	0x3f67ef8b	0.9059989
4	0x3f5e9c7e	0.8695754
5	0x3f789ee3	0.9711744
6	0x3f5a6c4f	0.85321516
7	0x3f6d3379	0.92656666
8	0x3f66daa0	0.90177345
9	0x3f5efcdc	0.8710458
10	0x3f86a2af	1.0518397
11	0x3fae72be	1.3628767
12	0x3f6addc4	0.9174464
13	0x3f801617	1.0006741
14	0x3f83a232	1.0283873
15	0x3f98683c	1.190681
16	0x3f991ec0	1.1962509
17	0x3f77c38d	0.9678276
18	0x3f8490d5	1.0356699
19	0x3f779807	0.9671635
20	0x3f8fe0c5	1.1240469
21	0x3f891034	1.070807
22	0x3f87e71f	1.0617408
23	0x3fb111cb	1.3833555
24	0x3f872e19	1.0560943
25	0x3f817a30	1.0115414
26	0x3f901ab8	1.1258154
27	0x3f5b97a7	0.8577828
28	0x3f6cba5e	0.92471874
29	0x3fb51942	1.4148333
30	0x3f66e5b2	0.9019424
31	0x3f819ddf	1.0126303
32	0x3f589605	0.8460391
33	0x3f84ef83	1.0385593
34	0x3f72fade	0.9491404
35	0x3f779c2e	0.96722686
36	0x3f810a87	1.0081338
37	0x3f766ffc	0.96264625
38	0x3f5f3d5b	0.87202996
39	0x3f833e57	1.02534
40	0x3fa9a732	1.3254149
41	0x3f684c8d	0.9074181
42	0x3f626b32	0.8844482
43	0x3f802c17	1.0013455
44	0x3fa54bf1	1.29138
45	0x3f512207	0.81692547
46	0x3f71df66	0.94481504
47	0x3fa2374a	1.2673123
48	0x3f6c4593	0.9229366
49	0x3f7351bc	0.9504659
50	0x3f672085	0.90283996
51	0x3f93b85a	1.1540635
52	0x3f7325b1	0.9497939
53	0x3f96bc37	1.1776189
54	0x3f564790	0.83702946
55	0x3f8a1a6a	1.0789311
56	0x3f81742a	1.0113575
57	0x3f6b45d8	0.9190345
58	0x3f65465b	0.8956048
59	0x3f61b82f	0.88171667
60	0x3f7d2c46	0.9889568
61	0x3f694e7a	0.9113537
62	0x3f744e60	0.9543209
63	0x3f8dfd0f	1.1092852
64	0x3f6ca82b	0.92444104
65	0x3f804f52	1.0024207
66	0x3f8830c9	1.0639888
67	0x3f7fd911	0.9994059
68	0x3f6a33f8	0.9148555
69	0x3f6b4233	0.91897887
70	0x3f591366	0.84795225
71	0x3f8d17f2	1.1022933
72	0x3f861223	1.0474285
73	0x3f6f4c88	0.9347615
74	0x3f8db95d	1.1072193
75	0x3f7376b9	0.9510303
76	0x3f827d0c	1.0194411
77	0x3f80e6a4	1.0070386
78	0x3f5ffcd0	0.87495136
79	0x3f7fa145	0.9985545
80	0x3f844cd5	1.0335947
81	0x3f7aa245	0.97903854
82	0x3f885197	1.0649899
83	0x3f91e003	1.1396488
84	0x3f64b9e7	0.89346164
85	0x3f6f6e7f	0.9352798
86	0x3f68f541	0.9099923
87	0x3f842acc	1.032556
88	0x3f3d3811	0.73913676
89	0x3f809d7d	1.0048062
90	0x3f6e3c3d	0.93060666
91	0x3f5732ce	0.84061897
92	0x3f805269	1.002515
93	0x3f81e155	1.0146891
94	0x3f6b69d9	0.91958386
95	0x3fa2668d	1.2687546
96	0x3f7f334a	0.99687636
97	0x3f7ea0e9	0.9946428
98	0x3f82dbe3	1.0223354
99	0x3f892110	1.0713215
100	0x3f91e7b0	1.139883
101	0x3f50e687	0.81601757
102	0x3f975f3c	1.1825938
103	0x3f94d592	1.1627676
104	0x3f81d015	1.0141627
105	0x3f86a41d	1.0518833
106	0x3f822bd7	1.0169629
107	0x3f73052e	0.9492978
108	0x3f6f0879	0.93372303
109	0x3f884519	1.0646087
110	0x3f92b8f1	1.146269
111	0x3f80ec64	1.0072141
112	0x3f73956d	0.9514988
113	0x3f8a327f	1.079666
114	0x3f8ecc63	1.1156124
115	0x3f890009	1.0703136
116	0x3f845b22	1.0340312
117	0x3f81269d	1.0089909
118	0x3f7d666a	0.98984396
119	0x3f787c53	0.97064704
120	0x3f7f586b	0.9974429
121	0x3f8fea4d	1.1243378
122	0x3f7aedc8	0.98019075
123	0x3fa8c967	1.3186463
124	0x3f654273	0.8955452
125	0x3f69e54a	0.9136549
126	0x3f4f60b7	0.8100695
127	0x3f6e5085	0.93091613

features.1.bias f4 [128]
0	0xbbe8caa0	-0.007104233
1	0xbe134cb5	-0.1438473
2	0xbd7dbfd7	-0.06195053
3	0xbda4dc18	-0.08049792
4	0xbdfb8d27	-0.12282782
5	0xbdec8854	-0.1154944
6	0xbdb800f8	-0.0898456
7	0xbd1843fb	-0.037174206
8	0xbdcada83	-0.09904959
9	0xbda4b0f0	-0.08041561
10	0xbc6aa59f	-0.014321714
11	0xbdd0e670	-0.102002025
12	0xbd7e0b07	-0.062022235
13	0xbdfb950c	-0.12284288
14	0xbd045996	-0.032312
15	0xbccc99f4	-0.024975754
16	0xbd8ee9e6	-0.06978206
17	0xbd0af84b	-0.033928197
18	0xbe04fbe3	-0.12986712
19	0x3cdfba58	0.027310535
20	0xbe43048a	-0.190447
21	0x3db4c421	0.08826471
22	0x3c2b50a9	0.010456243
23	0x3da92d87	0.08260637
24	0xbcbbf336	-0.02294312
25	0xbd56841c	-0.052372083
26	0xbd4fc4e9	-0.050724898
27	0xbe1a9ee1	-0.1509967
28	0x3c5ed7cc	0.013601255
29	0xbe17f9e0	-0.14841413
30	0xbe02493c	-0.12723249
31	0x3d2086e7	0.039191153
32	0xbdda35a3	-0.10654762
33	0xbde8f0b7	-0.11374038
34	0xbd905a27	-0.07048445
35	0xbdb1be7d	-0.08678911
36	0x3d21dd02	0.03951741
37	0xbd41885a	-0.047249176
38	0xbb2183c5	-0.002464519
39	0xbcef1f5a	-0.029189754
40	0x3cb7c102	0.0224309
41	0xbe158c64	-0.14604336
42	0xbdf317f2	-0.118698016
43	0xbd34eabe	-0.04416918
44	0xbdfd67ac	-0.123732895
45	0xb9f2ed5c	-0.00046334683
46	0xbc931c2a	-0.017957766
47	0xbd0cbec3	-0.034361612
48	0xbd76d3e3	-0.060260665
49	0xbdb8cf47	-0.0902391
50	0xbc84d340	-0.016214013
51	0xbdd59826	-0.10429411
52	0xbd94816d	-0.072512485
53	0xbe80563a	-0.25065786
54	0xbbd48df9	-0.006486651
55	0xbd631c92	-0.05544717
56	0xbcb1af00	-0.021689892
57	0xbdbed097	-0.09317129
58	0xbdd4f3f5	-0.103980936
59	0xbd5c22f5	-0.053744275
60	0x3b5b1984	0.0033431957
61	0xbdcb7cbf	-0.09935903
62	0xbdf4f2aa	-0.11960347
63	0xbdbb5b3d	-0.09148262
64	0xbe0d7420	-0.1381383
65	0x3d2d29ac	0.04227607
66	0x3ce2258b	0.027605793
67	0xbe047c8a	-0.12938133
68	0xbdcc0b47	-0.099630885
69	0x3cbf75fc	0.023371689
70	0xbe2ca2ed	-0.16859026
71	0xbdbca789	-0.09211642
72	0xbdca0663	-0.098644994
73	0x3c339871	0.010961638
74	0xbd27cd69	-0.04096738
75	0xbba77774	-0.0051106755
76	0xbdae607e	-0.08514498
77	0xbd32a4d7	-0.043614235
78	0xbda9d3af	-0.082923286
79	0x3bf7af6f	0.007558755
80	0xbd7e91db	-0.062150817
81	0xbe17650f	-0.14784645
82	0xbc342446	-0.010994976
83	0x3d94f766	0.0727375
84	0xbd8fcbc2	-0.070212856
85	0xbe68c324	-0.2273069
86	0xbe4c2d5f	-0.19939183
87	0xbd8541ac	-0.065066665
88	0xbe243a19	-0.16037787
89	0xbda0730e	-0.07834445
90	0xbcb2e8e6	-0.02183957
91	0x3d1da99e	0.038491838
92	0x3b10cdc2	0.0022095297
93	0xbe2bc68d	-0.1677496
94	0x3cad01b6	0.02111898
95	0xbdbaba52	-0.09117569
96	0x3b222abe	0.0024744715
97	0x3d1e013a	0.03857539
98	0xbd84aa54	-0.064778
99	0x3dcd3014	0.10018936
100	0xbd56759a	-0.052358247
101	0xbda9198b	-0.08256825
102	0xbdb528bf	-0.08845662
103	0xbdb6d0d5	-0.0892655
104	0x3e2f4f04	0.17119986
105	0x3db79e54	0.089657456
106	0xbe3887de	-0.18020579
107	0xbdc11670	-0.09428108
108	0x3d5127cf	0.051063355
109	0xbc937a09	-0.018002527
110	0x3d34c44b	0.044132512
111	0xbdcb41a8	-0.09924632
112	0x3cdd88b8	0.027042732
113	0xbd70c108	-0.05877784
114	0xbd097086	-0.033554576
115	0xbcb83656	-0.022486847
116	0xbb57d21e	-0.0032931636
117	0xbd0cfba6	-0.03441968
118	0xbdb36a6d	-0.087605335
119	0xbcac1e92	-0.02101067
120	0x3d88a0c7	0.06671291
121	0x3c3830bc	0.011242088
122	0xbd3d081b	-0.046150308
123	0xbd364c27	-0.04450622
124	0xbe1daf20	-0.15398836
125	0xbdaf0188	-0.08545214
126	0xbe058199	-0.13037719
127	0xbd9525bd	-0.07282589

features.1.running_mean f4 [128]
0	0x3cf67ce1	0.030088844
1	0xbdd39470	-0.103310466
2	0x3db7fa10	0.089832425
3	0x3eaeff3f	0.34179112
4	0xbe53d201	-0.20685579
5	0xbe377ed7	-0.1791948
6	0x3e3c5dfa	0.18395224
7	0x3e8d1f6b	0.27563033
8	0xbdb8d6f2	-0.090253726
9	0x3d0848ff	0.03327274
10	0x3e2516ff	0.16122054
11	0xbdce277e	-0.10066126
12	0x3e5a0569	0.21291126
13	0x3e501106	0.20318994
14	0xbcf16010	-0.029464751
15	0xbe21bae5	-0.15793951
16	0xba394a40	-0.0007068254
17	0x3dfbff59	0.12304563
18	0xbec69eec	-0.38793123
19	0x3e77eafe	0.24210736
20	0x3ccc449f	0.024935065
21	0xbe867849	-0.26263645
22	0x3e406af9	0.18790807
23	0x3e5c31aa	0.2150332
24	0xbdafa258	-0.085758865
25	0xbe5dbbbe	-0.21653649
26	0x3e6e5371	0.23274018
27	0x3d531af6	0.051539384
28	0xbd99ea8d	-0.0751544
29	0xbeab952f	-0.33512256
30	0xbd4cc436	-0.04999181
31	0xbe8cc179	-0.27491358
32	0x3ec3e729	0.382623
33	0xbd9bf4f0	-0.076150775
34	0xbe56cdfb	-0.20977013
35	0xbe10d1f8	-0.14142597
36	0xba48f295	-0.0007665542
37	0xbd9c8bca	-0.0764385
38	0xbe69995e	-0.22812411
39	0xbe85cf83	-0.2613488
40	0xbd776826	-0.060402058
41	0xbea83234	-0.32850802
42	0xbdf90023	-0.12158229
43	0xbe5541cc	-0.20825881
44	0xbd8b0300	-0.067876816
45	0x3def9510	0.11698353
46	0xbe2656fb	-0.16244118
47	0x3e4fd99a	0.20297852
48	0xbe97f976	-0.2968251
49	0xbe44fba4	-0.19236618
50	0xbeb80a2b	-0.35945258
51	0x3d16557d	0.03670262
52	0x3e50c0fe	0.2038612
53	0x3d2d0528	0.042241246
54	0xbe1af78b	-0.15133493
55	0xbc56f0c9	-0.013118931
56	0x3e0027c1	0.12515165
57	0xbe12bc05	-0.14329536
58	0xbe82001f	-0.25390717
59	0xbd9cb534	-0.07651749
60	0x3e6452a3	0.22297148
61	0xbd935622	-0.07194163
62	0xbd692f9f	-0.05693018
63	0xbe0bbad4	-0.13645488
64	0xbbc7d7f2	-0.0060987407
65	0xbe5e992a	-0.21738115
66	0xbd0b92f8	-0.034075707
67	0xbe68736e	-0.22700283
68	0xbe3453c4	-0.17610079
69	0x3d143be5	0.036189932
70	0xbe9aa353	-0.30202731
71	0xbdf8e693	-0.121533535
72	0xbe451812	-0.19247463
73	0xbeae0ebe	-0.33995622
74	0x3db155a2	0.08658911
75	0x3dfdf1bc	0.12399623
76	0x3cfed442	0.031107072
77	0xbe891b02	-0.26778418
78	0x3d9a279e	0.07527088
79	0x3ea84cc9	0.32871082
80	0xbe9ad0e4	-0.30237496
81	0x3c8db807	0.017299665
82	0xbe6150a0	-0.22003412
83	0xbd8f1c34	-0.06987801
84	0xbd0ebc78	-0.034847707
85	0xbd5ad501	-0.053425793
86	0xbdf7bb90	-0.120963216
87	0x3e06bf02	0.13158801
88	0x3e02ffc3	0.12792878
89	0x3ea4819f	0.32130143
90	0xbec12008	-0.3771975
91	0xbdd4694e	-0.10371648
92	0xbe2a329e	-0.16620871
93	0xbeb5a55e	-0.35477728
94	0x3eaf4951	0.34235623
95	0x3cbbba19	0.022915887
96	0xbdc513a0	-0.09622884
97	0xbe5fcafe	-0.21854779
98	0xbdcc1f14	-0.09966865
99	0xbddd2405	-0.10797886
100	0x3db7d8cf	0.089769
101	0x3d799d56	0.060941063
102	0xbe7230ba	-0.236514
103	0xbcfe43f8	-0.03103827
104	0xbe332272	-0.17493609
105	0x3f0ba063	0.54541606
106	0xbde8eaa2	-0.11372878
107	0x3e94edec	0.2908777
108	0x3e11f18f	0.14252304
109	0xbdc638a1	-0.0967877
110	0xbe46aa14	-0.19400817
111	0xbe83a5a8	-0.25712323
112	0x3e17a52d	0.14809103
113	0xbdc910f3	-0.09817686
114	0x3d55bfb1	0.052184764
115	0xbdbf0613	-0.093273304
116	0xbe502ab8	-0.20328796
117	0x3e94e1c8	0.29078507
118	0xbcacc15f	-0.0210883
119	0xbe0700ab	-0.13183849
120	0x3d343313	0.04399402
121	0x3c91dcc4	0.017805465
122	0x3ddec363	0.10877111
123	0xbd9e647c	-0.077340096
124	0xbe8ea162	-0.278575
125	0xbd99fea6	-0.075192735
126	0xbeaccd23	-0.33750257
127	0xbb4a3bb1	-0.0030858333

features.1.running_var f4 [128]
0	0x3de7c7a0	0.11317372
1	0x3dceaa22	0.10091044
2	0x3db90965	0.09034995
3	0x3d31837a	0.043338276
4	0x3dfb7f5f	0.122801535
5	0x3d9b9b1a	0.07597943
6	0x3e15e0c7	0.14636527
7	0x3da1c16e	0.07898222
8	0x3dabcba3	0.0838845
9	0x3d4d0ec7	0.05006292
10	0x3ca05742	0.019572858
11	0x3c85db43	0.016339904
12	0x3d0ec561	0.034856204
13	0x3d4a6d4f	0.04942065
14	0x3d53fbc1	0.051753763
15	0x3cf4d3ea	0.029886205
16	0x3cc62c36	0.024191003
17	0x3dbcd19e	0.09219669
18	0x3c5c1136	0.013431838
19	0x3d63b43d	0.05559181
20	0x3c58d25e	0.013233749
21	0x3d15810f	0.036500033
22	0x3c836162	0.016037647
23	0x3c29ba25	0.010359322
24	0x3cfe3521	0.031031193
25	0x3d5489a1	0.051889066
26	0x3c7b4d6a	0.015338281
27	0x3d8d1408	0.06888586
28	0x3d7c677b	0.061622124
29	0x3cb47e6b	0.022032937
30	0x3db61d72	0.08892335
31	0x3c92f493	0.017938888
32	0x3dc5af23	0.09652545
33	0x3c996d2a	0.018728811
34	0x3d36fe76	0.044676267
35	0x3d818719	0.06324596
36	0x3d0cfacb	0.034418862
37	0x3e3845d1	0.17995383
38	0x3cc1edc6	0.02367295
39	0x3da10da5	0.078639306
40	0x3cc2198e	0.023693826
41	0x3e317b84	0.17332274
42	0x3e21028b	0.15723626
43	0x3d0419f1	0.032251302
44	0x3b499ded	0.0030764297
45	0x3d4f33df	0.050586578
46	0x3dd161c3	0.10223725
47	0x3c54ca00	0.012987614
48	0x3ce500f0	0.027954549
49	0x3dea62bc	0.11444613
50	0x3d9a3144	0.07528928
51	0x3c06e93f	0.008234321
52	0x3cd87987	0.026425136
53	0x3c0e776f	0.008695467
54	0x3d525e43	0.051359426
55	0x3cc8011f	0.024414597
56	0x3d714fdf	0.05891406
57	0x3e3693d9	0.17829837
58	0x3e129833	0.14315872
59	0x3d528e65	0.05140533
60	0x3d371a2f	0.044702705
61	0x3cd734cb	0.02627029
62	0x3d00b677	0.031424012
63	0x3c11ce3c	0.008899268
64	0x3d9b3fd3	0.07580533
65	0x3d1a9e42	0.037748583
66	0x3ca5c8ec	0.020237409
67	0x3d00b760	0.03142488
68	0x3dacec0e	0.08443461
69	0x3d0c4725	0.034247536
70	0x3e5c76d8	0.2152971
71	0x3ccef09a	0.025261212
72	0x3c91e8e9	0.017811256
73	0x3d92c68b	0.07166775
74	0x3bcb40e9	0.0062028063
75	0x3cebbc8b	0.028776428
76	0x3c2d6326	0.010582721
77	0x3cc8f3dc	0.024530344
78	0x3cf175bb	0.029475084
79	0x3d8d0cae	0.06887184
80	0x3cdb6f04	0.026786335
81	0x3c628799	0.013826274
82	0x3cc1f81d	0.02367788
83	0x3c5deca4	0.013545189
84	0x3e053c87	0.1301137
85	0x3c9e8928	0.01935251
86	0x3d75d84a	0.060020722
87	0x3ca573db	0.020196846
88	0x3e25f154	0.1620534
89	0x3dd5024e	0.1040083
90	0x3cf8e23b	0.030381313
91	0x3da72155	0.081606545
92	0x3d1a24a9	0.037632618
93	0x3d238ded	0.039930273
94	0x3db31181	0.08743573
95	0x3d03b2f4	0.032153085
96	0x3cbf78cb	0.023373028
97	0x3d872e18	0.066005886
98	0x3c619227	0.013767756
99	0x3c9e99ab	0.019360384
100	0x3d3e7456	0.046497665
101	0x3d296064	0.04135169
102	0x3cec89bb	0.028874269
103	0x3c39a7b2	0.011331486
104	0x3c2ebf03	0.010665658
105	0x3d8236f2	0.06358136
106	0x3d2dbb8b	0.042415183
107	0x3d144265	0.03619613
108	0x3cdf6a7d	0.027272457
109	0x3c2a9243	0.010410848
110	0x3c4ae28f	0.012383117
111	0x3da4ba23	0.08043315
112	0x3d9fadaa	0.07796796
113	0x3c2de55d	0.0106137665
114	0x3cdace3e	0.026709672
115	0x3e0b8d54	0.13628131
116	0x3d24f2ff	0.0402708
117	0x3c77bbf3	0.015120494
118	0x3d3da1fc	0.04629706
119	0x3cb0c2aa	0.021577198
120	0x3cfb58da	0.030682016
121	0x3c963c14	0.018339194
122	0x3d342c4f	0.04398757
123	0x3c1f1938	0.009710602
124	0x3df85a81	0.12126637
125	0x3d8fdefd	0.070249535
126	0x3e7bdfcb	0.24597089
127	0x3ce3a40f	0.02778819

features.3.weight f4 [64, 128]
0	0xbd42d0d3	-0.04756243
1	0xbd2c5989	-0.042077575
2	0xbc470410	-0.012146965
3	0x3cde0db9	0.027106153
4	0x3d4930a4	0.049118653
5	0x3d7c82bd	0.06164812
6	0xbe0c8707	-0.13723384
7	0xbc2b6697	-0.010461471
8	0x3c9e55cf	0.019328026
9	0xba2ee3c0	-0.00066715106
10	0xbd40451b	-0.046940904
11	0x3d078f67	0.033095744
12	0xbd1e4b5e	-0.038646095
13	0x3d370b89	0.044688735
14	0xbc8056bb	-0.015666356
15	0x3bf04d17	0.0073334086
16	0x3ca637b0	0.020290226
17	0x3e142610	0.14467645
18	0xbd3ad733	-0.045615386
19	0x3d1067bd	0.035255183
20	0xbd829050	-0.06375182
21	0x3e1a1322	0.15046361
22	0xbc6af845	-0.014341419
23	0x3da97bbf	0.08275556
24	0x3d678568	0.05652371
25	0xbe22897c	-0.15872759
26	0x3d6a2806	0.057167076
27	0x3de55f31	0.11199797
28	0x3d8135ec	0.06309113
29	0x3cd769c6	0.026295554
30	0x3dc811a1	0.097689874
31	0x3dc6de29	0.097103424
32	0x3a6c3f23	0.00090120937
33	0x3d66c602	0.05634118
34	0xbd984c90	-0.07436478
35	0x3ddeb1c3	0.10873749
36	0x3e08c1c8	0.13355172
37	0x3dc8d32d	0.098059036
38	0xbc08ebb1	-0.008356974
39	0x3cad37e8	0.021144822
40	0xbdfde17c	-0.12396523
41	0xbcc37be5	-0.023862788
42	0x3ca9c05e	0.02072161
43	0x3d3703c6	0.044681333
44	0xbe66c3b9	-0.225356
45	0x3e02e1a2	0.12781385
46	0x3b123a4d	0.0022312582
47	0xbc750232	-0.014954137
48	0xbd3614ec	-0.044453546
49	0x3d3fb8a2	0.04680694
50	0x3d82fc4b	0.06395777
51	0xbde810dd	-0.113313414
52	0x3d443991	0.047906462
53	0xbd5c4a3a	-0.053781725
54	0x3bcb9817	0.006213199
55	0xbde84848	-0.113419116
56	0x3d9baee0	0.07601714
57	0x3d04be15	0.03240784
58	0xbd165eed	-0.036711622
59	0x3d497ab7	0.049189296
60	0x3d89f342	0.06735851
61	0xbd1daa33	-0.038492393
62	0x3e62e71b	0.22158472
63	0xbd8038fd	-0.0626087
64	0x3deda803	0.11604311
65	0x3c74632f	0.014916225
66	0xbd271684	-0.040792957
67	0xbd095c4c	-0.033535287
68	0x3d907c2b	0.07054933
69	0xbc888591	-0.016665252
70	0x3d1009f9	0.03516576
71	0x3bec9952	0.0072204256
72	0xbe31b915	-0.1735576
73	0xbdc1809b	-0.09448358
74	0xbc791fa9	-0.015205302
75	0xbc9292ad	-0.017892206
76	0x3dfdf6f2	0.12400617
77	0x3e0a9d35	0.13536532
78	0xbc39ceb3	-0.011340785
79	0x3cbcc839	0.023044692
80	0x3e216499	0.15761031
81	0xbd56a6b1	-0.052405063
82	0x3e16ca40	0.1472559
83	0xbe528404	-0.20558172
84	0xbce3d6d1	-0.027812393
85	0x3d8a1c2f	0.06743657
86	0xbd713ef1	-0.058897916
87	0xbd50939a	-0.050922014
88	0xbcd5b956	-0.026089352
89	0x3d158001	0.036499027
90	0xbd79b16b	-0.060960215
91	0xbe4303fe	-0.19044492
92	0x3e28da5d	0.16489549
93	0xbcd14e4d	-0.025550032
94	0x3d7f74cf	0.062367257
95	0x3e8a137b	0.26967987
96	0xbc6dc8ef	-0.014513238
97	0x3d4db409	0.050220523
98	0xbd1a041c	-0.037601575
99	0xbd17abf3	-0.037029218
100	0xbdb614f0	-0.08890712
101	0x3dd9287f	0.10603427
102	0x3d865863	0.06559827
103	0x3c767f8d	0.015045059
104	0xbe2d4046	-0.1691905
105	0x3d6c78db	0.057732444
106	0x3ca97876	0.020687323
107	0x3d64ea76	0.055887662
108	0x3d9acc57	0.07558506
109	0xbd06ddee	-0.032926492
110	0xbe050286	-0.12989244
111	0x3db17b11	0.08666051
112	0x3d8ea1b9	0.0696444
113	0xbd40582d	-0.04695909
114	0x3d1e076b	0.038581293
115	0xbdc3eaa0	-0.095662355
116	0x3e31bc71	0.17357041
117	0xbd9536f2	-0.072858706
118	0x3d2ebc69	0.04266015
119	0xbaf5c43c	-0.0018750499
120	0x3c325bf0	0.010886177
121	0xbe13b540	-0.1442461
122	0x3ca9d4c3	0.020731336
123	0xbe40c5b3	-0.18825416
124	0xbd06c648	-0.03290394
125	0x3d09600c	0.033538863
126	0xba89e3d3	-0.0010520167
127	0x3da99169	0.08279688
128	0xbd36c04a	-0.044616975
129	0xbd3b2484	-0.04568912
130	0x3d749ded	0.059720922
131	0x3d1798a2	0.037010796
132	0xbdb93e2a	-0.0904506
133	0x3c725b7a	0.0147923175
134	0xbde49d0b	-0.11162766
135	0x3da9af84	0.0828543
136	0xba0df5cf	-0.00054153515
137	0x3c9ffbaf	0.019529192
138	0x3df0784f	0.11741697
139	0xbd19d55a	-0.037556984
140	0xbdb77df9	-0.08959574
141	0x3c236016	0.009971639
142	0xbdfad2fc	-0.12247273
143	0xbe0fdeaa	-0.14049783
144	0x3d998f6b	0.07498058
145	0xbc04868f	-0.008088722
146	0x3ca9a5f0	0.020709008
147	0x3c518226	0.012787377
148	0x3e478141	0.194829
149	0xbdfb465e	-0.12269281
150	0x3da2cbff	0.079490654
151	0xbe428c5c	-0.18998855
152	0x3d8e0b58	0.069357574
153	0xbe160788	-0.1465131
154	0x3e26eec1	0.16302015
155	0xbd827b7b	-0.06371208
156	0xbdf9495a	-0.12172194
157	0x3c009948	0.007849045
158	0x3db478aa	0.08812077
159	0x3d882ed8	0.0664956
160	0xbd3e7748	-0.046500474
161	0xbe14ceb5	-0.14531977
162	0x3e1d42cd	0.15357514
163	0x3e2b0f8f	0.16705154
164	0x3cc6f2c2	0.024285678
165	0xbd3071c0	-0.04307723
166	0xbd0095ac	-0.03139274
167	0x3c6aa3cf	0.014321282
168	0x3d7e75e4	0.062124148
169	0xbc160f08	-0.009158857
170	0x3c213bf2	0.009840952
171	0x3c003d10	0.007827058
172	0xbd845675	-0.06461803
173	0xbe140062	-0.14453271
174	0xbce7f69a	-0.028315831
175	0x3e5875f6	0.21138749
176	0xbded84ba	-0.11597581
177	0xbcecb5cf	-0.028895287
178	0x3d197903	0.03746892
179	0x3cf67a8c	0.030087732
180	0xbe1c5d1c	-0.15269893
181	0xbd3ef09f	-0.046616193
182	0x3ce14c78	0.027502283
183	0xbe2d51c6	-0.16925725
184	0xbcfa1d31	-0.030531498
185	0x3b923fad	0.004463157
186	0x3b2e708e	0.002661738
187	0xbb795d3f	-0.0038049964
188	0x3d3b3334	0.045703128
189	0x3e04c03c	0.12963957
190	0xbe196681	-0.14980508
191	0xbdc9c272	-0.098515406
192	0xbcb2ea4e	-0.02184024
193	0xbe233967	-0.15939866
194	0xbdff7762	-0.12473942
195	0x3cbbf023	0.022941655
196	0xbd823668	-0.063580334
197	0xbd9ed288	-0.077549994
198	0xbcb2ee52	-0.021842156
199	0x3e2d3697	0.16915356
200	0x3d62ce7f	0.05537271
201	0x3c1b357e	0.009473203
202	0xbba9bb98	-0.0051798336
203	0x3d9b411f	0.0758078
204	0xbe80fa2f	-0.25190875
205	0xbdfa800d	-0.12231455
206	0xbe00d182	-0.12579921
207	0xbd4f9d2a	-0.050686993
208	0xbdf91b27	-0.12163382
209	0xbdf2e0a8	-0.11859256
210	0x3d28149a	0.041035272
211	0xbdafec5d	-0.085900046
212	0x3dbedc64	0.0931938
213	0xbd9eeba6	-0.0775979
214	0xbd90833e	-0.070562825
215	0x3e18a0e0	0.14905119
216	0x3d72dc97	0.059292402
217	0xbc3afc2c	-0.0114126615
218	0xbd686220	-0.056734204
219	0x3d84d30c	0.064855665
220	0x3c3dcb95	0.011584182
221	0x3a8e178d	0.0010840759
222	0xbb62d1ce	-0.0034609917
223	0x3dfd8d1e	0.123804316
224	0xbd87d0b7	-0.06631606
225	0xbd65d9ac	-0.05611579
226	0xbe50a7ee	-0.2037656
227	0xbe7d5f04	-0.24743277
228	0xbe3317e7	-0.17489587
229	0xbdae8c03	-0.08522799
230	0xbd61e3c6	-0.055148862
231	0xbdb5e6c8	-0.08881909
232	0xbd301d67	-0.04299679
233	0xbd9b4eb7	-0.07583373
234	0xbd9655b2	-0.07340564
235	0xbda51e36	-0.08062403
236	0xbc8552cc	-0.016274832
237	0x3daf6c76	0.08565609
238	0x3d1066c2	0.035254247
239	0xbd68a604	-0.05679895
240	0xbdd35cef	-0.1032046
241	0xbda12e4f	-0.07870161
242	0x3e168af3	0.14701442
243	0xbd82b0e3	-0.06381395
244	0xbdcff5a8	-0.10154277
245	0x3dc4864f	0.0959593
246	0xbb89e2e3	-0.004207955
247	0xbdb738a8	-0.08946353
248	0xbdc8131b	-0.09769269
249	0xbe4890c7	-0.19586478
250	0x3b7e40c5	0.003879593
251	0x3c4b4f1c	0.012408998
252	0xbca659ee	-0.020306554
253	0xbd675ded	-0.05648606
254	0xbd8523bb	-0.06500956
255	0x3dd1f23b	0.1025128

features.3.bias f4 [64]
0	0x3cb0f926	0.021603178
1	0xbd032312	-0.032015868
2	0xbd6b836a	-0.057498373
3	0xba116134	-0.00055457954
4	0x3dab3d3e	0.083612904
5	0xbd323786	-0.043509983
6	0x3d82bb34	0.063833624
7	0x3bc4a8f3	0.0060015856
8	0x3c7778cc	0.015104484
9	0x3d94ec51	0.07271636
10	0xbca7508a	-0.020424146
11	0xbbe2fc0b	-0.0069270185
12	0x3d6f625e	0.05844342
13	0x3d7f15e7	0.062276747
14	0x3d8f6552	0.07001747
15	0x3cdb7f0f	0.026793985
16	0x3da62e16	0.08114259
17	0x3d22f7f4	0.039787248
18	0xbd641d4d	-0.055692006
19	0xbd8575c9	-0.06516606
20	0xbd2b258e	-0.04178386
21	0xbd51fbec	-0.051265642
22	0xbd9d729c	-0.07687876
23	0xbda3adca	-0.07992132
24	0xbcff9d9f	-0.03120309
25	0x3ce8e049	0.02842726
26	0x3d26b599	0.04070053
27	0xbd060d79	-0.032727692
28	0x3d605e8a	0.05477766
29	0xbd606277	-0.054781403
30	0xbd8b696b	-0.06807216
31	0x3d87f6fe	0.06638907
32	0x3d2655b3	0.040609073
33	0xbd86d0f0	-0.065828204
34	0x3da6bd06	0.08141522
35	0xbd586ff6	-0.05284115
36	0xbd7209f1	-0.059091512
37	0x3d57c68e	0.05267959
38	0x3cd83f15	0.026397267
39	0xbd3b37d0	-0.045707524
40	0xbc53d25c	-0.012928572
41	0xbd3907c8	-0.045173436
42	0x3d15380c	0.036430404
43	0xbb296449	-0.0025847128
44	0xbba94560	-0.005165741
45	0xbd9f54bb	-0.07779833
46	0x3c1c4c7b	0.009539719
47	0xbd436f88	-0.047713786
48	0x3c8fd954	0.017559685
49	0xbc01d737	-0.007924846
50	0x3d970c56	0.073754
51	0xbcd40f48	-0.025886193
52	0x3cb0b77b	0.021571865
53	0xbd15d1eb	-0.036577147
54	0x3d8de9ed	0.069293834
55	0x3d32fc6a	0.043697752
56	0x3d90405c	0.070435256
57	0xbd422f2b	-0.047408264
58	0xbd8bf3e6	-0.06833629
59	0xbd265b5c	-0.04061447
60	0x3da501e5	0.08057002
61	0x39fe572a	0.00048511598
62	0xbb32f643	-0.0027307428
63	0x3d485dc1	0.048917536

features.4.weight f4 [64]
0	0x3f84dd27	1.037999
1	0x3f7fa924	0.99867463
2	0x3f56135f	0.8362331
3	0x3f490774	0.78527
4	0x3f6a2c45	0.914738
5	0x3f7d7f80	0.99022675
6	0x3f6ff13b	0.93727463
7	0x3fa21640	1.266304
8	0x3f82c503	1.0216373
9	0x3f989cbb	1.192283
10	0x3f8ab425	1.0836226
11	0x3f61ca1a	0.8819901
12	0x3f8167fb	1.0109857
13	0x3fa01262	1.250561
14	0x3f89bfb9	1.0761634
15	0x3f695517	0.9114546
16	0x3f71251d	0.94197255
17	0x3f450abc	0.76969504
18	0x3f57fabd	0.8436697
19	0x3f7fda72	0.99942696
20	0x3f7c7258	0.98611975
21	0x3f85885e	1.0432241
22	0x3f5c6d74	0.8610451
23	0x3f7169ff	0.9430236
24	0x3f96b531	1.1774045
25	0x3f7e0309	0.9922338
26	0x3f724028	0.94629145
27	0x3f64648c	0.8921592
28	0x3f8f698d	1.1204087
29	0x3f61e78c	0.8824394
30	0x3fa28ec7	1.2699822
31	0x3f47d079	0.7805248
32	0x3f5c46a2	0.8604528
33	0x3f5d7d90	0.8651972
34	0x3f790f18	0.97288656
35	0x3f8bd146	1.092324
36	0x3f8b4db0	1.0883083
37	0x3f78d895	0.9720548
38	0x3f8977d0	1.0739689
39	0x3f70211d	0.93800527
40	0x3f82bb9f	1.0213507
41	0x3f7ded43	0.9919016
42	0x3f6e32ac	0.9304607
43	0x3f888c92	1.0667899
44	0x3faff26b	1.3745855
45	0x3f5f96c9	0.87339455
46	0x3f9e1895	1.2351252
47	0x3f8ba983	1.0911106
48	0x3f92b3cd	1.1461121
49	0x3f5c06fa	0.85948145
50	0x3f55ec46	0.8356365
51	0x3f6f3835	0.9344514
52	0x3f6ea292	0.9321681
53	0x3f882090	1.0634937
54	0x3f67c270	0.90531063
55	0x3f717a2a	0.9432703
56	0x3f7f6dfd	0.99777204
57	0x3f852cdf	1.0404319
58	0x3f954c07	1.1663827
59	0x3f6dfc42	0.9296304
60	0x3f7b4a2f	0.9816007
61	0x3f8d5514	1.1041589
62	0x3f67283a	0.90295756
63	0x3f5ddb32	0.8666259

features.4.bias f4 [64]
0	0xbc3f4745	-0.011674707
1	0xbdd4112f	-0.1035484
2	0xbddb9407	-0.10721593
3	0xbdbb4dea	-0.0914572
4	0xbddfbf64	-0.10925177
5	0xbe7d9439	-0.24763574
6	0xbe397dfc	-0.18114465
7	0xbec15500	-0.37760162
8	0xbd40f5a2	-0.047109254
9	0xbe0df85b	-0.13864271
10	0xbde510fd	-0.11184881
11	0xbe10c033	-0.14135818
12	0xbd49973d	-0.049216498
13	0xbe01e9a5	-0.12686785
14	0xbc2fc80c	-0.010728847
15	0xbd041671	-0.032247964
16	0xbdcb8db6	-0.099391386
17	0x3daf4560	0.08558154
18	0xbdc6969f	-0.096966974
19	0xbd639056	-0.05555757
20	0xbc07835f	-0.008271067
21	0xbe449f4a	-0.19201389
22	0xbd97c9cd	-0.07411537
23	0xbda2d04c	-0.07949886
24	0xbe1656e8	-0.1468159
25	0xbe1d7d6f	-0.1537988
26	0xbdb6830e	-0.089117154
27	0xbdd65f9c	-0.10467455
28	0xbe189b3d	-0.14902969
29	0xbe0184c3	-0.12648301
30	0x3d969b27	0.07353812
31	0xbe07e17a	-0.13269606
32	0xbd39f612	-0.045400687
33	0xbd60a9e7	-0.05484953
34	0x3dc50a86	0.09621148
35	0xbd56f665	-0.052481074
36	0x3d084f85	0.03327896
37	0xbcbfd1d4	-0.023415484
38	0xbe47c64c	-0.19509238
39	0xbc902d7e	-0.017599817
40	0xbe1969b6	-0.14981732
41	0xbe732f93	-0.23748617
42	0xbcda4ef2	-0.026648972
43	0xbddd6963	-0.108111165
44	0xbddc8456	-0.107674286
45	0xbdbdddcc	-0.0927082
46	0xbd4e359f	-0.050344106
47	0xbd925ef3	-0.071470164
48	0x3d5481b8	0.051881522
49	0xbcf6e8b7	-0.030140264
50	0xbd6f9cad	-0.058499027
51	0xbe2dc7ca	-0.16970745
52	0xbd06140c	-0.032733962
53	0xbe9c55b9	-0.3053415
54	0xbe6a32d8	-0.22870958
55	0xbe1d4d7c	-0.15361589
56	0xbdea8006	-0.114502
57	0x3c8b83ed	0.01703068
58	0xbe608fe4	-0.2192989
59	0xbe016dd6	-0.12639555
60	0xbd1719fb	-0.03689001
61	0x3da52847	0.08064323
62	0xbd8a60bb	-0.06756731
63	0xbd9d6873	-0.07685938

features.4.running_mean f4 [64]
0	0x3de90fea	0.113799885
1	0xbf2f2d08	-0.6842809
2	0xbee1db52	-0.4411264
3	0xbe2bfd5c	-0.16795868
4	0xbe08b275	-0.13349326
5	0xbe0b928d	-0.13630123
6	0x3f0295fc	0.5101011
7	0xbe69f377	-0.2284678
8	0xbea9c1df	-0.33155724
9	0x3e03ff2e	0.12890312
10	0xbe02e52d	-0.12782736
11	0xbe049ba1	-0.12949993
12	0xbe21a5ef	-0.15785955
13	0x3fa3278d	1.2746445
14	0x3ec3e8bb	0.38263497
15	0xbe8903a0	-0.26760578
16	0xbf24fb99	-0.6444641
17	0xbd501b1f	-0.050807115
18	0x3c8957e5	0.016765544
19	0xbc1f928c	-0.009739529
20	0xbea18fd6	-0.3155505
21	0xbe089fa8	-0.13342154
22	0xbe6a09b3	-0.22855262
23	0xbf03a672	-0.5142585
24	0x3eff77b0	0.49896002
25	0x3f2779a1	0.65419966
26	0x3e86d269	0.26332405
27	0xbefb4a71	-0.49080232
28	0x3eb871d7	0.36024353
29	0x3dfadd21	0.12249208
30	0xbf3c19ec	-0.73477054
31	0x3e2aa60c	0.16664904
32	0xbe2b41f2	-0.16724375
33	0xbe2e3feb	-0.1701657
34	0xbe543dba	-0.20726672
35	0xbe9e5844	-0.30926716
36	0xbf316bbb	-0.6930501
37	0xbea4302c	-0.32068002
38	0xbd92e16f	-0.07171904
39	0xbdf850c9	-0.121247835
40	0xbcf16a27	-0.029469563
41	0xbf2a3fe4	-0.6650374
42	0x3d9e8085	0.07739357
43	0x3b41fe77	0.0029601136
44	0xbe793257	-0.2433561
45	0x3df0c44b	0.1175619
46	0xbc49f6a1	-0.012326867
47	0x3e5b03b2	0.21388128
48	0xbe5cb2ec	-0.21552628
49	0xbd230014	-0.039794996
50	0xbc2a1929	-0.010381975
51	0xbe915688	-0.2838633
52	0x3e7ebcb7	0.24876676
53	0x3f19fdab	0.6015269
54	0x3d6cb7be	0.057792418
55	0xbe23da13	-0.16001157
56	0x3e874ac9	0.26424244
57	0xbd8258ca	-0.063645914
58	0xbea8464f	-0.3286614
59	0xbcaa52fd	-0.020791525
60	0x3d40ac44	0.047039285
61	0xbf3839e3	-0.7196333
62	0x3e3d1dc7	0.1846839
63	0xbda52e03	-0.08065417

features.4.running_var f4 [64]
0	0x3fa6cc87	1.3031167
1	0x3f2c36e3	0.6727125
2	0x3f818aeb	1.0120519
3	0x3fc81683	1.563187
4	0x3f2b9134	0.6701844
5	0x3f1436f6	0.57896364
6	0x3ec700f8	0.38867927
7	0x406e5e90	3.7245216
8	0x3fd4c386	1.6622169
9	0x3eebf87e	0.46088022
10	0x3f2944e3	0.6612074
11	0x3ff92486	1.9464271
12	0x3ffe30a5	1.9858595
13	0x3f2b916a	0.6701876
14	0x3ec85f5f	0.39135262
15	0x3f886393	1.0655388
16	0x3e672791	0.22573687
17	0x3fb8fe35	1.4452578
18	0x3fdfa900	1.747345
19	0x3e7e7b92	0.24851826
20	0x3f8bc9a1	1.0920907
21	0x3ec16541	0.37772563
22	0x4030a202	2.7598882
23	0x3e086625	0.13320215
24	0x3e7d63e9	0.24745144
25	0x3ee62bab	0.4495519
26	0x3ec56a05	0.3855745
27	0x3f4fb939	0.81142
28	0x3ebcd058	0.36877704
29	0x3f1506df	0.5821361
30	0x3ed2f84a	0.41205055
31	0x3fd300eb	1.6484655
32	0x3f884017	1.0644559
33	0x3fd45289	1.6587688
34	0x405743c8	3.363512
35	0x3f98f4f1	1.194975
36	0x3edf22fe	0.43581384
37	0x3f2e3349	0.68047005
38	0x3e9bcdef	0.30430552
39	0x3f819073	1.0122207
40	0x3ee68f2c	0.45031106
41	0x3f9257d9	1.1433059
42	0x3f4c3e8a	0.7978293
43	0x3eec0b62	0.46102434
44	0x3e07fd6d	0.13280268
45	0x4077143d	3.8606102
46	0x3ef8e92c	0.48615396
47	0x3f37b989	0.7176748
48	0x3e169c18	0.14707983
49	0x3f3ce5b3	0.73787993
50	0x3f1461e7	0.5796189
51	0x3fa6b113	1.3022789
52	0x3e97a5f0	0.29618788
53	0x3edd91b8	0.43275237
54	0x3f612330	0.87944317
55	0x3f0f46f7	0.5596766
56	0x3e8387de	0.25689596
57	0x3fe18826	1.7619674
58	0x3ec02c6b	0.37533888
59	0x3f0dc74b	0.5538222
60	0x3f8fa3f4	1.122191
61	0x3fe94d50	1.8226719
62	0x4012164b	2.2826107
63	0x3f82283e	1.0168531

features.6.weight f4 [32, 64]
0	0x3d8bcc1b	0.068260394
1	0xbe11cdb2	-0.14238623
2	0x3d840a83	0.064473175
3	0x3e2385a4	0.15968949
4	0x3e0ae4c9	0.13563837
5	0xbcb1a17a	-0.021683443
6	0xbd5c8d44	-0.05384566
7	0xbe039752	-0.12850693
8	0x3de63c75	0.11242
9	0xbe5e4f8e	-0.21710035
10	0xbe904778	-0.28179526
11	0xbd6a73fa	-0.05723951
12	0xbda5e183	-0.080996536
13	0xbe47af03	-0.19500355
14	0x3d467ce6	0.048458956
15	0xbd29b9fe	-0.04143714
16	0x3de89f8a	0.11358555
17	0x3c4ea7f0	0.012613282
18	0x3cef61c9	0.029221432
19	0x3d8494d5	0.064737
20	0x3d3d46ef	0.046210226
21	0xbda40520	-0.0800879
22	0x3c2f7e64	0.010711286
23	0x3c9393f0	0.018014878
24	0xbe6318df	-0.22177456
25	0xbd7a9882	-0.0611806
26	0x3d9f50d8	0.077790916
27	0x3d5b0e87	0.05348065
28	0x3e515c90	0.20445466
29	0x3d4ce85d	0.050026286
30	0x3e2a60d4	0.166385
31	0xbcfdd33f	-0.030984519
32	0x3cd95139	0.026527988
33	0x3c565147	0.0130809015
34	0x3d50d364	0.050982848
35	0x3d2a1a89	0.041529212
36	0xbe0b51f3	-0.1360548
37	0x3dd7a550	0.10529578
38	0xbd02c8d7	-0.031929817
39	0x3e3ca572	0.18422487
40	0xbd38109b	-0.04493771
41	0xbdc48abf	-0.09596776
42	0x3d7a59c0	0.06112075
43	0xbd3e1f46	-0.046416543
44	0xbd4810f1	-0.04884428
45	0xbdf3e69a	-0.11909218
46	0x3d54b5ef	0.051931318
47	0xbe49471e	-0.19656035
48	0xbd8ea58b	-0.069651686
49	0x3bb45b43	0.0055040433
50	0xbd4907b6	-0.04907962
51	0xbc7102c9	-0.014710137
52	0xbd2ead77	-0.042645898
53	0x3e979827	0.2960827
54	0x3d613548	0.054982454
55	0xbd9c4a3d	-0.07631347
56	0x3dced234	0.10098687
57	0xbde65e9e	-0.112485155
58	0xbd875c6f	-0.06609427
59	0xbdaf9252	-0.0857283
60	0xbd6c7d21	-0.05773652
61	0x3ded1e62	0.11578061
62	0x3d7405d7	0.05957588
63	0xbc472f34	-0.01215725
64	0x3e0e1a52	0.13877228
65	0xbdfbe1c0	-0.12298918
66	0x3d9fddae	0.07805954
67	0x3c324e50	0.010882929
68	0x3d60974c	0.054831788
69	0xbd276e1e	-0.0408765
70	0x3d62c06a	0.05535928
71	0xbe5ef351	-0.21772505
72	0xbe083798	-0.13302457
73	0x3e084412	0.13307217
74	0xbc1863ee	-0.009301169
75	0xbd46a3d8	-0.048496097
76	0x3daf0648	0.0854612
77	0xbd8a65b5	-0.0675768
78	0xbd84fa67	-0.06493073
79	0xbdf069f9	-0.11738963
80	0xbb71d289	-0.003689917
81	0xbd0ab755	-0.033866245
82	0x3dc2ea69	0.095173664
83	0x3c1562cc	0.009117793
84	0x3ccea343	0.025224334
85	0x3db26577	0.08710759
86	0xbdc52be1	-0.0962751
87	0x3dd29dc7	0.10284
88	0x3e828fc2	0.25500304
89	0xbdb10e13	-0.086452626
90	0xbd3ae6cc	-0.04563026
91	0x3d9c5b38	0.07634586
92	0x3da034c0	0.07822561
93	0xbc5a7e89	-0.013335832
94	0x3e497aa9	0.19675697
95	0x3d91cf21	0.07119585
96	0x3d83bfe0	0.064330816
97	0x3dcedd1c	0.10100767
98	0xbe1b7817	-0.1518253
99	0x3e2ca904	0.1686135
100	0xbd85cb48	-0.065329134
101	0x3d2a4874	0.041573003
102	0xbd2d2d0b	-0.042279284
103	0x3c2fb195	0.010723491
104	0x3d9c6d78	0.07638067
105	0xbcb95475	-0.02262328
106	0x3d056d91	0.032575194
107	0x3d84d12d	0.064852096
108	0xbcef0b11	-0.029180082
109	0xbd8ca60f	-0.06867611
110	0x3e593330	0.21210933
111	0x3e8218cf	0.25409552
112	0xbd9adf6c	-0.075621456
113	0x3a2a53d3	0.0006497476
114	0x3e06fe77	0.13183008
115	0x3e09bfbd	0.13452049
116	0x3c2e073f	0.010621845
117	0xbc631db3	-0.013862061
118	0x3e0e9a46	0.13926038
119	0x3d10bd05	0.035336513
120	0xbda405c4	-0.08008912
121	0xbde7ac45	-0.11312155
122	0x3e10b049	0.14129747
123	0x3dc81647	0.09769874
124	0xbc8d2302	-0.017228607
125	0xbd1633c0	-0.036670446
126	0xbd30dc50	-0.043178856
127	0xbd9bce41	-0.07607699
128	0xbd70dcfb	-0.058804493
129	0x3e40f4c0	0.18843365
130	0xbd8372ba	-0.06418367
131	0x3dace1f7	0.08441537
132	0x3dcfd992	0.1014892
133	0x3d5cd848	0.0539172
134	0x3bffefa7	0.007810551
135	0xbd3dba09	-0.046319995
136	0xbb672229	-0.0035268164
137	0xbda7c019	-0.081909366
138	0xbd0a27a9	-0.03372923
139	0x3d0f7852	0.035026856
140	0x3d56bd93	0.052426886
141	0x3e48974a	0.19588962
142	0xbcb99787	-0.022655262
143	0x3dae45c8	0.085094035
144	0x3d832733	0.06403961
145	0x3d6bf349	0.05760506
146	0xbd76710a	-0.060166396
147	0xbd849ebb	-0.06475588
148	0x3d899a97	0.06718939
149	0xbe1a22df	-0.15052365
150	0xbd69b4ea	-0.0570573
151	0x3e38cd54	0.18047076
152	0x3d414c52	0.047191925
153	0x3abcd710	0.0014407355
154	0x3d9765d3	0.07392468
155	0xbe46e734	-0.19424134
156	0xbaa38dcd	-0.0012478173
157	0xbd83c009	-0.06433112
158	0x3ba12e48	0.0049188472
159	0xbdc6e54f	-0.09711706
160	0x3cecf1e9	0.028923946
161	0x3e3941ca	0.18091503
162	0x3b16e35d	0.0023023703
163	0xbd68644f	-0.056736287
164	0xbd238368	-0.03992024
165	0xbd937cb6	-0.07201521
166	0x3e0c3c8d	0.13694973
167	0xbde594ab	-0.11209997
168	0x3c919d16	0.0177751
169	0x3d8de968	0.06929284
170	0x3d4b8b7b	0.049693566
171	0x3e60714a	0.21918216
172	0x3e874287	0.26417944
173	0xbd94bfb5	-0.07263128
174	0xbd1aaf0a	-0.037764587
175	0x3e955300	0.29164886
176	0x3e0f2de6	0.13982353
177	0xbdc02eca	-0.09383924
178	0xbc9a8ac3	-0.018864995
179	0x3db883b5	0.09009496
180	0xbda071d0	-0.07834208
181	0x3cd9e898	0.026600167
182	0xbd8124f7	-0.063058786
183	0x3e0974da	0.13423482
184	0xbe02bd8e	-0.12767622
185	0x3dddeb1c	0.10835859
186	0x3c92c57d	0.017916435
187	0x3ca75047	0.020424021
188	0x3e2b5c32	0.16734388
189	0xbe0810a0	-0.13287592
190	0x3a4f9344	0.00079183676
191	0xbc4aca62	-0.012377353
192	0xbdd52a45	-0.10408453
193	0xbde68f32	-0.11257781
194	0x3dab45bf	0.083629124
195	0xbe1a8ae9	-0.15092053
196	0xbd41ea4f	-0.047342595
197	0x3bd585f9	0.006516215
198	0xbdb998fe	-0.09062384
199	0x3eb94856	0.36188
200	0xbbf75769	-0.007548262
201	0x3e3d1dff	0.18468474
202	0x3d864216	0.06555574
203	0x3cd9c131	0.026581379
204	0xbe2169ac	-0.15762967
205	0x3dd6e96b	0.1049374
206	0x3de9ceab	0.11416372
207	0xbc63b880	-0.013898969
208	0x3d922847	0.071365885
209	0x3b67bbc3	0.0035359717
210	0x3dbe63f6	0.0929641
211	0xbe313afb	-0.17307656
212	0xbc729605	-0.014806275
213	0x3d9ea674	0.07746592
214	0xbd6a450b	-0.05719475
215	0x3c6eedc0	0.014583051
216	0xbd46cb3d	-0.048533667
217	0x39205486	0.00015290276
218	0xbe1ed92c	-0.15512532
219	0x3bece9f3	0.0072300374
220	0x3ddce8f5	0.107866205
221	0xbe149874	-0.14511281
222	0x3c9bff17	0.019042535
223	0xbd145ea8	-0.036223084
224	0xbd996f96	-0.074919865
225	0xbdf58873	-0.11988916
226	0xbce1a20f	-0.027543096
227	0x3d94f947	0.072741084
228	0xbe2ed431	-0.17073132
229	0x3e0f4988	0.13992894
230	0xbeb536ca	-0.35393363
231	0x3d35ebb1	0.044414226
232	0x3e33d618	0.17562139
233	0xbc1ddec7	-0.009635634
234	0xbd1b2fc8	-0.037887365
235	0x3d995712	0.074873105
236	0x3e95d120	0.29261112
237	0x3cd8071a	0.026370574
238	0xbd9c1721	-0.07621599
239	0x3b9fd505	0.004877689
240	0x3dbcdfdd	0.09222386
241	0x3de76514	0.11298576
242	0x3e087105	0.13324364
243	0xbca022d7	-0.019547863
244	0xbd92ef51	-0.07174552
245	0x3e029de6	0.12755546
246	0x3d8f84bf	0.07007741
247	0xbda83d34	-0.082147986
248	0xbd4ecb07	-0.05048659
249	0xbdf49ac3	-0.11943581
250	0x3d3700a5	0.04467835
251	0x3d4c1128	0.04982105
252	0x3d1a73c9	0.037708078
253	0x3c92dfc4	0.017928965
254	0x3e190e5c	0.14946884
255	0x3de9bfe7	0.114135556

features.6.bias f4 [32]
0	0xbdf3d698	-0.11906165
1	0x3c975745	0.01847423
2	0xbdaa5401	-0.08316804
3	0xbd03324e	-0.032030396
4	0xbc5b42e5	-0.013382648
5	0x3defad50	0.117029786
6	0xbdb8c0bf	-0.090211384
7	0xbd19b598	-0.037526697
8	0xbd78b635	-0.06072064
9	0xbdcbd034	-0.09951821
10	0x3c0a73fb	0.008450503
11	0x3d9e4e96	0.07729833
12	0x3d80b906	0.062852904
13	0x3da177f7	0.078842096
14	0xbde1140a	-0.1099015
15	0x3cd1daff	0.02561712
16	0xbc001300	-0.00781703
17	0x3df42fe8	0.119232
18	0xbc6972dc	-0.014248576
19	0x3dfaa687	0.12238794
20	0xbca1bcbd	-0.019743318
21	0xbdf4d599	-0.11954803
22	0x3dd5cbb3	0.10439243
23	0x3d477826	0.048698567
24	0xbd8377aa	-0.064193085
25	0xbcfdd911	-0.030987294
26	0x3df4d8e2	0.119554296
27	0x3ded11b1	0.1157564
28	0x3df0e4cc	0.117623895
29	0x3c8897a5	0.016673872
30	0x3dcc1cde	0.099664435
31	0x3d952fd1	0.07284511

features.7.weight f4 [32]
0	0x3fb1f96f	1.3904246
1	0x3fa11cef	1.2586955
2	0x3f97fe01	1.1874391
3	0x3fa531fe	1.2905881
4	0x3f95c9a0	1.1702156
5	0x3fa0e738	1.2570562
6	0x3fa7dde3	1.311459
7	0x3f8b7082	1.089371
8	0x3f9df603	1.2340702
9	0x3f9e2094	1.2353692
10	0x3fbd1bad	1.4774071
11	0x3fa8f37b	1.3199304
12	0x3fa03dce	1.2518861
13	0x3fa26c89	1.2689372
14	0x3f99cf44	1.2016377
15	0x3f9f877d	1.2463223
16	0x3f969c33	1.1766418
17	0x3f9f117f	1.2427214
18	0x3fa6be5f	1.3026847
19	0x3fa092e3	1.2544826
20	0x3f97ed9c	1.1869388
21	0x3f9a5eed	1.2060219
22	0x3fa5d24f	1.2954806
23	0x3f997bad	1.1990868
24	0x3fa335be	1.2750776
25	0x3fa21e48	1.2665491
26	0x3fae9489	1.3639079
27	0x3fa4028c	1.2813277
28	0x3fa07839	1.2536689
29	0x3fa392ba	1.2779152
30	0x3f93d34d	1.1548859
31	0x3fa0d116	1.2563808

features.7.bias f4 [32]
0	0x3ea0b95d	0.3139142
1	0x3e0b9800	0.13632202
2	0x3e0b2d2f	0.13591455
3	0x3e078344	0.13233668
4	0x3e3fbd3e	0.18724534
5	0x3e6b3a7a	0.22971526
6	0x3df0d592	0.11759485
7	0x3b8996be	0.004198878
8	0x3e3596de	0.17733333
9	0x3e73264f	0.23745082
10	0xbc9f800c	-0.019470237
11	0x3e8b7b0b	0.27242312
12	0x3e071490	0.13191438
13	0x3e5eb43b	0.2174844
14	0x3e1fe908	0.15616238
15	0x3e92636e	0.28591484
16	0x3e324565	0.17409284
17	0x3e18c017	0.14917026
18	0x3ea69989	0.32539013
19	0x3ea0401e	0.31298918
20	0x3e4ab92b	0.19797198
21	0x3cd22be1	0.025655689
22	0x3e94227c	0.2893256
23	0x3e19fb55	0.15037282
24	0x3d80ccc4	0.06289056
25	0x3e7901ef	0.24317144
26	0x3c99522f	0.018715946
27	0x3e97f093	0.2967573
28	0x3e91b84d	0.28460923
29	0x3e6f50ad	0.23370619
30	0xbdbad4b7	-0.091226034
31	0x3e7fbeaf	0.24975084

features.7.running_mean f4 [32]
0	0xbe3d3deb	-0.18480651
1	0x3e6d8c71	0.23198105
2	0x3e6852a1	0.2268777
3	0x3db54725	0.0885146
4	0xbdb65d08	-0.08904463
5	0x3e2ceca1	0.16887142
6	0x3da8da73	0.08244791
7	0xbe919f18	-0.2844169
8	0x3e5577c9	0.20846476
9	0xbe1d8122	-0.15381292
10	0x3e6bf297	0.2304176
11	0x3dc749a8	0.09730846
12	0x3e8f5cf5	0.28000608
13	0x3e647d8b	0.22313516
14	0xbe01c6f4	-0.12673551
15	0xbe6800de	-0.22656581
16	0xbe5594fe	-0.20857617
17	0x3cd79aee	0.026318993
18	0xbd91f765	-0.07127265
19	0xbdbfda66	-0.09367828
20	0x3ccb828d	0.024842525
21	0x3d950807	0.07276922
22	0x3c9c11c6	0.019051444
23	0xbe0a0bd1	-0.1348107
24	0x3d839f37	0.06426852
25	0xbe1053aa	-0.14094415
26	0x3ebaacba	0.36459905
27	0xbdf5e34d	-0.12006245
28	0xbdf061d3	-0.117374085
29	0xbdd793d6	-0.10526244
30	0xbd22cd3f	-0.03974652
31	0x3d1b29e4	0.037881747

features.7.running_var f4 [32]
0	0x3ed2f8fb	0.41205582
1	0x3e85c8ef	0.26129863
2	0x3f77f058	0.9685111
3	0x3dd4355d	0.10361741
4	0x3fa864eb	1.3155798
5	0x3f5cb63e	0.8621558
6	0x3ea10d14	0.3145529
7	0x3ecc138c	0.39858663
8	0x3eb881a7	0.36036417
9	0x3ec030b1	0.3753715
10	0x3e91585d	0.28387728
11	0x3e608d53	0.21928911
12	0x3e8e7352	0.27822357
13	0x3fd81ba2	1.6883433
14	0x3f810615	1.0079981
15	0x3f6adb55	0.91740924
16	0x3ee4c685	0.44682708
17	0x3e10b105	0.14130028
18	0x3ec565e0	0.38554287
19	0x3e61cb81	0.22050287
20	0x3f886dd4	1.0658517
21	0x3e413175	0.18866523
22	0x3e548be8	0.20756495
23	0x3f1c67ee	0.61096084
24	0x3e2065f4	0.15663892
25	0x40083e06	2.1287856
26	0x3e87eafc	0.26546466
27	0x3f070a2d	0.527499
28	0x3efaa0a9	0.489507
29	0x3e1621e1	0.14661361
30	0x3ef8c264	0.48585808
31	0x3ed55f13	0.41674098
