NIDS_attacks/pretrained_models/MLP70x2.400.pt (torch, 96534 bytes, 26 tensors)

features.0.weight f4 [128, 70]
00000000: 92da b13d 869c e6bd 1472 e2bb 8eff 74bf
00000010: 666b 8ebe c21e 81be 8255 a1be 6b44 e1bc
00000020: c3f6 92be ba3e cebe 6de4 33be 9dc6 1c3e
00000030: 4017 38be 219a fdbd 4012 f3be c374 483d
00000040: dbc4 3ebe 80ad f33c 5e0d 403c 4684 0fbf
00000050: b057 4d3d c40e 91be c92c 763d 3fcc 353d
00000060: 38fd f0be abce edbd 43f6 fb3d f53f 033d
00000070: f028 e73d b83d 103c 34be 0cbe 5792 c1ba
00000080: dd02 633e 42bf 49bd b940 99be 9c9e 743e
00000090: 2acf 8ebd 1074 3abc 2a71 40be c28c 17be
000000a0: 9fc1 063c 79d8 503d 11b9 22bd 0bb4 fe3d
000000b0: 81e5 563d 8d1d 7cbd 55c6 b03d ad2a 3bbe
000000c0: d21d 053e bdf5 7b3d 8b1f 96ba 0de9 68be
000000d0: 8f90 cdbd 0080 153e 4fda d3bd bffe 19be
000000e0: b7c0 7cbf ea08 60be 44f7 5c3d e844 0b3e
000000f0: 50a9 21bf d1b6 8c3d 81c5 993d 97d8 9d3d
00000100: e4bb bfbd 5292 723d b10d 0bbe 7e05 0a3d
00000110: c73c 8c3c d865 1bbd 1e45 6cbe 90a0 a03c
00000120: ee1a 3b3f 3f3f a1be 2a4f 0ebe ae13 85be
00000130: 1feb c3bd 02c8 fe3c c877 3a3d 905d a8bd
00000140: 74fb 923d d434 5cbe 14db 023d 5f67 febc
00000150: 2b44 eabd 4272 11be 0c93 773b dc29 33bb
00000160: 53a1 cc3d cadb a53d 33e8 033e 6850 22bd
00000170: 36e8 083e 8319 1f3e f46a 58be 835c 0e3d
00000180: 818a 52bd f36c 933c e509 bcbd e438 9abc
00000190: 3652 5bbd 1ebd a9bd 7ca1 623e 2585 303e
000001a0: ccb6 06be f83d 13bf c2b8 ddbe 2f21 e73d
000001b0: 86a4 06bd c636 8f3d 23db 6dbd fee4 193d
000001c0: 054d 5fbe 8ec4 9fbd 54fb 67bd e625 cf3d
000001d0: 8f21 d4bd ce03 f3bc 9794 25be 65df 7bbe
000001e0: 08f8 26bd 3b06 9abd c07e 073e e037 193e
000001f0: ac11 413f fdef 34be c8d9 3ebe 9e61 18be
00000200: 9a26 eabd 2ef7 92bd c44e bb3e bbe2 70bd
00000210: 244a 94bd 7bdf f23c 17ac 88bd aec4 a0bc
00000220: 2588 7abd 306a 3c3d 3531 a33c f573 fa3d
00000230: 9dc5 1ebd 0692 2abd 0abc 92bf 27f7 b03e
00000240: 4553 283e ec4b 7bbe 349b 863e adb6 d03d
00000250: d558 083e 2ee4 673e a9a7 293d aa4f 8b3d
00000260: 9872 c8bc 5039 f2bb 0a1c 263e cf63 58be
00000270: 6a7c 1abe 37e3 a13d 7a1d 18bc f28f 4dbe
00000280: f9cf 7bbd 7ae4 fe3d bcef b03c 93b2 d0bc
00000290: 4871 953d 95e2 163e dfb6 833d 3008 a43d
000002a0: 5541 823d 81bd afbc dd86 ba3d 56ee 2fbe
000002b0: 0f6d 11be 3d35 6f3d 4604 733e fca3 10bf
000002c0: 8ea1 273e 8c39 1bbe 8bf7 223d 4baf 1bbe
000002d0: 5c14 91bd 821b 54be cc2b d5bd f24a 15bd
000002e0: 568f 04be dad3 0cbc 9f85 613d 842a cabd
000002f0: 2ac6 beba 32ab 023f a0e2 11be bb44 1d3e
00000300: 1123 85bd b459 c4bd 9e91 a5bf f0ac 583d
00000310: 0576 733e c4d6 a2be e934 663e 56c7 93bd
00000320: 7067 38bf 2ab4 20bc 18c9 1abd df90 9cbd
00000330: 1d96 b3bc 6104 b43c 4717 023e 5270 893d
00000340: f7a8 0fbc 0251 2a3d 9a41 a8bd 6f95 7dbc
00000350: dd09 a7bd f706 08bf 09cc 61be 8a23 0abf
00000360: 140d b1bd 048d b3bc 4ecd 403d d21e d0bd
00000370: ea78 453d cfb2 2dbe 3240 253e 166e 7ebc
00000380: fa77 0f3e cca7 f3be 376c c83d 7dd6 f03b
00000390: 801d 0d3e d6d5 203d 9087 4abe 97f0 d03c
000003a0: d200 7c3c 887c acbb 7099 183e 5463 eb3b
000003b0: f35b 203d 2482 a2bd bce3 0fbd 2616 98bc
000003c0: 95e7 93bd 26d5 843d a183 513d aacb 73bd
000003d0: 50f6 19bf 0362 2bbf 30dd f7be ff1c 9ebc
000003e0: 0c7d bf3d ad12 333e a9e9 74bc ffe0 b93d
000003f0: f8fc 93bb 77f9 e3bc c95a 73bd 0ca0 6c3d
0.08684267 -0.11260323 -0.006910572 -0.95702446 -0.27816314 -0.2521878 -0.3151055 -0.027498445
-0.2870389 -0.40282232 -0.17567606 0.1531014 -0.17977619 -0.123829134 -0.4747486 0.048939478
-0.18629782 0.029745817 0.011721937 -0.5606121 0.050132453 -0.28331578 0.060101304 0.044384237
-0.4706819 -0.116116844 0.1230283 0.032043416 0.11287105 0.008803777 -0.13744432 -0.0014768344
0.22169061 -0.049254663 -0.29932192 0.2388863 -0.06973107 -0.0113802105 -0.18793169 -0.14799789
0.008224874 0.050987694 -0.039727274 0.12436684 0.052464966 -0.06155162 0.08631579 -0.18277998
0.12999657 0.06151365 -0.0011453492 -0.22745152 -0.10037338 0.1459961 -0.103443734 -0.15038584
-0.9873156 -0.218784 0.05394675 0.13600504 -0.63148975 0.06870807 0.07508374 0.07707327
-0.09362009 0.059221573 -0.13579442 0.033696644 0.017118825 -0.037938923 -0.23073241 0.019607812
0.73087966 -0.31493565 -0.13897386 -0.25991577 -0.0956633 0.03110123 0.04552439 -0.08220971
0.07176867 -0.21504527 0.03194721 -0.03105515 -0.11438783 -0.14203742 0.0037776856 -0.0027338183
0.09991708 0.08098562 0.12881546 -0.039627463 0.13369831 0.15537076 -0.2113455 0.034756195
-0.05140162 0.017996287 -0.09181575 -0.018825956 -0.0535452 -0.08288024 0.22131914 0.1723829
-0.13155669 -0.5751643 -0.43305022 0.11285626 -0.032871746 0.06992869 -0.058070313 0.0375719
-0.21806724 -0.07801162 -0.05663617 0.101146504 -0.10357963 -0.0296649 -0.16169964 -0.24596937
-0.040763885 -0.075207196 0.13231945 0.14962721 0.7541759 -0.17669673 -0.18637764 -0.14880988
-0.11433144 -0.07176052 0.3658353 -0.058809977 -0.07240704 0.02964758 -0.066734485 -0.019625034
-0.061164994 0.045999706 0.019920925 0.12229148 -0.038762677 -0.041643165 -1.1463635 0.34563562
0.16438015 -0.2454068 0.26290286 0.10191093 0.13315137 0.22645637 0.04141966 0.06802304
-0.024468705 -0.007392086 0.16221634 -0.21131824 -0.15086523 0.07904666 -0.0092843715 -0.20074442
-0.061477635 0.12445922 0.02159869 -0.025475776 0.07296997 0.14734872 0.06431364 0.08009374
0.06360117 -0.021452667 0.091077544 -0.17180762 -0.14201759 0.05840038 0.23732099 -0.5650022
0.16370222 -0.15158671 0.039786857 -0.15203588 -0.07083961 -0.20713618 -0.10408744 -0.036448427
-0.12945303 -0.008595431 0.05505907 -0.098713905 -0.0014554907 0.51042473 -0.14246607 0.1535825
-0.06500829 -0.09587422 -1.2935064 0.0528993 0.2377549 -0.31804478 0.22481121 -0.07215755
-0.72032833 -0.009808579 -0.037789434 -0.076448195 -0.021922166 0.021974744 0.12704192 0.067108765
-0.008768312 0.04158116 -0.082156375 -0.015477522 -0.08156178 -0.5313563 -0.2205049 -0.5396048
-0.086450726 -0.021917827 0.047070794 -0.101621285 0.048211016 -0.16962741 0.1613777 -0.015529176
0.14010611 -0.47588956 0.09786265 0.0073497877 0.13780785 0.03926643 -0.19778275 0.025505347
0.015381055 -0.0052638687 0.14902282 0.0071834717 0.03915019 -0.079349786 -0.035129294 -0.018565249
-0.07221905 0.06485967 0.05115092 -0.0595204 -0.6014147 -0.6694643 -0.4841094 -0.019300936
0.09350023 0.17487593 -0.014948287 0.09076118 -0.00451624 -0.027828915 -0.05941275 0.05776982

features.0.bias f4 [128]
00000000: f76c 3f3d 5dea 7f3d f3ea cc3d ac20 c3bd
00000010: 3f9e 393d 6464 e93c 2217 21ba 9dca 813d
00000020: f9f9 05bd ccb0 a03d eb45 36bc fb74 e1bc
00000030: b465 b438 8b6f d43d 65fd b1bc 6429 24bd
00000040: e528 a53d b449 58bd 41d8 863d c8f4 953c
00000050: 5538 903c 8017 a33d 5dab 963d bd93 3bbd
00000060: 9b1e e3bb e3ed 41bd 749c a73d 5839 91bd
00000070: 4323 83bd dc6b 80bd dd5c aa3d 6a85 453d
00000080: 0fe0 d0bd c493 8dbd 879f 9d3d 93cb a4bd
00000090: 4be3 47bd ced5 f13d 5b7d 3bbd 0969 c8bc
000000a0: 217e 343d b8ca 4e3d 2ad5 ebbc 349f 2f3c
000000b0: 64c2 cabd 2c75 973d 81af d7bc a520 b83c
000000c0: 5756 bbbd e824 853d 759a 04bd 30b8 8a3d
000000d0: cd69 e43d 7f83 3b3b c17a f93c 5c2b 1ebd
000000e0: c258 a7bd ab22 633d 1128 613d 293c 0c3d
000000f0: db17 cdbd 4ce5 d4bd 31d5 663d 7e6c 4c3d
00000100: 5084 603b aabd a83d fc10 61bd 500f c5bd
00000110: 0cb3 a83d ba94 79bd 91fb 3e3d d5d9 9e3d
00000120: a50b 8c3d 7494 aebd 6718 afbd 3695 af3c
00000130: ee6b 4dbd d22b fcbc ee80 4e3d 9fa5 f7bc
00000140: 8f48 b7bc 0a66 f4bd d8ad 9abd 53e8 acbd
00000150: 320b 84bd ddc8 e9bd dbfe b43d 5156 08be
00000160: 5a21 d43b fb7e bb3c 375d b23d 752e 01bc
00000170: b484 a63c 9d7f 1c3d ad21 c93c a5e6 ef3c
00000180: 1689 9c3d 7577 12bc 526f eebd 366d 65bd
00000190: 2918 32bd 2a73 983b 64e2 0e3d 6854 89bd
000001a0: 203f 833d 86f7 6ebd d37f fe3c 4610 e1bb
000001b0: a5d8 9a3c e94d 8bbc c2dc 813c e648 843d
000001c0: 78c8 a63d 9128 e13d f20d cd3d 7251 bdbd
000001d0: b62a e13d 8d5f d7bd 221e 943d ef8e 913b
000001e0: 2fee 853d 6b4a e73d b40f 50bc 1704 b0bd
000001f0: 69bf edbd 6fc0 cbbd 105b d43d 1af7 1b3b
0.046734776 0.062479366 0.100057505 -0.09527716 0.04531693 0.028490253 -0.00061451097 0.063374735
-0.032709096 0.07846221 -0.011125068 -0.027521601 8.6020125e-05 0.10372838 -0.021727273 -0.040078536
0.08064441 -0.052804664 0.06584216 0.018305197 0.017604986 0.07963467 0.07356904 -0.04579519
-0.0069311387 -0.047346007 0.08184138 -0.070910156 -0.0640321 -0.062705725 0.083184935 0.048222937
-0.10198986 -0.0691295 0.07696443 -0.08046641 -0.048800748 0.11808358 -0.045773845 -0.024464147
0.0440656 0.050486296 -0.028788168 0.010719109 -0.09900358 0.07395396 -0.026328804 0.022476504
-0.091473274 0.0650118 -0.032373864 0.06773412 0.111529924 0.0028612313 0.030454041 -0.03861557
-0.08171226 0.055452984 0.05496985 0.03423706 -0.10014316 -0.103952974 0.05635566 0.049908154
0.0034258552 0.082393005 -0.05494784 -0.09622061 0.082372755 -0.060932852 0.04662663 0.07756392
0.068381585 -0.08524409 -0.08549576 0.021433454 -0.050151758 -0.030782614 0.050415926 -0.030230341
-0.022373466 -0.11933525 -0.07552689 -0.0844275 -0.06447448 -0.11415265 0.08837672 -0.13314177
0.0064737024 0.022887697 0.087091856 -0.007884611 0.02032695 0.03820764 0.02455219 0.029284785
0.076433346 -0.008939614 -0.116423264 -0.056012355 -0.043480072 0.0046524005 0.03488387 -0.06705552
0.064085245 -0.058341525 0.03106681 -0.006868395 0.018902132 -0.017004924 0.015852336 0.06459217
0.08143705 0.109940656 0.100124255 -0.0924405 0.109944746 -0.10516272 0.0723231 0.004442088
0.065395705 0.11293491 -0.012699056 -0.0859453 -0.11608774 -0.09948813 0.10368931 0.0023798407

features.1.weight f4 [128]
00000000: 73d6 783f 8299 743f 9f79 883f 340e 743f
00000010: 27ab 923f f9c5 843f 581a 773f 1035 813f
00000020: c0a6 883f 3507 843f b60e 8a3f fe74 883f
00000030: 9822 8e3f 3929 7b3f bc0a 6c3f ffab 673f
00000040: 0913 953f 2d9e d13f 2d89 5e3f bea3 833f
00000050: bf78 8d3f 5899 843f 68c9 843f a324 5f3f
00000060: 1533 5f3f b0d2 803f 32c0 7c3f 5346 5d3f
00000070: bdad 9b3f cf1c 863f 8649 843f ab73 803f
00000080: 7455 863f c518 8a3f 051c 903f 08c0 833f
00000090: 7a63 6a3f cd73 563f 0870 7b3f 1ca8 5e3f
000000a0: 276f 703f 391c 833f fab9 743f eb42 723f
000000b0: 6887 c63f ec59 513f aefd 8f3f d796 5f3f
000000c0: 6097 863f dcba 943f f05e 603f 6b13 733f
000000d0: d10b 763f 223a 843f 2e7c 833f 5d38 7d3f
000000e0: 8d5f 6d3f f7c5 833f 72b2 903f 589b 773f
000000f0: 4712 793f 5e2c 883f 26ff 863f d81a 723f
00000100: 7b00 843f 4dab 7b3f c9d8 893f 2ace 693f
00000110: e27e 683f 1436 6f3f d6e8 773f 2942 823f
00000120: 74bf 5c3f ed90 a13f 9cae 933f 2d8e 863f
00000130: 2b95 5c3f 711b 8c3f a19e 893f 4b00 663f
00000140: fb8d 833f 95c8 813f 0ead 743f 03e4 6b3f
00000150: 0f4b 763f f6f3 683f 053d 953f 4ea4 893f
00000160: ee49 873f 100b a13f 2793 643f 1fa6 783f
00000170: f0cf 703f 4478 b13f 91ac 613f 32ac 8b3f
00000180: b4bf 843f 8880 7d3f 3599 7f3f e71a 8c3f
00000190: aaf8 593f 2b34 5d3f 968a 723f 588f 893f
000001a0: 8f5c 8c3f 5fb1 743f 48f0 7b3f 8f1a 953f
000001b0: 769c 7b3f 1638 843f efef 853f 981a 863f
000001c0: d98d 893f 483e 793f cc6f 823f d010 a53f
000001d0: 0f02 8a3f 601f 8f3f ce35 723f bde1 943f
000001e0: 6e20 c33f dc9a 923f 03ce 7d3f 887b 7a3f
000001f0: b88d 6c3f a73a 613f 9a19 5c3f bc95 833f
0.97202224 0.95546734 1.0662116 0.9533417 1.1458482 1.0372916 0.9652457 1.0094318
1.0675888 1.03147 1.078574 1.0660703 1.1104307 0.98109776 0.9220388 0.9049682
1.1646434 1.6376396 0.86928064 1.0284345 1.1052474 1.0359297 1.0373964 0.8716528
0.8718732 1.0064297 0.98730767 0.8643543 1.2162396 1.0477542 1.0334938 1.0035299
1.0494828 1.0788809 1.1258551 1.0292978 0.9155804 0.8377045 0.9821782 0.86975265
0.93919605 1.0242988 0.9559628 0.9463336 1.5510073 0.81777835 1.1249292 0.8733954
1.0514946 1.1619525 0.87644863 0.94951504 0.9611178 1.0330241 1.0272272 0.9891413
0.92723924 1.0294789 1.1304457 0.9672141 0.97293514 1.063854 1.0546615 0.9457221
1.0312647 0.9830826 1.0769283 0.91330206 0.9081861 0.9344189 0.96839654 1.017644
0.86229634 1.2622353 1.1537662 1.0512139 0.8616511 1.0945874 1.0751535 0.898442
1.0277704 1.0139338 0.9557656 0.92144793 0.9620828 0.90997255 1.1659247 1.0753267
1.0569437 1.2581501 0.89287037 0.9712848 0.9406729 1.3864827 0.8815394 1.0911925
1.0371003 0.9902425 0.9984315 1.094571 0.85145056 0.86407727 0.94742715 1.074687
1.0965747 0.95583147 0.98413515 1.164873 0.98285615 1.0329616 1.0463847 1.0476866
1.0746413 0.9736066 1.0190368 1.2895756 1.0781878 1.118145 0.9461335 1.163139
1.5244272 1.1453509 0.99142474 0.97844744 0.92403746 0.8798012 0.85976565 1.028007

features.1.bias f4 [128]
00000000: 8438 a7bd 2f35 723b dfba bebc bc5a 58bd
00000010: a1c7 63bd d64c 0cbe cffb 85bc 86c5 b6bc
00000020: cca7 c23c 6ff3 8fbc e668 7ebd 8a35 7abd
00000030: 0e89 6e3d 36ac 92bd 732a a2bd 5acc 2d3d
00000040: 0369 b53d b7ce 4abe 33ac 0abd 3c7a 54bd
00000050: b43f 42bd 8bdb 093c 949d bb3c bf8c a33d
00000060: cc3f 3cbe 276d 23be 6d7f c8bc ccc6 10be
00000070: 37d3 f2bd bb16 28bd 1ff8 b7bc 868c 9a3b
00000080: e31b a5bd c2d6 89bd a90a 8abd 867f 4d3d
00000090: 4a94 9bbd 6aaf c4bd dec6 28bd 688b cfbd
000000a0: df6a c9bd 0bbf a8bb c269 2bbe 3963 a3b9
000000b0: 08a1 d0bd bb35 6abd 8ab3 30bd b88e 50bd
000000c0: 04fc 88bd 8f5f ab3c efe3 a3bd aaab c2bd
000000d0: 6bb5 2abd fd7c b5bd f4df f2bd 9ae5 9ebc
000000e0: 491d 25bc 927b 1cbe dd02 0cbd f4b0 11be
000000f0: 6400 c1bd 5e0f d13d 883e 29bd e84e d4bd
00000100: e40b fd3c fe90 093d 33c7 7c3c 9e47 07be
00000110: b62e d9bd b49f 1abe 20e6 86bc 73c3 95bd
00000120: 1f85 aebd 3084 44ba 7b2d 2cbd 6988 3cbe
00000130: 7a7e b5bd e2fc a5bd 2285 cdbd a850 c2bd
00000140: abc8 023c 42e8 2c3d 1168 873c 69af 3cbd
00000150: 36e1 89bb 0e97 a4bd 098a cebb 3a4f 20bc
00000160: c506 1cbd 29c9 073d 1613 dbbd a7d5 59bd
00000170: 87a0 32bd ba90 e2bd 306a b3bd b889 1cbe
00000180: fd42 abbc 61c4 29be ca69 acbd da93 74bd
00000190: bb7d d7bc adf4 0cbe 73eb 9bbd 78cd 4abd
000001a0: beb8 90bd db0d 8abd 8332 c8bd 1773 c43b
000001b0: 3f67 41bc 1a37 833d 65b9 f3bc add6 09be
000001c0: 792f a13c 84cf b83d ff41 1cbc c87b 0dbe
000001d0: 5178 a6bc 3714 be3c d92b 0dbe 9756 813d
000001e0: 3f7f 77be 03c5 f3bc 17a3 8e3b 7a12 37bd
000001f0: 4ddd b8bd 25ac 2cbd c8dc dbbd 502f ae3c
-0.081650764 0.003695797 -0.023282466 -0.052820906 -0.055610303 -0.13701186 -0.016355423 -0.022310983
0.023761652 -0.017572133 -0.062111758 -0.061086215 0.058236174 -0.07161753 -0.07918253 0.042431213
0.0885792 -0.19805418 -0.03385563 -0.051874384 -0.047424033 0.0084141595 0.022902288 0.079858296
-0.18383712 -0.15959607 -0.024474824 -0.14138335 -0.11856692 -0.041037302 -0.02245718 0.0047164587
-0.080619596 -0.06730415 -0.067403145 0.050170444 -0.07596643 -0.0960377 -0.04120528 -0.101340115
-0.09834837 -0.005149727 -0.16739562 -0.0003116371 -0.10186964 -0.057180148 -0.04313997 -0.050917357
-0.06688693 0.02091959 -0.08002459 -0.095053986 -0.04167692 -0.0886173 -0.11859122 -0.019396592
-0.010077783 -0.15281513 -0.03418242 -0.14227659 -0.09423903 0.10208009 -0.0413194 -0.10366613
0.030889459 0.03358554 0.015428352 -0.13210914 -0.106046125 -0.15099984 -0.016467154 -0.073126696
-0.085214846 -0.0007496504 -0.04203556 -0.18411411 -0.08862014 -0.08104874 -0.10035159 -0.0948804
0.007982413 0.042213686 0.016529115 -0.04606572 -0.0042077554 -0.08036624 -0.006303076 -0.009784514
-0.038092393 0.033150826 -0.10697 -0.05318227 -0.043610122 -0.11062761 -0.08760488 -0.1528691
-0.020905966 -0.16578819 -0.08418615 -0.059711315 -0.02630507 -0.13765211 -0.07613268 -0.049512357
-0.07066487 -0.06740924 -0.09775259 0.005995165 -0.011804401 0.06406994 -0.029751489 -0.13460799
0.019675957 0.090239555 -0.009537219 -0.1381675 -0.020321043 0.023202999 -0.13786258 0.06315344
-0.24169634 -0.029757028 0.004352938 -0.044695355 -0.09026585 -0.042156357 -0.1073547 0.021262795

features.1.running_mean f4 [128]
00000000: f21a 893e a7aa 0e3f d272 68be 226b dabd
00000010: 8e3d 8cbb 5c29 b03e 7504 aa3e 9f2e 8d3e
00000020: ea17 04bf 4603 8c3f 976d 11bf 756a a9bd
00000030: 17e9 81be 92ad 9e3c 2457 58be 7010 4e3e
00000040: e34a 67bd 6b27 09bf 54c3 2e3e adc8 0fbf
00000050: dc3e 893d c1ba 0f3f 7266 b8be df59 bebd
00000060: 0833 12bf 664d 5dbd 93a0 2abf 5822 8ebe
00000070: 2c56 13bf 658f 643e 6013 0a3d 9167 b43e
00000080: e922 b2be 4517 27be 495e 90be bd1f 203e
00000090: 72fa bebe d513 e13e 7099 2dbf 3596 a9be
000000a0: 5c8e 0d3e 2286 013f 0d33 1fbf 482d b63e
000000b0: a1e7 7ebe 65e6 313f 7fc4 d1be 9704 9f3e
000000c0: 64d0 a9be 8ad3 c33e 2136 ab3e 42ee 2bbf
000000d0: eb20 95be 5d5e 12be 8f77 b2bd ee10 963d
000000e0: 38d1 103e 6d1b b2bd 4437 b33c 922c 71be
000000f0: 06ee f63b eeca d0bd 7638 c23e 25c3 233f
00000100: a653 933e b6d5 193f 57b6 b7be a3e6 e9be
00000110: 3df0 943d 59ff a33e a2fc 99be 9d6c f6bc
00000120: 2896 013f e27f 5bbf 2091 10bf 5771 fabe
00000130: 90cb b23e 80b1 e3be e9a6 163d ce9f 2d3f
00000140: fd7d 25bf 25f6 b1be ef3f 4bbf adde ac3e
00000150: 4251 943e 3b20 88be 68de 8b3c 61c3 eabe
00000160: ea7a 013e 370b c0be 58f0 1ebf 4435 fcbe
00000170: 5e7b 753e b13f 4ebe f6f2 3ebe a46c 2ebf
00000180: 11a9 3cbf acfe 8bbe 861c cfbe e7ac 593e
00000190: 94e8 30be 50c0 d1bd 73ae 9ebe 908a 96be
000001a0: 44e8 d7be e944 75bf eab5 bb3e a7a1 c23d
000001b0: 61bf 283e 4970 8cbc 4a3b febe 8762 833e
000001c0: 1a98 b13d 26ac 6ebe 5913 6bbe c510 a7be
000001d0: 6e2c 65be d4ad 35be d8fc 0d3e 2b94 8f3d
000001e0: 5524 82bd fde3 323f 5377 b3be dc7e f3be
000001f0: 563b 133e 5541 883e a254 a03e cce0 4f3d
0.2677837 0.55729145 -0.2270005 -0.10664965 -0.004279799 0.34406555 0.33206525 0.27574632
-0.5159899 1.0938499 -0.56807846 -0.08272258 -0.25373146 0.019369874 -0.21126992 0.20123458
-0.056467902 -0.5357577 0.170667 -0.5616558 0.067014426 0.5614434 -0.3601566 -0.09294485
-0.5710912 -0.05402889 -0.66651267 -0.27760577 -0.5755336 0.22320326 0.033709884 0.35235265
-0.3479226 -0.1631747 -0.28196934 0.15637107 -0.3730045 0.43960443 -0.6781225 -0.3312241
0.13823837 0.50595295 -0.6218727 0.35581422 -0.24893047 0.6949218 -0.40970227 0.3105819
-0.33166802 0.3824733 0.33439735 -0.6716043 -0.29126677 -0.14293809 -0.0871421 0.07327448
0.1414231 -0.08696637 0.021876939 -0.23552158 0.007535699 -0.10194956 0.379337 0.6396964
0.28774756 0.6009172 -0.35881302 -0.45683774 0.07272384 0.32030752 -0.30075556 -0.030081088
0.50619745 -0.8574201 -0.56471443 -0.48914596 0.3492093 -0.4447136 0.03678027 0.6782197
-0.6464537 -0.34758106 -0.7939443 0.33763638 0.28968245 -0.2658709 0.017073825 -0.45852187
0.12644544 -0.37508556 -0.62085485 -0.49259388 0.23972842 -0.20141484 -0.1864737 -0.6813452
-0.73695475 -0.27342737 -0.4045145 0.21257363 -0.17276222 -0.10241759 -0.3099247 -0.2940259
-0.42169392 -0.95808274 0.36662227 0.09503489 0.16479255 -0.017143385 -0.4965461 0.25661108
0.08671589 -0.23307857 -0.229566 -0.32629982 -0.2238023 -0.17742091 0.13865983 0.07010683
-0.06354586 0.6987913 -0.35051975 -0.47557724 0.14378104 0.26612344 0.3131457 0.050751492

features.1.running_var f4 [128]
00000000: f764 873d 7add 963d 23bd 6c3c c74d 253d
00000010: 5b2b 043c 286d 913c 3185 5e3d fb3b 9a3c
00000020: b1a8 623d 7b9f 2a3d 4e38 143d fe99 073d
00000030: e896 7d3c 97ce a03c ea10 9e3d 7db1 bb3d
00000040: a776 a43c 1244 343c d00d 9d3d 0be4 1b3d
00000050: 9ab8 9e3d b458 3e3c 03c4 a43b aa91 003d
00000060: a748 ca3c 7031 073d a27c f73d 3e3b 373d
00000070: cec0 1d3c 5db3 e23c 7352 bb3d 446f 073d
00000080: 8d5f 5b3c 7efc 0a3d f293 513c 02e3 ad3d
00000090: 6556 043e 0b0c a23d 5e0c 483e 1787 1f3e
000000a0: 9a4d 913d e20f f13c 7247 e03d f501 9a3d
000000b0: ce8e 823b 97d1 993d 689c 963d e615 3d3d
000000c0: 3b14 313d 0eee cf3c 7658 043d 315d e03d
000000d0: 19c7 3b3d 48cc d73b 360a 7b3d dd17 c93d
000000e0: e9a4 553d 06e8 ff3c cc84 be3c e415 103d
000000f0: 6375 0e3d 3951 5d3c 7df7 163d 2c4c a23d
00000100: 8804 0e3d ecfb 133d 8e26 d13d c28a 9f3d
00000110: 3a10 023d dd55 173d bef0 383c de47 823d
00000120: 3937 803d 4095 bd3d fc3f 0f3d d8a1 963c
00000130: 3ed8 6d3d b8c8 393c 0104 a13c be6b ee3d
00000140: 009d 0f3d a633 0a3e 2300 d13c af58 133d
00000150: 274f 853d 3785 df3c 89d1 ac3c c7a1 353c
00000160: 6731 963d 2b0d aa3c dc97 df3d 4f43 3a3d
00000170: 1f84 dd3d 2d71 273c 4efa e03d 259a 323d
00000180: ee5c e53d cd46 f33d 3ce9 5e3c 82d2 113c
00000190: 0b10 d53c ca4b 8f3d 70b0 233d f775 b73d
000001a0: 0762 ff3c 317f df3d 22ee 953d 2436 783c
000001b0: 63ce 9a3d 3454 893d f885 833d 3ac2 543d
000001c0: 0568 423d 6af9 dd3c c82d b13d 2361 5e3c
000001d0: 5146 293d 1261 e33b 7293 803c 3717 de3b
000001e0: 79a6 a23c 4011 2d3c 7a5b d83d 4c84 473d
000001f0: 5be6 a73d 234b 523d ae1f 803d 8218 c93d
0.066110544 0.07366462 0.014449391 0.040357377 0.008066977 0.017752245 0.05432624 0.018827429
0.055336658 0.041656 0.03618651 0.033105843 0.015477873 0.01962976 0.0771807 0.091647126
0.02007611 0.011002557 0.0766865 0.038059276 0.07750054 0.011617828 0.005028249 0.031388916
0.024692846 0.03300613 0.12084319 0.044734232 0.009628488 0.027673418 0.09146585 0.033065096
0.01338948 0.0339322 0.012791621 0.08490564 0.12923582 0.07912453 0.19535968 0.15578876
0.070948794 0.029426519 0.10951127 0.075199045 0.003984309 0.07510679 0.07354051 0.046163462
0.043232184 0.025382068 0.032310925 0.10955275 0.04584417 0.0065856315 0.061289035 0.09819005
0.052159224 0.031238567 0.023256682 0.035177127 0.034779917 0.0135081345 0.036857117 0.07924685
0.03467229 0.036128923 0.10212432 0.07790138 0.031753756 0.03694712 0.011287866 0.06361364
0.06260533 0.09256983 0.03497313 0.01838772 0.058067553 0.011339359 0.01965523 0.11641644
0.035061836 0.13496265 0.02551276 0.035973247 0.06509238 0.027285201 0.021096008 0.011085934
0.073336415 0.020758232 0.10917637 0.045474347 0.10816216 0.010219854 0.10985242 0.043604035
0.111993656 0.118787386 0.013605412 0.008900287 0.026008626 0.069968775 0.039963186 0.08958047
0.031174673 0.10912932 0.07320811 0.015149627 0.075588964 0.067055136 0.06422037 0.05194304
0.047462482 0.027096469 0.0865131 0.013572964 0.041326825 0.006939062 0.015695307 0.00677767
0.019854771 0.010563195 0.10564323 0.048710153 0.08198234 0.051341187 0.062560424 0.098191276

features.3.weight f4 [64, 128]
00000000: 4d69 b7bd 743e bbbd 7355 a5bd df67 89bc
00000010: c5e5 06bd f6ac fa3c 2e64 84bd 1cd8 ca3d
00000020: 2b0e d53c 5ad3 423d 2a87 e53d 98a0 cabd
00000030: ff88 933d 48e4 ae3d dccf b3bc db2b e23c
00000040: ec24 c8bd 674c d6bd 6ead 17be d068 4c3d
00000050: b0fc 08be 04b9 91bb 7da7 0f3e d4a8 3abc
00000060: 0bef 933d de70 253d 53d1 853d 9939 a5bd
00000070: d684 123d 3655 43bd ef7e 8c3d 9b34 3bbd
00000080: 522e 0abe ec1e 16bd 2c9c 0cbe 2018 d7bc
00000090: d6ff 983d 575d be3c c41b a4bd 2989 89bd
000000a0: 2761 913c 1420 e6bd 8de5 9bbb 550f c9bd
000000b0: 1d7b ba3d 3d12 9fbd 1241 123d 62e9 b6bc
000000c0: 3aef 693d 4d92 4a3d 0366 143e 7d14 90bc
000000d0: 8457 c5bb d3d1 f6bd b685 19be bfdf 1fbd
000000e0: 49cc 22be 8045 04bc 839a c7bd b861 65bd
000000f0: 96a5 c13d 9ee7 5cbe a489 813d 36fc 10be
00000100: b712 fabd 8019 8f3d ed4e 593d 8033 03be
00000110: f951 88bc f205 cd3c 10aa dbbc 647d dd3c
00000120: 04ea ca3d 577a 9f3d 468e f4bd 5d55 ccbc
00000130: f59f 1c3d 5025 8dbc e74b 733c e9bc 01be
00000140: b808 42bd 6a1a 79bc fbfc 003b 33f6 023d
00000150: 3b84 03bd e668 69bd e282 62bd d843 67bd
00000160: 4f32 0e3d 34cd 0d3d b6bd a83d a52b 3b3d
00000170: 2133 22be fbd7 4abe cc21 e9bd 765a 5abd
00000180: 5f9a eb3d dacd d8bd bb47 8bbd 6b28 0dbe
00000190: 8f6a aa3b 71c9 cb3b 560b 123c 8289 ddbd
000001a0: 9083 593c e4dc ca3d f065 10be 1870 eb3d
000001b0: 84e6 383b 98ce b6bd c4ae dc3d 7f85 29bd
000001c0: db3f f8bd b4cc b33d 9bae 31bc 6be1 073e
000001d0: ca46 433d 9c4c 9fbd 6e79 893d 1f25 f13c
000001e0: 3753 913d 952f 583e f13f 703d 56da 5fbd
000001f0: 6e30 073e d4bc 883d 6195 afbd ce32 ff3c
00000200: 4040 5ebc 2f60 11be 7a21 163e 5508 76bd
00000210: cefa 443d 5fa9 dfbb 1d4c 51bc a69e 54bd
00000220: 5d8e 91bd 2b0f 46bd ab20 0cbe a4f2 1cbe
00000230: 53c3 4bbe b9f4 b9bd 87dc e53d c101 ab3c
00000240: 25d1 fdbd 02bc 213e a0f6 81bd 7363 373d
00000250: 06c8 793d a7f0 66be e838 a9bc 26d7 063b
00000260: 885d 78bd 0a27 12bd bbe4 473d c38b 07bd
00000270: 04d9 843d bfd7 13bd 4a8d 1a3b 2d00 cfbd
00000280: 6a75 b8bd 94f2 0ebe a796 683d 8a2e c8bd
00000290: 8dc0 4d3d 56c7 563d 9c6f 6c3d d13d c03c
000002a0: 2fe8 aa3d 8605 dcbc ada2 af3c 440d 703c
000002b0: cd0d 2e3e 98d6 59bd 5e3c 543e f52e 86bd
000002c0: 3300 f9bd 9ef4 d33d c150 95bd 6c88 363d
000002d0: c0ac a23d 155e cf3a 32bd 31bd da94 c83d
000002e0: 63ac 4abd e252 c23d 4fbc 01be 0dba f33c
000002f0: f0bd 86bd 00f0 27be 8ba8 1ebe b95a 95bd
00000300: 9237 3bbe 620a abbb 36f3 e63d 9b59 3ebd
00000310: c935 a1bd 5fb9 f4bd f339 653d 01a1 dbbd
00000320: 2e06 0a3d 9fc8 9d3d d806 cf3d ac3f 6dbd
00000330: 0cdd 0cbe b528 0dbe f767 c7bd 09e6 34bd
00000340: d23f 76bd d904 5d3d 3ada 933d b8a6 91bd
00000350: a851 283d 5801 f2bd 53cd 8f3d 3cee 783d
00000360: 7b04 14be d0f2 adbd ab41 d43c 44fd ccbc
00000370: ad0a 40bd f8d6 53be ee78 243e 5357 283e
00000380: 75a7 8a3d 825a 7c3d 944e 00be 857e 73bd
00000390: 378a 8a3d b9b7 443b 724b 4dbd 50b5 123e
000003a0: 7b51 abbd 7be7 c63d a4f9 9ebd f10b be3d
000003b0: d345 1cbe 34d9 07be b50a a53d f324 4f3d
000003c0: e39b 1ebe 2831 7bbb 4dfa 793d baaa 08be
000003d0: e307 d43d c37c 8a3c 2e04 d53b 7c51 013e
000003e0: 5f9b bcbd 7a4f 1fbe 8aed d93d d99e e53d
000003f0: d676 59bd 5602 3cbd 1acc 3fbe 3b17 28be
-0.089556314 -0.09142771 -0.08072939 -0.016773162 -0.03293397 0.030600052 -0.0646442 0.09904501
0.026007732 0.04756484 0.11207421 -0.09893912 0.07203864 0.08539635 -0.021949701 0.027608803
-0.09772667 -0.10463791 -0.14812252 0.049904644 -0.13377643 -0.0044471044 0.14028735 -0.011392791
0.07223328 0.04039084 0.06534066 -0.080676265 0.035771213 -0.047688685 0.06860148 -0.045704465
-0.13494232 -0.036650583 -0.1373145 -0.02625662 0.07470672 0.023237867 -0.080131084 -0.06715614
0.017746521 -0.11236587 -0.004757589 -0.098173775 0.09105513 -0.077671506 0.035706587 -0.022328082
0.05711291 0.04945593 0.1449204 -0.017587895 -0.0060223956 -0.120517395 -0.14992413 -0.03903174
-0.15898241 -0.008073211 -0.09746268 -0.056001395 0.09455411 -0.2157273 0.06325081 -0.14158711
-0.12210601 0.069872856 0.053053785 -0.12812614 -0.01664065 0.025027249 -0.02681449 0.02703733
0.09907916 0.07787006 -0.11941199 -0.024943048 0.038238484 -0.017229706 0.0148496395 -0.1266972
-0.047371596 -0.0152040515 0.0019682038 0.031973075 -0.032108527 -0.056984805 -0.0553006 -0.056461185
0.034715947 0.034619525 0.082393095 0.04569592 -0.15839817 -0.19808953 -0.11383399 -0.053308927
0.11504053 -0.10586138 -0.06800791 -0.1378495 0.005200691 0.006219082 0.0089138355 -0.10817243
0.013275996 0.09905413 -0.14101386 0.114959896 0.002821357 -0.089261234 0.107755214 -0.041387077
-0.121215545 0.087792784 -0.010844852 0.13269584 0.04767493 -0.07778284 0.06712614 0.029436646
0.0709595 0.21111901 0.05865473 -0.05465158 0.13202068 0.06676641 -0.08573414 0.031152155
-0.013565123 -0.14196847 0.14661208 -0.06006654 0.04809075 -0.0068256105 -0.0127744945 -0.05190911
-0.07107232 -0.04835431 -0.13684337 -0.15326935 -0.19898729 -0.0907988 0.11223703 0.02087486
-0.12393407 0.15794376 -0.06345868 0.044772577 0.060981773 -0.22552739 -0.020657018 0.0020575016
-0.060636073 -0.03568176 0.04880212 -0.03309227 0.06486705 -0.036094423 0.002358275 -0.101074554
-0.0900677 -0.13959724 0.0567843 -0.097745016 0.05023246 0.052436195 0.057723626 0.023466976
0.08345067 -0.026858103 0.021439875 0.0146516 0.16997452 -0.05318317 0.20726153 -0.06551925
-0.12158241 0.103493914 -0.07290793 0.044563696 0.07943106 0.0015820885 -0.04339332 0.09794016
-0.049480807 0.09488465 -0.1266949 0.029751802 -0.065791965 -0.16400146 -0.15493982 -0.072926946
-0.18282917 -0.0052197436 0.112768576 -0.046472173 -0.07871587 -0.11949419 0.055963468 -0.107240684
0.0336973 0.07704281 0.10108727 -0.05792205 -0.13756198 -0.1378506 -0.097366266 -0.04416469
-0.060119458 0.0539597 0.07219358 -0.07111877 0.0410935 -0.118166625 0.07021584 0.060774073
-0.14454834 -0.084935784 0.02591022 -0.02502311 -0.04688518 -0.20687473 0.16061756 0.16439562
0.06770221 0.061609752 -0.12529975 -0.05944683 0.06764644 0.0030016734 -0.05012078 0.14326978
-0.083651505 0.0971212 -0.07762459 0.092796214 -0.15261011 -0.1326645 0.08058683 0.050572347
-0.15489154 -0.003832886 0.06102972 -0.13346377 0.10353067 0.016905194 0.0065007424 0.1262874
-0.09209322 -0.15557662 0.1064101 0.112119384 -0.053091846 -0.045900665 -0.18730202 -0.16415112

features.3.bias f4 [64]
00000000: d551 993c 2ca0 073d c4ee 70bd 3be2 b43c
00000010: 42c3 013d 8a71 4d3d 2efc 94bd 2348 61bc
00000020: fe8c 22bd eb1e 99bd 9ee5 ebbc b27c adbd
00000030: c8b8 983c 383a 843d a035 21bd 53f7 0cbd
00000040: 9ade df3c 090d bf3c cb09 883d 2b46 44bd
00000050: 32e5 b3bc f1b7 babc 4482 47bd d811 aebd
00000060: 4abe f5bc 2353 0a3d 17cf 74bd 55ee 18bd
00000070: cb49 ab3d 4fd6 0abc 47c4 a3bc f4d5 a6bd
00000080: 2c89 0abd fa8e 8a3d c303 cc3c 934c 14bd
00000090: 08e7 0a3d 3196 913d 7df3 04bc e647 2a3d
000000a0: 9e14 183d 62af 0c3d 31ac 623c db68 473d
000000b0: dea2 aa3c 0f14 45bd 42ab b6bb a5df 8d3d
000000c0: 4e80 873d f29a 76bd ee0e 4ebd 7807 5a3d
000000d0: 223c a8bd 1db0 61bc 80fe 253b a7bf 0bbb
000000e0: 82bc 013c 1831 6cbd cb23 7abb 50b2 cabb
000000f0: 099b 8e3c 689f 05bd 2a52 ba3c e854 853c
0.018715778 0.033111736 -0.058821455 0.022080531 0.031680353 0.050157107 -0.07274662 -0.013750109
-0.039685242 -0.074766 -0.028796013 -0.08471049 0.018642798 0.06456417 -0.03935778 -0.034415554
0.027327824 0.023321645 0.06642493 -0.04791848 -0.021959875 -0.022792788 -0.048708215 -0.08499497
-0.029997963 0.03377069 -0.05976781 -0.037336666 0.08363684 -0.008473947 -0.019991053 -0.08146277
-0.033822224 0.06765552 0.024904137 -0.03620584 0.033911735 0.07108725 -0.008114693 0.041572474
0.037129037 0.034346946 0.013834999 0.048683982 0.020829614 -0.048114832 -0.0055746147 0.069274224
0.06616269 -0.06020636 -0.050307207 0.05322978 -0.082145944 -0.013774899 0.0025328696 -0.002132395
0.007918479 -0.057664007 -0.0038168307 -0.0061858073 0.01740791 -0.032622725 0.022744257 0.016275838

features.4.weight f4 [64]
00000000: 475b 6f3f 7769 843f 6b41 753f c711 923f
00000010: c663 813f 5705 733f 852f 703f c0a1 6c3f
00000020: e2f5 823f 8751 8f3f d006 953f 081f 4b3f
00000030: d6be 8c3f 2a9d 6e3f 1dfb 5b3f 752b 843f
00000040: b4f5 813f f2a0 873f f4d0 7b3f c85b 6c3f
00000050: af69 8b3f 8e4f 6c3f c19a 7b3f 2b8e 883f
00000060: 25c4 5c3f 4e26 513f 5fc8 6e3f a619 913f
00000070: f8f6 713f 3eb0 513f 17c1 6e3f dd11 6b3f
00000080: 949e 723f 6baa 893f d98d 893f 136e 783f
00000090: bab1 8d3f 993f 5f3f 2a32 a03f 9e6c 843f
000000a0: fea9 563f 997a 6c3f 098d 873f 45d7 6d3f
000000b0: a274 883f 9974 803f 2dab 673f c451 883f
000000c0: ff66 813f 6220 a83f d9e0 893f 10e4 7a3f
000000d0: 7356 843f 83d1 753f bb08 873f 3908 6a3f
000000e0: e94e 653f 3308 843f cd3f 7e3f 01db 8d3f
000000f0: 7ee8 673f daa2 903f 43de 5a3f e685 813f
0.93498653 1.0344685 0.95802945 1.1411675 1.0108573 0.9493002 0.9382251 0.9243431
1.0231287 1.1196755 1.1642704 0.79344225 1.0995739 0.93208563 0.85930043 1.0325762
1.0153108 1.0595992 0.9836571 0.9232755 1.0891627 0.9230889 0.9828301 1.0668386
0.8623679 0.81699073 0.9327449 1.1335952 0.9451747 0.8190955 0.9326338 0.9182413
0.9477322 1.0755132 1.0746413 0.9704296 1.1069863 0.8720642 1.2515309 1.0345647
0.8385314 0.9237457 1.0589916 0.929066 1.0660594 1.0035583 0.9049557 1.0649953
1.0109557 1.3134882 1.0771743 0.98004246 1.0338882 0.96022815 1.0549539 0.91418797
0.8957353 1.0315002 0.993161 1.108246 0.9058913 1.1299698 0.85495394 1.0118988

features.4.bias f4 [64]
00000000: daa1 edbd e73a cc3d 61fa 62ba 937a 50be
00000010: 20b0 393d f987 5ebe a84d e73c ebef 59bd
00000020: 0336 aebd 89e6 a3bc fb4d c1bc 3e6d 28be
00000030: dc06 123d ca70 06bc 221c 34bd e004 59bd
00000040: f395 f3bd 748c d7b9 2745 e2bc 0a3b b2bd
00000050: d0ab 6ebe 73e1 10bd 52bf fdbd 90e8 c93d
00000060: 2ea0 253d 7546 02be 8c92 7cbd 1ad1 71bd
00000070: 362f c43b 5c67 c7bd 9683 20be be2b cfba
00000080: 4910 b7bd 57a7 1cbe 435f 873d 54c8 80ba
00000090: 76a6 adbd 9c31 03be cdd4 303d 9efe 933c
000000a0: 8a13 c8bd 40a7 bdbd a090 d0be 6b50 c5bd
000000b0: b21c 6d3d 6168 81bd b3ca 13be 297d 533d
000000c0: d0ec f63c 557a 0f3e 370a 34bd e517 94bd
000000d0: dd45 80bd 38a0 62bd da46 23be 2963 dbbd
000000e0: 6fd6 f1bd 6e60 883d 0f07 b33c e2c8 7bbc
000000f0: 1e92 ea3c 37a3 23bd 9afe 29bd 3395 6ebd
-0.11603136 0.09972172 -0.0008658525 -0.20359258 0.04533398 -0.21731557 0.028235272 -0.05320732
-0.08506396 -0.020007389 -0.023596754 -0.16447923 0.035651073 -0.008205602 -0.043972142 -0.052983165
-0.11893835 -0.0004111264 -0.027620865 -0.08702667 -0.23307729 -0.035371255 -0.12390007 0.09858811
0.040435962 -0.1272219 -0.061663195 -0.059037305 0.0059870733 -0.09736511 -0.15675196 -0.0015805883
-0.08938653 -0.1529821 0.066099666 -0.0009825327 -0.084790155 -0.12811893 0.043171693 0.018065747
-0.09769352 -0.09260416 -0.4073534 -0.09634479 0.057888694 -0.06318737 -0.14432792 0.051633034
0.030142218 0.1401151 -0.043955054 -0.0723112 -0.06263325 -0.055328578 -0.15944996 -0.10712273
-0.11808478 0.066590175 0.021853952 -0.015367718 0.028634127 -0.039950576 -0.041502573 -0.058247756

features.4.running_mean f4 [64]
00000000: 1ea8 94be 8a75 d3be f657 dabe 50ac eb3e
00000010: 6350 03bf ba61 1d3f aea4 99be 0128 a2be
00000020: 1a40 163f f6d6 1abe ea2c 4cbe b08c 16be
00000030: 277b 253f 13d9 cc3e ece1 acbd 9872 a7bf
00000040: af0d e93e db06 8a3d 0577 f1bd c488 043e
00000050: 62d8 203f 6029 eebe ea5d e7be a017 31bf
00000060: 7b52 4dbf 99d9 8b3e 937e 2abe b476 82bf
00000070: 2c4f a03e f831 dc3e 12ad cbbe 4d99 97bc
00000080: 1ca0 0f3e 2e70 1f3f dc2a 1e3d 3ccd e3be
00000090: 33f0 be3e 1a5c 9dbe 33d6 10bd c974 22bf
000000a0: 8e98 fa3e 5f23 463c dd48 6b3e 52e6 94bd
000000b0: e22f 783e 9dc4 92bf 2eba dfbe 9d6a fa3c
000000c0: cd3f 18bc d25f 623e 7a2a 8cbf e809 8dbe
000000d0: 8f78 00bf 8d05 a6be babc c23e 97c1 7bbe
000000e0: c8c3 913e 52d0 74be 61a1 37bb 6300 7f3f
000000f0: e0e7 93be 78a8 5d3f 9118 15bf f1e3 173f
-0.29034513 -0.41300613 -0.42645234 0.46029902 -0.51294535 0.61477244 -0.30008453 -0.31671146
0.5869156 -0.15121064 -0.19939008 -0.14702106 0.6464104 0.40009364 -0.08441529 -1.3081846
0.45518252 0.06739589 -0.11790279 0.12942797 0.62830174 -0.46515942 -0.45188838 -0.69176674
-0.8020398 0.2731445 -0.16649847 -1.0192475 0.31310403 0.43006873 -0.3978048 -0.018505717
0.1402592 0.6228055 0.038615093 -0.4449252 0.37292632 -0.3073433 -0.035360526 -0.6345945
0.48944515 0.012093394 0.22977014 -0.072704926 0.24237016 -1.1466252 -0.4369673 0.030568415
-0.009292555 0.22106865 -1.0950463 -0.2754662 -0.5018396 -0.3242611 0.38034612 -0.24585567
0.28469682 -0.23907593 -0.0028019773 0.99609965 -0.28887844 0.8658519 -0.5824061 0.59332186

features.4.running_var f4 [64]
00000000: a18d 203f 5904 be40 f616 0440 b634 b43e
00000010: 92a2 7b3f 6092 e23e 80c3 bd3f efef 003f
00000020: eb7e f23e 504d d93e 9d49 0b3f 5a6c 3640
00000030: 853f ae3f 73b2 7e3f 6570 fe3f f41a 813f
00000040: 6f94 243f 80f5 cf3f c619 ee3f 78a4 d43f
00000050: 2403 5b3f f72c f43f 3d4e 063f 4050 f83f
00000060: 2a6c be3f 7a93 d53f ee42 b73f ebb9 7d3f
00000070: 9260 133f ce88 fe3f 51bd 3e3f 1cf4 b13e
00000080: 85a8 1a3f 5008 c03e 171e aa3f fc3a f23e
00000090: 61fd ac3e a1d7 093f 034e 403e e9a1 d63e
000000a0: 75df ff3f 74ea f93f 3aa1 5e3e babc c03f
000000b0: 24b6 703f e16b 293f aeac 423f 1656 2240
000000c0: fe32 d73f 104f 7a3e 436d 013f c432 803f
000000d0: feac 853f a57e 543f b9c7 f53e ad0a a73f
000000e0: 3e53 d53f a1c4 9c40 69dd 0e3f 21d8 6d3f
000000f0: 2735 1040 bf93 8b3e f65a e73f e3cf 933f
0.6271611 5.9380307 2.0639014 0.35196465 0.9829494 0.442523 1.4825287 0.5036611
0.47362456 0.42441797 0.544092 2.8503633 1.3613135 0.9949104 1.987805 1.008635
0.6428899 1.6246796 1.8601615 1.6612692 0.8555167 1.9076222 0.5246313 1.939949
1.4876759 1.6685631 1.43173 0.99111813 0.5756923 1.98855 0.74507624 0.34756553
0.6041339 0.37506342 1.3290433 0.47310627 0.33787063 0.5384465 0.18779759 0.41920403
1.9990069 1.9524674 0.2174119 1.5057595 0.94027925 0.66180235 0.7604474 2.5365043
1.6812437 0.24444222 0.50557345 1.0015492 1.0443418 0.83005744 0.4800394 1.3050133
1.6666028 4.8990026 0.55806595 0.9290791 2.2532442 0.2726116 1.8074634 1.1547817

features.6.weight f4 [32, 64]
00000000: 4cc5 f63d 669c a6bd 0a50 b63d 5513 a2bd
00000010: 7537 323b a878 2a3e ddc5 f33c 5037 213d
00000020: c288 2dbd 9836 7abd 4f10 173e d0ef 98bd
00000030: d5f6 06be 015a 2dbd 1ebe 6d3e 6c96 e7bc
00000040: 7684 a43d 73e7 4d3b eabe fcb9 9877 1e3e
00000050: aa15 91bd 7216 323e 0465 03bc 89ca f3bd
00000060: 44a1 36bd c76a e73d e856 04bd 6c54 643e
00000070: c733 193e 1504 b63d 5174 b03d af44 13bd
00000080: a68d 9c3d 8ed2 8cbe c062 d13d c16d 2d3e
00000090: 3978 4ebe 7573 4f3d 4d3c d4bc c08b bd3d
000000a0: 1bee c63d 3edb f0bd aeb5 48bd e154 2b3e
000000b0: eec6 aebd 71b7 02be 5fa5 c3bd 28df 853d
000000c0: 462c dc3d cb0f b7bd 42d5 0c3e b33c 3cbd
000000d0: 085a 72bd 5e9c 66be 8595 df3c 2c14 ac3d
000000e0: 26ab 87bd dbc8 ac3c 164c 04be 453d 113e
000000f0: a13f 243d b9c4 c03c 9691 a83d b64a 3c3d
00000100: ab65 993d 75e7 413d 56fe 563d 2b25 1dbe
00000110: efd3 1f3e 4df3 98bb 1a56 15be a3ea e0bc
00000120: 544e 483d 801c afbd d48e 5a3e a698 1e3d
00000130: ea78 443c b99c 183e 73e2 6dbb 07e4 4dbe
00000140: d2cf 91bd e095 dcbc 33bb c73d 1508 4dbd
00000150: b10a 6bbe 73a2 3cbd 058b c03d 293a d4bd
00000160: 4687 b13d 61be b83d 4573 8f3d f42e a83c
00000170: 85a0 103e fd5f 0c3d d730 da3c b622 87bd
00000180: 3042 27be ca9b 5ebe 9cc0 113e 4c8d 973d
00000190: 490a 45be 1072 8e3d b38a 06be ac50 373e
000001a0: 1b42 173d b96d 07be 8550 14bd 448b 4b3d
000001b0: b6bb 6fbd df12 47be 33e8 663c 9b0d 3d3d
000001c0: a608 30bd f8ae 80bc 3c45 113d b347 3e3e
000001d0: 40b2 4f3c 7bec 17be c96d b33d 8b3f 23be
000001e0: 853c 3a3c 1a21 8fbd be47 c53c dec3 2b3e
000001f0: 6fce 653d b96a b6bd d49b 8fbd a9a0 c0bc
00000200: 5858 a2bc 4242 053e 99c3 373e 1a25 8e3d
00000210: 586a 90bd 364b 0cbe 3200 c5bb f187 25bd
00000220: 61e2 15bd 8f70 0a3e c040 b1bd a605 223d
00000230: befa 433e d1df 4dbd d408 f13c c920 30be
00000240: 114e 63bb 609d cb3d b230 d6bd fd7c 8a3d
00000250: df8b f8bd f1bc d53c 10f1 5d3d 5465 18bd
00000260: b152 523e 8b3c a5bd b8a4 fc3d b8e3 e93d
00000270: a460 1e3d bdbb 963d 57d4 a13d 4bde ff3d
00000280: e134 aa3d 868b 853d b466 32bd 23ef 7bbd
00000290: e65f 8bbc 39ef 18bc 4e29 c33d 2447 213d
000002a0: 4b3b 0f3e ab04 9dbd c634 8dbc 7cda e33c
000002b0: ab9a 423e 006e 7abc 6b88 8d3d bef2 903c
000002c0: d0bb 9dbd b12f b53d 9e1f c3bd 83fd fc3d
000002d0: b80e 25bc 398d ebbd 14d5 72bd 8022 3bbd
000002e0: 2767 183e e302 823d 47bc 6cbd 6647 e4bd
000002f0: 0e8f 4dbd 58db 913e ce2b 5bbd b848 753c
00000300: 3b79 223e 4c84 9ebd 9536 25be 1809 d63d
00000310: 8246 13be 9ebe 3abe 01f9 993c ffb2 83bd
00000320: 321d ae3d f4b9 993d b105 08be bcae b9bc
00000330: eb1e 85bc d69e 9a3d 31ef ffbd 674d c23d
00000340: 330c 4fbd 4548 5dbd 9371 093d e9e5 00bd
00000350: 9d52 353e 0ed5 26be 779b f53d e0f0 09bc
00000360: f7e0 80be d935 54bc 12db 0fbe 5c42 27be
00000370: f8ff 9cbd 8ac1 b7bd 29f2 bbbd 358c e23d
00000380: ba25 933d 6b4c 203e 7607 05be 9a80 d7bd
00000390: fd61 a63e fc22 03bd e3bf 053c 8ab7 1fbe
000003a0: 498d 36be 3160 adbc ed78 d6bc afb6 33be
000003b0: 16d3 f9bc 60f7 65be 4056 3d3d da7e 34be
000003c0: b359 84bc 1f49 673d afc0 25be dbaf 87bc
000003d0: cc61 80bd 830b 903d ed1e 40be 04aa 24bc
000003e0: b3dd cc3c 5672 a8bc ab80 3b3d 2d80 b53c
000003f0: 5f09 8f3a e4fc 44bd 7644 16bd c253 cb3a
0.1204935 -0.081352994 0.08901985 -0.079138435 0.00271937 0.16647589 0.029757435 0.03935939
-0.04236675 -0.06108722 0.14752315 -0.074676156 -0.13180096 -0.042322163 0.23217055 -0.028269969
0.080330774 0.0031418472 -0.00048207428 0.15475309 -0.0708421 0.17391375 -0.0080196895 -0.11903865
-0.04458739 0.11299663 -0.032309443 0.2229783 0.14961158 0.08887497 0.086159356 -0.035954174
0.07644205 -0.2750439 0.10223913 0.16936399 -0.20163049 0.050647218 -0.02590766 0.09255171
0.09713384 -0.11760567 -0.04900139 0.16731597 -0.085340366 -0.1276529 -0.095530264 0.06536704
0.10750632 -0.08938559 0.13753226 -0.045956325 -0.05916789 -0.22520587 0.027292976 0.08402285
-0.06624441 0.02109187 -0.1291965 0.14183529 0.040099744 0.023531305 0.08230893 0.045969687
0.07490095 0.047339875 0.052488647 -0.1534621 0.1560819 -0.0046676756 -0.14583626 -0.027455634
0.048902825 -0.08550358 0.21343547 0.038719796 0.011991719 0.14903535 -0.0036298304 -0.20106517
-0.07119717 -0.026926935 0.09752502 -0.050056536 -0.22953297 -0.04605336 0.09401516 -0.10362656
0.086683795 0.09020687 0.07004408 0.020530201 0.14123733 0.03427123 0.026634617 -0.065984175
-0.16333842 -0.21739116 0.14233631 0.07399997 -0.19242205 0.069553494 -0.13138847 0.17901868
0.036928277 -0.1322545 -0.036209602 0.04969336 -0.058528624 -0.19440793 0.014093447 0.046155553
-0.042976998 -0.015708432 0.035466418 0.18582039 0.012676775 -0.14836304 0.08761174 -0.15942208
0.011366968 -0.069887355 0.02408206 0.16773936 0.056105074 -0.089070745 -0.07012144 -0.023514109
-0.019817516 0.13013557 0.17945708 0.0694067 -0.070515335 -0.13700566 -0.006011986 -0.040412847
-0.036592845 0.135195 -0.08654928 0.039556168 0.1913862 -0.050262276 0.029423155 -0.17200007
-0.0034683982 0.09942126 -0.10458507 0.06762121 -0.12136053 0.02609107 0.054184973 -0.03720601
0.20539357 -0.08068188 0.12336105 0.11420387 0.038666382 0.07360027 0.07901829 0.12493571
0.08310867 0.065207526 -0.043554977 -0.061507355 -0.017013501 -0.009334379 0.095293626 0.039374486
0.13987462 -0.07666906 -0.017237078 0.027814142 0.19004314 -0.015285015 0.06910785 0.017693873
-0.07701838 0.08846987 -0.09527515 0.12353041 -0.01007431 -0.115015455 -0.05928524 -0.0456872
0.148831 0.06348207 -0.057796743 -0.11146431 -0.050185256 0.28487659 -0.053508572 0.014970951
0.15866558 -0.077400774 -0.16134103 0.10450953 -0.14382365 -0.18236777 0.018795492 -0.06430625
0.08501662 0.07506171 -0.13283421 -0.022666328 -0.016250094 0.07549827 -0.12496794 0.094874196
-0.050548743 -0.054024 0.03355558 -0.03146926 0.17707296 -0.16292211 0.11992543 -0.0084192455
-0.25171635 -0.012952291 -0.14048412 -0.16333908 -0.0766601 -0.089724615 -0.09177048 0.110618986
0.0718493 0.15654151 -0.12991127 -0.10522576 0.32496634 -0.032015786 0.008163425 -0.15597358
-0.17827334 -0.021164032 -0.026180709 -0.17550157 -0.030496161 -0.22457647 0.046224833 -0.17626515
-0.016156053 0.056466218 -0.16186784 -0.016563347 -0.06268653 0.07033446 -0.18761797 -0.0100503005
0.025008058 -0.020562332 0.045777004 0.022155846 0.0010912827 -0.048092738 -0.036686383 0.0015512633

features.6.bias f4 [32]
00000000: e04c 8ebd 702a 723c ad92 b9bc 0a18 bbbb
00000010: 6dd1 10bc b6ee 5fbc 7213 953d c2c3 493d
00000020: c516 f2bd 1d49 dc3b e6c8 a0bc a13f e1bd
00000030: d1bd ebbd 3dc3 de3d 7e20 b2bc 3831 6ebd
00000040: 665b 6dbb 80af 2e3d e013 583d f118 88bc
00000050: 78a2 a03d 3a88 84bd 55b3 aebd 21ba d4bd
00000060: df83 2ebd 7646 4ebd 9c83 89bd 344b 9f3d
00000070: 0f0b 803d e3da df3d fba0 293d 2047 e03d
-0.069482565 0.014780626 -0.022652948 -0.005709653 -0.0088389935 -0.013667753 0.072790995 0.049258955
-0.11820749 0.006722583 -0.019627046 -0.109984644 -0.11510814 0.108770825 -0.02174401 -0.058152407
-0.0036217808 0.04264784 0.05275333 -0.016613455 0.078434885 -0.06471296 -0.085302986 -0.10387064
-0.04260623 -0.050360166 -0.067145556 0.07778016 0.06252109 0.10930421 0.04141329 0.10951066

features.7.weight f4 [32]
00000000: 710b 963f f167 a03f 9949 a03f bed5 3c3f
00000010: fe5a 963f 5918 983f 4a73 913f 2109 9a3f
00000020: d066 923f 837d 983f cce2 9a3f 7ac3 933f
00000030: 34eb 9a3f 78e1 bd3f 41d2 9e3f ae19 7a3f
00000040: f324 ad3f 5515 8c3f 5128 a83f f517 993f
00000050: 7bd8 9c3f 6f9d 963f 2c66 843f c13a 903f
00000060: 76d4 9a3f 56ad 8f3f befb 913f f936 a13f
00000070: 45ac 963f d913 9f3f 3ddf 803f 6faf 5f3f
1.1722242 1.253172 1.252246 0.73763645 1.1746519 1.188243 1.1363308 1.2034036
1.1437626 1.1913303 1.2100463 1.154403 1.2103028 1.4834433 1.2407914 0.97695434
1.3526901 1.094401 1.3137304 1.1960436 1.2253565 1.1766795 1.034368 1.126793
1.2096088 1.1224773 1.1404951 1.2594901 1.1771322 1.2427932 1.0068127 0.87377065

features.7.bias f4 [32]
00000000: 413f 193e 6f40 3d3e e48a 263e bc7d 7cbe
00000010: 7b7b 1a3e 65d5 063e 428e 963d 755c 453e
00000020: 41b5 273e 9231 153e db36 fc3d d73c f53d
00000030: fd9f 373e 1cbc 8f3d 7215 453e 08d3 80bd
00000040: 8c9c 30bd 91c4 7c3d c2b1 433e 8482 153e
00000050: 2bbf 09bd a049 0f3e 41d3 13be 0e6a 2b3c
00000060: a71b 413e 9e28 6b3d b362 003e b95d 5f3e
00000070: e857 393e ae26 013e 44df 03bd ecc1 e9bd
0.14965536 0.1848161 0.1626392 -0.24657339 0.15086167 0.13167341 0.07351352 0.19273551
0.16377737 0.14569691 0.1231515 0.11974495 0.17932124 0.07018301 0.19246462 -0.06290251
-0.043118045 0.061710898 0.19110778 0.14600569 -0.033629578 0.1399293 -0.14436056 0.010462297
0.18858205 0.057411782 0.12537651 0.21813096 0.1809994 0.12612411 -0.032195345 -0.11413941

features.7.running_mean f4 [32]
00000000: 90cb 923d 6e2d e9bc 4249 ae3e 8d0d debe
00000010: d610 203e a34c 913e 8cc3 8d3e cf23 8c3e
00000020: def4 c43e 9628 553d b4d6 493d 6c65 a8bd
00000030: f655 5b3e a615 113f 2854 7d3d 5e8a 8d3e
00000040: 7e4f ee3e dbaf 973e 2bba 103d 6a81 543e
00000050: c087 eb3e 39d6 bf3d 4ce0 16bf 335d 103e
00000060: e1b6 e83a e031 94be 8d0a ea3c 12fe 3a3e
00000070: 1f35 64bd 6259 c53e 2cfc 953e 87d1 44bc
0.07167733 -0.028464045 0.34040266 -0.43369713 0.15631422 0.28378782 0.27688253 0.2737107
0.3846807 0.05204066 0.049277022 -0.0822247 0.2141951 0.5667366 0.061847836 0.27644628
0.46545023 0.29626355 0.035333794 0.20752493 0.46002007 0.093670316 -0.58936 0.14098053
0.0017754697 -0.28944302 0.028569484 0.18260983 -0.055714723 0.38544756 0.29293954 -0.012012846

features.7.running_var f4 [32]
00000000: 7d3d a13f 6260 5b3f 9330 c33e 2cad b43f
00000010: f44d 803f 8866 0f3f 1575 873f e0ed 583f
00000020: 2877 b73f ac73 963f 2da6 3d3f 7473 b03f
00000030: 4035 093f 80cb b13e 2363 823e 235f 243f
00000040: 881b 4d3f 69ae 163f 357e e93e 3a36 f23f
00000050: 0c1f 433e ba9a b03f 47d8 6a3e c0c4 8c3e
00000060: 624d 203f 09b2 2f3e b7cd 893f 177b 8d3e
00000070: fe4d 7d3f 2499 683e 92cb 7e3f 903c bb3f
1.259689 0.85693944 0.38122997 1.4115348 1.002379 0.56015825 1.0582606 0.8473797
1.4333239 1.175405 0.7408169 1.3785233 0.5359688 0.3472557 0.2546626 0.6420767
0.80120134 0.5885988 0.456041 1.8922799 0.19054812 1.3797219 0.22934066 0.27493858
0.62618077 0.17157759 1.0765904 0.27632973 0.9894713 0.22714669 0.99529374 1.4627857
